baseline_qdpi_model.pth (torch, 705056 bytes, 9 tensors)

network.0.weight f4 [512, 10]
0	0xbc06374e	-0.008191897
1	0x3e03cebe	0.12871835
2	0x3e276a2f	0.163491
3	0x3d08f7f2	0.033439584
4	0x3cb62a4b	0.022236964
5	0xbcab9b36	-0.020948034
6	0xbd01b416	-0.031665884
7	0x3db69824	0.08915737
8	0x3de53c44	0.111931354
9	0x3e54d121	0.20782901
10	0xbd9c3a52	-0.07628311
11	0xbdb4115b	-0.08792373
12	0x3f391653	0.7229969
13	0x3d560781	0.05225325
14	0x3ed619d0	0.41816568
15	0xbc13acbd	-0.009013352
16	0xbb20ec5b	-0.0024554941
17	0x3d792643	0.060827505
18	0xbce86adc	-0.028371267
19	0x3f047ac9	0.51749855
20	0xbe839fb8	-0.25707793
21	0x3dc4d313	0.09610572
22	0x3effaaf0	0.49935102
23	0x3dca66d3	0.098828934
24	0x3e6f4597	0.2336639
25	0x3ca861ce	0.02055445
26	0x3d4365df	0.047704574
27	0xbc86f209	-0.016472833
28	0x3d8afc65	0.06786422
29	0xbf6600e5	-0.89845115
30	0x3ce92606	0.028460514
31	0xbf383425	-0.71954566
32	0x3f2458f9	0.6419826
33	0x3ab2272e	0.0013591999
34	0x3b9d5811	0.004801758
35	0xbcce7f81	-0.025207283
36	0xbd75c1ec	-0.05999939
37	0x3d9e28b2	0.07722606
38	0x3ce30ec9	0.027717011
39	0x3b6a66b7	0.003576679
40	0x3b2d4f75	0.0026445065
41	0xbda81295	-0.08206669
42	0x3e7f082d	0.24905463
43	0x3d66a6e3	0.0563115
44	0x3dc9db5e	0.09856294
45	0xbdd001a8	-0.10156566
46	0xbb0ba26e	-0.0021306532
47	0x3d432b67	0.047648814
48	0x3dbc9050	0.09207213
49	0x3e7148f1	0.23562981
50	0xbe25aa80	-0.16178322
51	0xbe57db3f	-0.2107973
52	0xbef2b65b	-0.4740475
53	0xbc251c85	-0.0100776
54	0xb90eb754	-0.0001361047
55	0x3e18091d	0.14847226
56	0xba24c5e6	-0.00062855927
57	0x3d1a427c	0.03766106
58	0x3db2c117	0.08728235
59	0x3e90ca56	0.2827937
60	0x3c0460d1	0.008079723
61	0xbd86b252	-0.06576981
62	0x3e4c8024	0.19970757
63	0xbd79c443	-0.060978185
64	0x3db2b6f8	0.08726305
65	0xbd0f0254	-0.03491433
66	0x3da71ea6	0.081601426
67	0xbd298f58	-0.04139647
68	0x3af18420	0.0018426217
69	0x3e40eb11	0.1883967
70	0x3c2d92f6	0.01059412
71	0x3d3a2232	0.045442767
72	0x3eaa7e7e	0.3329963
73	0xbcbc1a56	-0.022961777
74	0xbe1985af	-0.14992402
75	0xbe1af6d4	-0.1513322
76	0xbd9be672	-0.07612313
77	0x3dd4c6a1	0.10389448
78	0x3dae869a	0.08521767
79	0x3ec5ac47	0.38608
80	0xbcc7cbe6	-0.024389219
81	0xbc9c38b9	-0.019070016
82	0x3f061235	0.5237153
83	0x3c950492	0.018190656
84	0x3ed94ca0	0.42441273
85	0xbd807449	-0.0627218
86	0x3d91897b	0.071063004
87	0xbdb9bd28	-0.09069282
88	0xbd2d0538	-0.042241305
89	0x3e919868	0.2843659
90	0xbc791454	-0.0152026005
91	0x3c178770	0.009248599
92	0x3e8b7ccc	0.2724365
93	0x3cdee4b9	0.027208673
94	0xbd4a2a07	-0.049356487
95	0xbd257fa3	-0.040404927
96	0x3daf87ff	0.08570861
97	0xbb0b04d6	-0.00212126
98	0x3ce65aa2	0.028119389
99	0x3e43b8d7	0.1911348
100	0xbd9974b3	-0.07492962
101	0x3d881df0	0.06646335
102	0x3e9febdb	0.3123463
103	0x3ca89921	0.02058083
104	0x3e1f0fe2	0.15533403
105	0xbde02784	-0.10945037
106	0xbdb2b461	-0.08725811
107	0xbdc59ea0	-0.09649396
108	0xbde61706	-0.1123486
109	0xbee9efae	-0.45690674
110	0x3e0fd36c	0.14045495
111	0x3dcddbaa	0.10051663
112	0x3f62f3f0	0.8865347
113	0x3dc25d42	0.09490444
114	0x3c98fef6	0.018676262
115	0x3c55e9eb	0.013056259
116	0x3e5e4497	0.21705852
117	0xbdb60811	-0.08888257
118	0xbdfc51d3	-0.12320294
119	0xbf5fca5f	-0.8741817
120	0xbc8cb77d	-0.017177338
121	0x3deb8d01	0.11501504
122	0x3e9b475f	0.3032789
123	0xbc28e1bf	-0.010307728
124	0xbeeab74c	-0.4584297
125	0xbdc5ba1a	-0.09654637
126	0xbd86f129	-0.065889664
127	0xbe4668bf	-0.19375895
128	0x3e152957	0.14566551
129	0x3d8ccf71	0.06875504
130	0xbbf210c9	-0.007387255
131	0x3e080231	0.13282086
132	0x3effbcb9	0.4994867
133	0x3d2f0242	0.042726763
134	0x3e9575f1	0.29191545
135	0xbd00793d	-0.03136562
136	0xbd7fa100	-0.0624094
137	0xbd5c58af	-0.053795513
138	0xbcb93aa3	-0.022610968
139	0xbf14376b	-0.5789706
140	0x3d15de8e	0.036589198
141	0xbed09fc1	-0.40746883
142	0x3ee55160	0.44788647
143	0xbd035d0d	-0.032071162
144	0x3d8efc92	0.06981768
145	0xbdc1f1b4	-0.09469929
146	0xbbfa758e	-0.007643408
147	0x3dab5433	0.08365669
148	0x3df3e39e	0.11908649
149	0x3dedafb2	0.11605777
150	0x3cac6e25	0.021048615
151	0xbe23b71e	-0.15987822
152	0x3e8d4633	0.2759262
153	0xbd3f312a	-0.046677746
154	0x3e6acae0	0.22928953
155	0xbdf56d23	-0.11983707
156	0xbbe491fd	-0.006975411
157	0x3dcfaeac	0.10140738
158	0x3d19a8fd	0.037514675
159	0x3e48db34	0.1961487
160	0x3ca7490c	0.020420574
161	0x3d2fae01	0.042890552
162	0x3e2fc592	0.17165211
163	0xbd01b47f	-0.031666275
164	0x3d8c6624	0.06855419
165	0xbd92c435	-0.0716633
166	0xbd1c0e37	-0.038099494
167	0x3db1520a	0.08658226
168	0x3dc6406c	0.09680256
169	0x3e7846ad	0.2424571
170	0xbc1c9071	-0.009555922
171	0x3cf47d05	0.02984477
172	0x3e857d27	0.26072046
173	0xbd1238b3	-0.035698604
174	0xbcbdde3d	-0.02317726
175	0xbd42fa1a	-0.047601797
176	0xbd858358	-0.065191925
177	0x3d95e86d	0.07319722
178	0x3e1f4074	0.1555193
179	0x3e50fa35	0.20407946
180	0x3bc8af62	0.006124423
181	0x3db3ecb1	0.0878538
182	0x3e3fa03c	0.18713468
183	0x3cfb88f7	0.030704958
184	0x3d9ed79d	0.07755969
185	0x3ccc42bf	0.02493417
186	0x3ccffc8a	0.025388975
187	0x3c6dbe1b	0.014510657
188	0x3cdbc7a6	0.026828598
189	0x3e9dde77	0.3083379
190	0xbb762382	-0.0037557785
191	0xbc63f2bc	-0.013912853
192	0x3e8ebdb6	0.27879113
193	0x3d5aed6c	0.05344908
194	0xbbaa4dd2	-0.005197265
195	0xbd9f6230	-0.077824
196	0xbc8d1f34	-0.017226793
197	0x3d7272b9	0.05919144
198	0x3d8b1133	0.0679039
199	0x3eb73330	0.3578124
200	0xbca6e7be	-0.020374175
201	0xbd8e962d	-0.069622375
202	0x3eb96861	0.36212447
203	0xbcc45b31	-0.023969265
204	0x3e40da98	0.18833387
205	0xbdc3d777	-0.09562581
206	0xbd9b3f41	-0.07580424
207	0xbe43bf88	-0.19116032
208	0x3b8749dc	0.004128678
209	0x3e43a003	0.19104008
210	0x3d712270	0.058870733
211	0xbe8019de	-0.25019735
212	0xbef6cafa	-0.48201734
213	0xbc8d10af	-0.01721987
214	0xbd7c6bc8	-0.061626226
215	0x3e01ff5f	0.12695073
216	0x3b99aaa3	0.004689531
217	0x3c224d19	0.009906077
218	0x3c203488	0.009778149
219	0x3edb8080	0.42871475
220	0xbc8ed8d7	-0.017437382
221	0x3dffe92a	0.124956444
222	0x3e1479f4	0.14499646
223	0xbc53dbef	-0.012930854
224	0xbd669322	-0.05629266
225	0x3d0ea234	0.034822658
226	0x3d6fb9f9	0.058526967
227	0x3c6f9b1c	0.014624383
228	0xbba2e3b5	-0.0049709924
229	0x3e4fde94	0.2029975
230	0xbaae6e94	-0.0013308101
231	0x3d8c41ce	0.06848489
232	0x3e7d8512	0.24757794
233	0x3cda7b59	0.026670145
234	0x3e492507	0.19643031
235	0xbd9e1d4c	-0.07720432
236	0xbcdc90f5	-0.02692459
237	0xbe37aa68	-0.17936099
238	0xbd2b948a	-0.041889705
239	0x3e197a14	0.14987975
240	0xb8d6427b	-0.00010216698
241	0xb9a06a1c	-0.00030596636
242	0x3e24960e	0.16072866
243	0xbc971708	-0.0184436
244	0xbad96dd0	-0.0016588513
245	0xbd8e3211	-0.06943143
246	0xbcb15f3a	-0.021651853
247	0x3d85a01a	0.065246776
248	0x3d17b407	0.03703692
249	0x3e9c4f64	0.3052932
250	0xbcfc7ee0	-0.030822217
251	0xbdea74ab	-0.11448034
252	0x3e8d4c15	0.27597108
253	0xbd627812	-0.05529029
254	0x3d5a1405	0.05324175
255	0xbdd51865	-0.104050435

network.0.bias f4 [512]
0	0x3f130e39	0.5744358
1	0xbed90872	-0.42389256
2	0xbf047e89	-0.5175558
3	0x3e8ed945	0.27900138
4	0x3f2eded1	0.6830874
5	0xbdc2f892	-0.09520067
6	0x3f100633	0.5625946
7	0x3f32c2e3	0.69828624
8	0x3c6248bd	0.0138112875
9	0x3f257bd7	0.6464209
10	0xbeaf86f4	-0.3428265
11	0xbfc4f7ed	-1.5388161
12	0x3ef5509b	0.4791306
13	0xbf100ff2	-0.5627433
14	0x3f1577e2	0.5838605
15	0x3f053cd5	0.5204595
16	0x3f2f8984	0.6856921
17	0x3f2691a7	0.65066
18	0x3f30c911	0.69056803
19	0x3f3cb671	0.73715883
20	0x3ea8b501	0.32950595
21	0xbe0c3dee	-0.136955
22	0x3f2badce	0.6706208
23	0x3eb8316b	0.35975203
24	0x3f19af6b	0.6003329
25	0x3f114fb0	0.5676222
26	0x3f2a209b	0.66456
27	0xba98a4e3	-0.001164582
28	0x3f2e0821	0.67981154
29	0x3f150c20	0.58221626
30	0x3f2f0ceb	0.68379086
31	0xbe8f0f48	-0.27941346
32	0x3ef13db1	0.4711738
33	0x3f2b02b2	0.6680099
34	0x3e873972	0.26411015
35	0x3f35403b	0.7080113
36	0x3f15b333	0.5847656
37	0x3ea8223a	0.32838613
38	0x3f2aed4d	0.6676834
39	0x3e0d1081	0.13775827
40	0x3ea94f64	0.33068383
41	0x3dec3901	0.1153431
42	0x3eb2cae8	0.3492043
43	0x3e8eca5d	0.27888766
44	0x3f2a85c1	0.6661034
45	0x3f24ce9d	0.64377767
46	0xbf60e80b	-0.8785407
47	0x3de44c16	0.11147325
48	0x3f399f5c	0.7250879
49	0x3e9146e6	0.28374404
50	0x3f2ec4a7	0.6826882
51	0x3f33bc0a	0.702088
52	0x3d86f9a7	0.06590586
53	0xbbbb1df1	-0.0057103564
54	0x3f2975b3	0.6619522
55	0x3f28cbd6	0.6593603
56	0x3ef6efae	0.48229736
57	0x3f217b9f	0.63079256
58	0x3f297772	0.66197884
59	0xbdbf0f8f	-0.093291394
60	0x3f2d9bf6	0.678161
61	0x3f34c4c3	0.70612735
62	0x3f2879e0	0.65810966
63	0xbebbcdc9	-0.3668044
64	0x3e876c80	0.26449966
65	0xbeaddbcd	-0.33956757
66	0xbdd7e95f	-0.10542559
67	0x3f24dddc	0.6440103
68	0x3ee095a6	0.43864173
69	0x3e98ac6b	0.29819044
70	0x3f1b5410	0.60675144
71	0x3d8ef60e	0.06980525
72	0x3ed50c3e	0.41610903
73	0x3f32581f	0.6966571
74	0x3ee73365	0.45156398
75	0x3e34a42b	0.1764075
76	0x3f372a6e	0.7154912
77	0x3f249def	0.6430349
78	0x3f1fd502	0.624344
79	0x3f195657	0.5989737
80	0x3e714f16	0.23565325
81	0x3efc89ba	0.49323827
82	0x3f2f2f5f	0.6843166
83	0x3e915231	0.2838302
84	0x3f2b841c	0.6699846
85	0xbf43885a	-0.7637993
86	0x3e6af605	0.22945412
87	0xbeeede3d	-0.4665393
88	0xbf4f7825	-0.810427
89	0x3df19145	0.11795286
90	0x3f278b48	0.654469
91	0x3d32ff36	0.04370042
92	0x3f26a3e7	0.65093845
93	0x3eb64398	0.35598445
94	0x3eedbcb8	0.46433043
95	0x3ed66aa1	0.41878226
96	0x3f332c56	0.69989526
97	0xbee20b2a	-0.44149143
98	0x3e868d27	0.26279566
99	0xbf23b71c	-0.6395128
100	0x3f22cef3	0.6359703
101	0x3f224196	0.63381326
102	0x3f2495e7	0.6429123
103	0xbdfa48a4	-0.12220886
104	0xbf7fdcee	-0.99946487
105	0x3f2a50d1	0.66529566
106	0x3ea5c47c	0.32376468
107	0xbfc04f71	-1.5024244
108	0x3f308e8a	0.689675
109	0x3e2de4c3	0.16981797
110	0xbf4316d1	-0.7620669
111	0x3f2d9120	0.6779957
112	0xbea9f6ab	-0.33196005
113	0x3e347d4b	0.1762592
114	0x3eb2b9df	0.34907433
115	0x3ecb3a9d	0.39693156
116	0x3f32091a	0.6954514
117	0x3f2e0586	0.6797718
118	0xbdc8a87f	-0.09797763
119	0x3eb70a63	0.35750112
120	0x3f3da757	0.74083465
121	0xbf05bf49	-0.52245003
122	0x3dd966d5	0.10615317
123	0x3d656af7	0.056010213
124	0x3d552543	0.05203749
125	0xbe9d4440	-0.30716133
126	0x3f30e75d	0.6910303
127	0x3f14c092	0.5810634
128	0x3f25518e	0.6457757
129	0x3c9ac8a2	0.018894497
130	0x3f3204fe	0.6953887
131	0x3f2edc45	0.68304855
132	0x3f317091	0.6931239
133	0x3ec5a826	0.3860485
134	0x3f2d97f2	0.67809975
135	0x3f2487df	0.6426982
136	0x3ec01087	0.3751261
137	0x3f086326	0.5327629
138	0xbce45abd	-0.027875299
139	0x3db24cc7	0.0870605
140	0x3f370d09	0.71504265
141	0x3da36238	0.07977718
142	0xbf2ae6f9	-0.66758686
143	0xbefe0625	-0.49614063
144	0xbf35a8cf	-0.70960706
145	0x3e82c862	0.25543505
146	0x3f1ae214	0.6050122
147	0xbf3bc9c8	-0.7335477
148	0x3f2cea51	0.6754504
149	0x3e7dd947	0.24789916
150	0x3eefafa8	0.46813703
151	0x3eedce61	0.46446517
152	0x3db50560	0.08838916
153	0xbea2bd14	-0.3178488
154	0x3f281b46	0.65666616
155	0x3cdb1288	0.026742235
156	0x3db85178	0.08999914
157	0x3eeaa5b7	0.45829555
158	0x3f4098f3	0.7523338
159	0x3f025cb4	0.50922704
160	0x3f190c7f	0.5978469
161	0x3f28bd2b	0.6591365
162	0x3f1d4f35	0.61448985
163	0x3f2594cc	0.6468017
164	0xbf138a95	-0.57633334
165	0x3da0dbf8	0.07854456
166	0x3f37ebb1	0.7184401
167	0x3f1e6ae6	0.61881864
168	0x3dafdd85	0.08587173
169	0x3f277749	0.6541639
170	0xbf663d23	-0.8993704
171	0x3f064e12	0.52462876
172	0x3f31f5ff	0.69515985
173	0x3dc278da	0.09495707
174	0xbf0f45c2	-0.55965817
175	0x3f0e8d9a	0.55684817
176	0x3f2ab75e	0.66686046
177	0x3f22ee90	0.6364527
178	0xbf83bb6c	-1.0291572
179	0xbd8635e9	-0.06553251
180	0x3ec7cf79	0.39025477
181	0x3f2bd874	0.67127156
182	0xbf2870bc	-0.6579702
183	0x3f030c31	0.5119048
184	0x3f06c915	0.52650577
185	0x3f0f4a57	0.5597281
186	0x3eaa6ac3	0.33284578
187	0x3f32a758	0.69786596
188	0x3d1f68a1	0.03891814
189	0x3f23f802	0.64050305
190	0x3f22f4c9	0.6365476
191	0x3e18eecc	0.14934844
192	0x3f15ffdd	0.5859354
193	0xbd00f5f0	-0.031484544
194	0x3eef4ee0	0.46739864
195	0x3e98288f	0.29718444
196	0xbecfd49e	-0.40591902
197	0xbe447d73	-0.1918848
198	0x3c52b8c1	0.012861432
199	0x3f242904	0.64125085
200	0x3f1f9a5b	0.623449
201	0x3e867537	0.26261303
202	0xbce132ca	-0.027490038
203	0x3f3494b3	0.70539397
204	0xbd070877	-0.032967057
205	0x3f27d76f	0.655631
206	0x3ee6958b	0.45035967
207	0xbf0a4dd4	-0.54025006
208	0x3f0ebe94	0.5575955
209	0xbf97dc75	-1.1864153
210	0x3f312c6f	0.69208425
211	0xbf0b8823	-0.54504603
212	0x3f218fea	0.6311022
213	0x3e86d6e1	0.26335815
214	0x3f1472bc	0.5798757
215	0x3deb0f07	0.114774756
216	0xbf2cc021	-0.67480665
217	0x3f2faf6a	0.68627036
218	0x3f2976d1	0.66196924
219	0x3f014bbe	0.505062
220	0xbe99fa15	-0.3007361
221	0x3e8ea7fe	0.27862543
222	0xbe209b20	-0.15684175
223	0x3f17a872	0.592414
224	0x3edf0157	0.4355571
225	0x3f2a37a7	0.6649117
226	0x3f2240a8	0.6337991
227	0x3dd2d2ae	0.1029409
228	0x3f3439d3	0.7040073
229	0x3f2b28d0	0.6685915
230	0x3f1525a2	0.5826055
231	0xbf455c29	-0.7709375
232	0x3d07b8cc	0.03313522
233	0x3f371b64	0.7152617
234	0x3f26980a	0.65075743
235	0x3f20cccc	0.62812495
236	0x3f01e8a6	0.5074562
237	0xbf34a6c0	-0.7056694
238	0xbe5a7d0f	-0.21336769
239	0x3eb44afe	0.35213464
240	0x3f127502	0.5720979
241	0x3f1d2bc9	0.61394936
242	0x3f2b661b	0.66952676
243	0xbe6efabe	-0.23337838
244	0x3f305147	0.6887402
245	0x3f30f9c6	0.69131124
246	0xbef3f413	-0.4764715
247	0x3ebdca71	0.37068513
248	0x3f0b1120	0.54323006
249	0x3f08f1dc	0.5349405
250	0x3f2eced5	0.6828435
251	0x3e7026c8	0.23452294
252	0x3f39c7e2	0.7257062
253	0x3f268699	0.6504913
254	0x3f340eec	0.7033527
255	0xbee44e5c	-0.44591033

network.3.weight f4 [256, 512]
0	0x3d178c05	0.036998767
1	0x3d839fd1	0.06426967
2	0xbdbfc842	-0.09364368
3	0x3d5fc84f	0.05463439
4	0x3d167e70	0.036741674
5	0xbd3c0fba	-0.045913436
6	0x3d1b97e3	0.037986647
7	0x3d02b965	0.031915087
8	0x3cf82a81	0.030293705
9	0x3d09f8ef	0.033684667
10	0xbd63fd52	-0.055661507
11	0xbe2b3b55	-0.16721852
12	0x3d4fef15	0.050765116
13	0xbdaf7fa3	-0.08569267
14	0x3d4f0e94	0.050551012
15	0x3d10055d	0.035161365
16	0x3d2908de	0.041268222
17	0x3d24c6c7	0.04022863
18	0x3d33aff4	0.043868974
19	0x3d25053e	0.040288202
20	0x3d1308e8	0.035897166
21	0xbd31fd66	-0.04345455
22	0x3d1ed9b5	0.03878184
23	0x3cf7af1e	0.03023487
24	0x3d35df07	0.04440215
25	0x3d229d8e	0.039701037
26	0x3d1c4589	0.03815225
27	0x3d11191a	0.03542433
28	0x3d2b1c57	0.041775074
29	0x3d1fd844	0.039024606
30	0x3d1d096d	0.038339067
31	0x3d2207d2	0.03955824
32	0x3d63d8f4	0.055626824
33	0x3d3ef3df	0.046619292
34	0x3d6ce4ac	0.057835266
35	0x3d1597f7	0.036521878
36	0x3d02a824	0.031898633
37	0x3d257b7d	0.04040097
38	0x3d223a0a	0.03960613
39	0x3cf5706e	0.029960837
40	0x3d4cf329	0.050036583
41	0x3ce96158	0.0284888
42	0x3cf7d6fb	0.030253878
43	0x3d397858	0.045280784
44	0x3d15883d	0.03650688
45	0x3d246de9	0.04014388
46	0x3db0b3d1	0.08628047
47	0x3d2f2675	0.042761285
48	0x3d236f0c	0.039900824
49	0x3cfdaaf4	0.030965306
50	0x3d01b327	0.031664994
51	0x3d27c7f0	0.04096216
52	0x3cf6c94b	0.03012528
53	0x3d101dbc	0.035184607
54	0x3d10afa4	0.035323754
55	0x3d28649a	0.041111566
56	0x3d5266eb	0.05136768
57	0x3d333354	0.043750122
58	0x3d0f1a18	0.034936994
59	0x3d79098b	0.060800117
60	0x3d3cd6ec	0.046103403
61	0x3d1dea90	0.038553774
62	0x3d281961	0.04103983
63	0xbd79ce16	-0.060987554
64	0x3d80fb9d	0.062979914
65	0x3d7fc4af	0.06244343
66	0xbd297ff9	-0.04138181
67	0x3cfe67ef	0.031055419
68	0x3d56a12d	0.052399803
69	0x3d000035	0.031250197
70	0x3d1c5b82	0.038173206
71	0x3cf6cc87	0.030126823
72	0x3d54ab22	0.051921017
73	0x3d0c54a5	0.03426041
74	0x3d3f5db6	0.04672023
75	0x3d1cb055	0.0382541
76	0x3d183e52	0.03716881
77	0x3d09c5c0	0.033635855
78	0x3d0b22c5	0.033968706
79	0x3cfe87c7	0.031070603
80	0x3d3e8ffa	0.046524025
81	0x3d0a2084	0.033722416
82	0x3d0a509e	0.03376829
83	0x3d1d99c0	0.038476706
84	0x3d29d0ff	0.04145908
85	0xbda80f7f	-0.08206081
86	0x3d61c683	0.055120956
87	0x3d638f26	0.05555644
88	0x3dc16a32	0.09444083
89	0x3d1fe441	0.03903604
90	0x3d0ffca5	0.03515305
91	0x3d0c13a8	0.034198433
92	0x3d31f7e5	0.0434493
93	0x3d097cc9	0.03356627
94	0x3d3d5967	0.04622784
95	0x3cd0acc7	0.025473012
96	0x3d11d5f8	0.035604447
97	0x3d6aee9e	0.05735647
98	0x3d42fd29	0.047604714
99	0xbdc7fcde	-0.097650275
100	0x3d2d1738	0.04225847
101	0x3d14612d	0.036225487
102	0x3d103d2c	0.035214588
103	0xbd72245f	-0.059116717
104	0xbde60120	-0.11230683
105	0x3d0dcc55	0.034618694
106	0x3d262c18	0.040569395
107	0xbe24a7a8	-0.16079581
108	0x3d1203ef	0.035648283
109	0x3d0754b0	0.03303975
110	0xbda97fed	-0.08276353
111	0x3d0d1d87	0.034451988
112	0x3d8d9564	0.069132596
113	0x3ca4a174	0.020096518
114	0x3cf3f603	0.029780393
115	0x3d0ad07e	0.03389024
116	0x3d33a830	0.043861568
117	0x3d35ff83	0.044433128
118	0xbd829fba	-0.06378122
119	0x3d5e6d9b	0.054303747
120	0x3d2499ae	0.040185623
121	0xbd6b3843	-0.057426702
122	0x3cfa31f1	0.030541392
123	0x3d1245dd	0.035711158
124	0x3d27a8ce	0.04093247
125	0xbd6d399b	-0.057916265
126	0x3d1004b9	0.035160754
127	0x3d460349	0.048342977
128	0x3d2e3c2a	0.042537846
129	0x3cba175f	0.022716222
130	0x3d4387ca	0.04773692
131	0x3d27a109	0.04092506
132	0x3d211d20	0.039334416
133	0x3d33ccf0	0.043896616
134	0x3d28dfeb	0.04122917
135	0x3d092817	0.0334855
136	0x3d0c3d33	0.03423805
137	0x3d11999f	0.035546895
138	0x3d8b69c5	0.06807283
139	0x3ce276e8	0.02764459
140	0x3d397189	0.04527429
141	0x3cc89e20	0.024489462
142	0xbdc73974	-0.09727755
143	0xbd7a11b5	-0.061052043
144	0xbdc1557a	-0.094401315
145	0x3d4bbe4d	0.04974203
146	0x3d1de919	0.038552377
147	0xbd947a5c	-0.07249901
148	0x3d3013b3	0.042987537
149	0x3d28844d	0.041141797
150	0x3d07e07f	0.03317308
151	0x3d1cec53	0.038311314
152	0x3cb9f078	0.022697672
153	0xbd7f5160	-0.062333465
154	0x3d0ed7eb	0.034873884
155	0x3cbe338c	0.023217939
156	0x3cfebe91	0.031096729
157	0x3d041cf9	0.032254193
158	0x3d2d4828	0.04230514
159	0x3d2ed034	0.042679027
160	0x3d3c2a20	0.04593861
161	0x3d18bb92	0.037288256
162	0x3d13a449	0.036045346
163	0x3d2b5de4	0.041837588
164	0xbdbd92d1	-0.09256519
165	0x3d1fccf8	0.039013833
166	0x3d21b685	0.039480705
167	0x3d164004	0.036682144
168	0x3d0c291b	0.03421889
169	0x3d026980	0.031838894
170	0x3dca2f63	0.098723195
171	0x3d02d23a	0.03193877
172	0x3d0b2b08	0.033976585
173	0x3d23cfa8	0.03999296
174	0x3d8199fb	0.063281976
175	0x3d00e0c7	0.031464364
176	0x3d3e4a54	0.046457604
177	0x3d1ae54b	0.037816327
178	0xbdec3c80	-0.11534977
179	0xbd611bec	-0.05495827
180	0x3d31a23d	0.043367613
181	0x3d3f8b16	0.046763502
182	0x3d9ab108	0.07553297
183	0x3d22027b	0.039553147
184	0x3d091aed	0.033472944
185	0x3d04a62a	0.03238503
186	0x3d536083	0.051605713
187	0x3d4cd1bc	0.050004706
188	0x3d0c828e	0.034304194
189	0x3d28d194	0.041215494
190	0x3cee3a1f	0.029080449
191	0x3d3074bd	0.04308008
192	0x3d2c95e6	0.04213514
193	0xbd529173	-0.051408242
194	0x3ceb8648	0.028750554
195	0x3d54794f	0.0518735
196	0xbd930b71	-0.07179917
197	0xbd50e4a8	-0.050999314
198	0x3cfe675b	0.031055143
199	0x3d20cfce	0.039260678
200	0x3cff55c0	0.031168818
201	0x3d48a5e3	0.048986327
202	0x3d0577aa	0.032584824
203	0x3d19e442	0.0375712
204	0xbd4836f2	-0.048880525
205	0x3d25bf7b	0.040465813
206	0x3d229b19	0.039698694
207	0xbd9ccab3	-0.07655849
208	0x3d21c1ce	0.039491467
209	0xbe0651f9	-0.13117208
210	0x3d26e3e2	0.04074467
211	0x3d8d8524	0.0691016
212	0x3d317db2	0.043332763
213	0x3d49332d	0.04912107
214	0x3d16d781	0.036826614
215	0x3d6b165f	0.05739438
216	0x3dae3da7	0.08507853
217	0x3d1ed8c0	0.038780928
218	0x3d207755	0.039176304
219	0x3d0efbcf	0.034908112
220	0xbd478a80	-0.04871607
221	0x3d683814	0.056694105
222	0xbd107621	-0.035268907
223	0x3d11ceb9	0.035597537
224	0x3cef4ef4	0.029212452
225	0x3d0b8bc9	0.034068856
226	0x3d2a7bf0	0.041622102
227	0x3d12e5e6	0.03586378
228	0x3d27333d	0.04082035
229	0x3d0855d0	0.033284962
230	0x3d139a8b	0.036036056
231	0xbdc2da28	-0.09514266
232	0x3d41d8c0	0.04732585
233	0x3d21df8e	0.03951984
234	0x3d2df5fb	0.042470913
235	0x3d2ffee0	0.042967677
236	0x3d135fb7	0.035979953
237	0xbdb24d47	-0.08706146
238	0xbd508f82	-0.05091811
239	0x3d016409	0.03158954
240	0x3d1f7c5b	0.038936954
241	0x3d244165	0.040101428
242	0x3d1a8181	0.03772116
243	0xbd3e433b	-0.046450835
244	0x3d182319	0.037142847
245	0x3d2ab936	0.041680537
246	0x3d72e1ac	0.05929725
247	0x3ce31b6f	0.027723042
248	0x3d16237b	0.03665493
249	0x3d051ccb	0.032498162
250	0x3d103ba1	0.035213117
251	0x3cf28eba	0.029609073
252	0x3d158f22	0.036513455
253	0x3d0b5c94	0.034023836
254	0x3d0e59d9	0.034753654
255	0x3da67507	0.0812779

network.3.bias f4 [256]
0	0x3debb912	0.11509909
1	0x3defd7f0	0.11711109
2	0x3df3ce65	0.11904601
3	0x3df1cfa0	0.118071795
4	0x3dfc9aa1	0.123341806
5	0x3dffba5d	0.12486718
6	0x3de88778	0.113539636
7	0x3dfacf43	0.12246563
8	0x3df81941	0.12114192
9	0x3dedc1c1	0.11609221
10	0x3df58e74	0.119900614
11	0xa8752330	-1.3607862e-14
12	0x3dea644f	0.114449136
13	0x3df635ed	0.12022004
14	0x3df329a2	0.11873175
15	0x3deb9011	0.11502088
16	0x3de62477	0.11237424
17	0x3df27ffc	0.11840817
18	0x3dfd0fac	0.12356505
19	0x3dea7cfe	0.114496216
20	0xaf17d991	-1.3810665e-10
21	0x3de8e364	0.11371496
22	0x3df1765e	0.11790155
23	0x3df46b3e	0.11934517
24	0x3bf416e2	0.007449017
25	0x3e010504	0.1259957
26	0x3de5c62e	0.112194404
27	0x3dee5a24	0.11638287
28	0x3df2f506	0.11863141
29	0x3de83194	0.11337581
30	0x3df0dec3	0.117612384
31	0x3dfb81de	0.122806296
32	0x3de65f5e	0.112486586
33	0x3df1326b	0.117771946
34	0x3e07413a	0.13208476
35	0x8008e748	-8.17652e-40
36	0x3dfe4ead	0.1241735
37	0x3df48630	0.11939657
38	0x3df44656	0.11927478
39	0xadbd32d0	-2.1509378e-11
40	0x3df7dd47	0.12102752
41	0x32125b8d	8.519135e-09
42	0x3ddda693	0.10822787
43	0x3de31b4d	0.110891916
44	0x3dee12b7	0.11624663
45	0x3dfb7eaa	0.12280019
46	0x3df0e23d	0.117619015
47	0xace25683	-6.432911e-12
48	0xb27c2744	-1.46772585e-08
49	0x3df153ec	0.11783585
50	0x3df6e93b	0.12056204
51	0x3deb8f2f	0.115019195
52	0xabab6f8d	-1.2181242e-12
53	0x3df0e626	0.11762647
54	0x3dfbe517	0.12299555
55	0x3de97233	0.11398735
56	0x3dff1b89	0.12456424
57	0x3dfbd356	0.122961685
58	0x3decc3cc	0.11560783
59	0x3df7d305	0.12100796
60	0x3defe6a5	0.11713914
61	0x3def5078	0.1168527
62	0xb6b99b77	-5.531528e-06
63	0x3de73979	0.11290259
64	0xb098c3b2	-1.1115076e-09
65	0x3de81258	0.11331624
66	0x3dfed436	0.1244282
67	0x3df79303	0.12088587
68	0x3dfb55f8	0.122722566
69	0x3df536ed	0.11973367
70	0x3dfdbf77	0.12390035
71	0x3de2e201	0.11078263
72	0x3df195da	0.1179616
73	0x3de508ba	0.11183305
74	0x3e00fac5	0.12595661
75	0x3df847ce	0.12123071
76	0x3df184f3	0.11792936
77	0x3ded82c3	0.115972064
78	0x9e84cfa4	-1.4061922e-20
79	0x3df56bd2	0.11983456
80	0x3df643b9	0.12024636
81	0x3df55ff2	0.11981191
82	0x3dffe0c7	0.12494045
83	0x3e0029ac	0.12515897
84	0x3ded7fe2	0.11596657
85	0x3dda1efa	0.106504396
86	0x3df752aa	0.12076314
87	0x3def92aa	0.11697896
88	0x3df90f9c	0.121611804
89	0x3de65015	0.11245743
90	0x3deffe4f	0.117184274
91	0x3df6f777	0.12058919
92	0xaf396a50	-1.6863422e-10
93	0x3df33643	0.11875584
94	0x3df89af5	0.12138931
95	0x3df5b82c	0.119980186
96	0x3e02a366	0.12757644
97	0xaab56060	-3.2218932e-13
98	0x3df5daf9	0.12004656
99	0x3defa7b2	0.11701907
100	0x8014b6c5	-1.902275e-39
101	0x3df61649	0.12015969
102	0x3df638e4	0.1202257
103	0xad315583	-1.00802726e-11
104	0x3decdd22	0.11565615
105	0x3df21b29	0.11821587
106	0x3dfee60a	0.1244622
107	0x3df4dfa8	0.119567215
108	0x3e012feb	0.12615936
109	0x3df57943	0.119860195
110	0x3dfb2eef	0.12264811
111	0x9fe2a645	-9.598979e-20
112	0xab7b6cd4	-8.932414e-13
113	0x3e0064df	0.1253848
114	0x3dec2e8c	0.115323156
115	0x3df45cea	0.119317845
116	0x3df63ef8	0.12023729
117	0x801d9438	-2.7164e-39
118	0x3deee129	0.1166404
119	0x3e01e76c	0.12685937
120	0x3df5cf8b	0.12002476
121	0x3dfebe3c	0.12438628
122	0x801d1d00	-2.673633e-39
123	0x3debdc58	0.115166366
124	0x3e0017b6	0.12509045
125	0x3df8c4d6	0.121469185
126	0x3dff3a0f	0.12462246
127	0x3df453b3	0.11930027
128	0x3df3a7b6	0.11897223
129	0x3e02226a	0.1270844
130	0x3de5e62f	0.11225545
131	0x2dd87550	2.4608454e-11
132	0x3e03709a	0.12835923
133	0x3dfbec41	0.12300921
134	0x3df1c8c4	0.11805871
135	0x3409afd2	1.2823082e-07
136	0xb3808102	-5.983931e-08
137	0x3df24425	0.11829404
138	0x3deee594	0.11664882
139	0x3de5e868	0.112259686
140	0x3df3c16f	0.11902129
141	0x3dfc86d3	0.12330403
142	0xafe9271a	-4.2410236e-10
143	0x3df4050d	0.11915026
144	0x3df8fa00	0.12157059
145	0x3df21d8c	0.11822042
146	0x3dfdf087	0.123993926
147	0x3dff3b8c	0.124625295
148	0x3df74aa8	0.120747864
149	0x3df4e5c6	0.11957888
150	0x3df136a1	0.11777998
151	0x3df68fab	0.12039121
152	0x3df9a2ad	0.12189231
153	0x3df28233	0.1184124
154	0x3dff89a4	0.12477425
155	0xa686acf0	-9.344993e-16
156	0x3df2ef8c	0.11862096
157	0x3dea0ada	0.11427851
158	0x3deca415	0.11554734
159	0x3dec5230	0.115391135
160	0x3df44157	0.11926525
161	0x3df28471	0.118416674
162	0x3deefc5b	0.11669227
163	0xae6dc176	-5.405939e-11
164	0x3df0ed20	0.11763978
165	0x3df9973f	0.12187051
166	0x3df17777	0.11790364
167	0x3de24c5b	0.1104972
168	0x3df24a9d	0.118306376
169	0x3df49d19	0.119440265
170	0x3e027721	0.12740757
171	0x3dffff2e	0.124998435
172	0x3dee71e1	0.116428144
173	0x3dfe2272	0.12408914
174	0x3df64bee	0.12026201
175	0x3dfa17d7	0.12211578
176	0x3df0b3dc	0.117530555
177	0x3dfe2642	0.12409641
178	0x3df7a631	0.12092245
179	0xb615abf6	-2.2302825e-06
180	0x3df4755b	0.11936446
181	0x3dfd8c4e	0.123802766
182	0x2ac6ecc6	3.533616e-13
183	0x9df4208f	-6.4619927e-21
184	0x3dfa3543	0.1221719
185	0x3de4b8c1	0.111680515
186	0x3def0454	0.116707474
187	0x3e021bec	0.12705964
188	0x3de9d01b	0.11416646
189	0x3debe52b	0.1151832
190	0x80053a7c	-4.80158e-40
191	0x3df92d18	0.12166804
192	0x3dec663d	0.11542938
193	0x3df5c7f7	0.12001031
194	0x3df3acc4	0.11898187
195	0x3685e4d7	3.9903493e-06
196	0x3e05217f	0.13001059
197	0x3dfaf960	0.12254596
198	0x3e02fbf4	0.12791425
199	0x3dfca7c0	0.12336683
200	0x3dfd8818	0.123794734
201	0x3dee4ff6	0.11636345
202	0x3dfc7584	0.12327102
203	0x3dee33dd	0.11630986
204	0xb1b80850	-5.35605e-09
205	0x3df058c8	0.11735684
206	0xa0b1c3d7	-3.0114562e-19
207	0x3deed19d	0.11661074
208	0x3df06136	0.117372915
209	0xaaa12280	-2.8623284e-13
210	0x3dfbf98c	0.12303457
211	0x3df5e9c3	0.12007477
212	0x3df88693	0.12135043
213	0x3de7b1c7	0.11313205
214	0x3e0006ef	0.12502645
215	0x3dec9bb4	0.115531355
216	0x3dee4e44	0.11636022
217	0x3dfd1169	0.12356836
218	0x3df51989	0.11967761
219	0x3df303a5	0.118659295
220	0x3df32fce	0.118743524
221	0x3e050f5a	0.12994137
222	0xa50de638	-1.2307802e-16
223	0x3df87c7a	0.12133117
224	0x3de3cb12	0.11122717
225	0x3df02a73	0.117268465
226	0x3dfa5a9f	0.12224316
227	0x3e006650	0.12539029
228	0xb6d0bee2	-6.2211047e-06
229	0x3def9e95	0.11700169
230	0x3dfb1c19	0.122612186
231	0x3df133f4	0.117774874
232	0x3dfe2e3d	0.12411163
233	0x3ded206c	0.115784496
234	0x3df86d18	0.12130183
235	0xb6ad4cd6	-5.1647467e-06
236	0x3deac60f	0.11463558
237	0x388762c4	6.455698e-05
238	0x3dece1c1	0.11566497
239	0x3e01b972	0.12668398
240	0x3df83420	0.12119317
241	0x3dfc9995	0.12333981
242	0x3dff4f20	0.12466264
243	0x3df761d2	0.120792046
244	0x3de5bd5a	0.112177566
245	0x3e01fed2	0.12694862
246	0x3dfee138	0.12445301
247	0x3dfc79f2	0.12327947
248	0xb6a63a45	-4.953969e-06
249	0x3df67a6a	0.120350674
250	0x388275d0	6.220827e-05
251	0x3df5f029	0.120086975
252	0x3df43648	0.11924416
253	0x3de33c95	0.110955395
254	0x3e014ce8	0.12626994
255	0x3e006ecb	0.12542264

network.6.weight f4 [128, 256]
0	0x3dbc629e	0.09198497
1	0x3dcb3683	0.09922507
2	0x3dc4788d	0.09593306
3	0x3dcd19c8	0.10014683
4	0x3ddada8c	0.10686216
5	0x3dca2ca7	0.09871798
6	0x3dbb25c1	0.0913806
7	0x3dd1ddfb	0.102474175
8	0x3dd2545c	0.102699965
9	0x3dcaf7ae	0.099105224
10	0x3dc5cb56	0.09657924
11	0x2b59d495	7.7388904e-13
12	0x3dc1f7da	0.09471102
13	0x3dcf962a	0.101360634
14	0x3dd581af	0.10425126
15	0x3dc9cd48	0.098536074
16	0x3dd37921	0.10325838
17	0x3dbe26f8	0.092847764
18	0x3dd38083	0.10327246
19	0x3dd15370	0.102209926
20	0xad85ef3f	-1.5226596e-11
21	0x3dbece08	0.09316641
22	0x3dbcbf7e	0.09216212
23	0x3dc04bae	0.09389435
24	0x3b93748a	0.0044999765
25	0x3dd0560b	0.101726614
26	0x3dc25b7c	0.094901055
27	0x3dd58ef8	0.1042766
28	0x3dce0367	0.10059243
29	0x3db398bb	0.087693654
30	0x3dda2c1b	0.10652944
31	0x3dd3b6ec	0.10337624
32	0x3dc89f90	0.09796059
33	0x3dc6194d	0.096727945
34	0x3de39e8d	0.111142255
35	0x000d9201	1.246238e-39
36	0x3dd67f72	0.10473527
37	0x3dc5aeb3	0.09652462
38	0x3dd0d48e	0.101967916
39	0x2c1b95e5	2.2110033e-12
40	0x3dde98e1	0.10869003
41	0x326a85a8	1.3650983e-08
42	0x3db78403	0.08960726
43	0x3dc4b2a5	0.09604386
44	0x3dba57d7	0.09098785
45	0x3dc67712	0.096906796
46	0x3dca1651	0.09867538
47	0x2d239492	9.2984665e-12
48	0x32f4962d	2.847363e-08
49	0x3dcaeea3	0.099087976
50	0x3dc30eb9	0.095242925
51	0x3dc29139	0.09500355
52	0x2b1ddafc	5.6081507e-13
53	0x3dc547b5	0.09632818
54	0x3dd20df6	0.10256569
55	0x3db5ee8f	0.08883392
56	0x3dd734ad	0.10508094
57	0x3de052a1	0.1095326
58	0x3dc025df	0.09382223
59	0x3dc97f74	0.09838763
60	0x3dd546d1	0.10413898
61	0x3dc7545d	0.09732888
62	0x3712670c	8.726271e-06
63	0x3dbbcc9a	0.09169884
64	0x380b35d0	3.31903e-05
65	0x3dc20a92	0.094746724
66	0x3dd09bac	0.10185942
67	0x3dcc9863	0.09990003
68	0x3dceac24	0.10091427
69	0x3dca70e4	0.098848134
70	0x3dd827fe	0.10554503
71	0x3dbf3192	0.09335627
72	0x3dccb230	0.09994924
73	0x3dbf6258	0.093449295
74	0x3dd87fed	0.10571275
75	0x3dd19aef	0.10234629
76	0x3dc011d0	0.093783975
77	0x3dcf09e3	0.101093076
78	0x1e0438bb	6.999753e-21
79	0x3dd32dfd	0.10311506
80	0x3dcf5608	0.10123831
81	0x3dd61729	0.10453636
82	0x3ddc3fa6	0.107543275
83	0x3dda2004	0.10650638
84	0x3dc68d81	0.096949585
85	0x3dc18be4	0.0945051
86	0x3dd6b2c1	0.10483313
87	0x3dd0b73f	0.101912014
88	0x3dd3ee21	0.10348154
89	0x3dc3d692	0.095624104
90	0x3dcbe245	0.09955267
91	0x3dce6e46	0.10079627
92	0x2f01050d	1.1734276e-10
93	0x3dcd57fb	0.100265466
94	0x3dcffa46	0.10155158
95	0x3dca0972	0.09865083
96	0x3dda5535	0.10660783
97	0xaa416aa0	-1.7178836e-13
98	0x3dd389fa	0.10329051
99	0x3dc0f87a	0.09422393
100	0x00085a66	7.67113e-40
101	0x3dcef314	0.10104957
102	0x3dcafedd	0.099118926
103	0x2d2f0658	9.949007e-12
104	0x3dc4b9cf	0.09605753
105	0x3dc42361	0.095770605
106	0x3dd8303c	0.10556075
107	0x3dd8915d	0.10574601
108	0x3dda5ac4	0.106618434
109	0x3dc82e4f	0.09774458
110	0x3dcd93c9	0.100379534
111	0xa08e01ab	-2.405684e-19
112	0x2ade89d4	3.953076e-13
113	0x3dd3bf1f	0.10339188
114	0x3dca5bf7	0.09880822
115	0x3dbd40f9	0.09240908
116	0x3dd5be5a	0.10436697
117	0x013f91d4	3.5185786e-38
118	0x3dcda195	0.10040585
119	0x3dd2fdf9	0.10302348
120	0x3dd21110	0.10257161
121	0x3dd9c6cb	0.1063362
122	0x000a982b	9.72943e-40
123	0x3dbd390c	0.092393965
124	0x3dd7302e	0.105072364
125	0x3ddda9c6	0.10823397
126	0x3dd66e87	0.104703
127	0x3dbc54bb	0.091958486
128	0x3dc692e9	0.0969599
129	0x3de2eb7c	0.11080071
130	0x3db6d728	0.089277565
131	0x2d03b7d4	7.487306e-12
132	0x3ddc6dd5	0.10763136
133	0x3dd951f9	0.10611338
134	0x3dc7edcd	0.09762154
135	0xb3b94625	-8.627493e-08
136	0x334888fe	4.6690722e-08
137	0x3db986a9	0.090588875
138	0x3dd748b0	0.10511911
139	0x3dc478de	0.09593366
140	0x3dc7171c	0.09721205
141	0x3dce5c94	0.100762516
142	0xb08a1a60	-1.0048318e-09
143	0x3dd89c5a	0.10576697
144	0x3dd90a6d	0.10597692
145	0x3dcb1821	0.099167116
146	0x3dd22abe	0.10262059
147	0x3de42df9	0.11141581
148	0x3dc6f47f	0.09714603
149	0x3dced554	0.10099283
150	0x3dc6f559	0.09714765
151	0x3dd71943	0.10502865
152	0x3ddd6f16	0.108122036
153	0x3dc67be5	0.096916
154	0x3dc43dbe	0.09582089
155	0x2658febe	7.5285294e-16
156	0x3dc2071e	0.09474014
157	0x3dd46b10	0.10371983
158	0x3dc7a7af	0.0974878
159	0x3dc86662	0.09785153
160	0x3dc72050	0.0972296
161	0x3dcda45d	0.100411154
162	0x3dd50f7a	0.104033425
163	0x2ee5eb0c	1.0455467e-10
164	0x3dd6804c	0.104736894
165	0x3dc998e6	0.09843616
166	0x3dc8d273	0.09805765
167	0x3db85d4f	0.09002172
168	0x3dcb1e02	0.09917833
169	0x3dc7ca7d	0.097554184
170	0x3dd78818	0.10524005
171	0x3dd83029	0.10556061
172	0x3dc16f63	0.094450735
173	0x3dd9e792	0.10639872
174	0x3dd2c453	0.10291352
175	0x3de26c4a	0.11055811
176	0x3dd0a90f	0.10188495
177	0x3dcbc660	0.099499464
178	0x3dd4f010	0.10397351
179	0xb8063fa0	-3.2007345e-05
180	0x3dd12407	0.1021195
181	0x3dd6981e	0.10478233
182	0xaa788239	-2.2072005e-13
183	0xaac59b37	-3.5101932e-13
184	0x3dbfcdab	0.093654
185	0x3dc14bf5	0.09438316
186	0x3dc48a1d	0.095966555
187	0x3dcffe08	0.101558745
188	0x3dc49da5	0.09600381
189	0x3dcd8f4e	0.10037099
190	0x0008566c	7.65686e-40
191	0x3dd21636	0.10258143
192	0x3dcb59b0	0.09929216
193	0x3dce796d	0.10081754
194	0x3dcce17f	0.100039475
195	0xb6249339	-2.45236e-06
196	0x3dd55753	0.104170464
197	0x3dd0ce84	0.1019564
198	0x3dd67767	0.10471993
199	0x3dd419e6	0.10356502
200	0x3dd5611b	0.10418912
201	0x3dbf1986	0.0933104
202	0x3dd0ed3a	0.102014974
203	0x3dc606d2	0.096692696
204	0xb0d8ca07	-1.5773488e-09
205	0x3dcaed76	0.09908573
206	0x21081c28	4.6115857e-19
207	0x3dce197a	0.10063453
208	0x3dc7b7e9	0.09751875
209	0xaa875b15	-2.4044018e-13
210	0x3dd83dcd	0.105586626
211	0x3dcf4062	0.10119702
212	0x3dbe3146	0.09286742
213	0x3dc894d6	0.09794013
214	0x3dd65338	0.104650915
215	0x3dba6cfd	0.09102819
216	0x3dcca351	0.09992088
217	0x3dd8d749	0.105879374
218	0x3dd22e4f	0.10262739
219	0x3db96de1	0.09054161
220	0x3dc057e0	0.09391761
221	0x3dde570a	0.10856445
222	0x22d3ce47	5.741007e-18
223	0x3dc7677e	0.097365364
224	0x3dba3526	0.090921685
225	0x3dc71871	0.09721459
226	0x3dc9c597	0.098521404
227	0x3ddc4a3c	0.107563466
228	0x3760e545	1.3404821e-05
229	0x3dc60f63	0.096709035
230	0x3dce9e96	0.100888416
231	0x3dc96e44	0.098354846
232	0x3dd911d5	0.10599104
233	0x3dc63aa8	0.096791565
234	0x3dce9078	0.10086149
235	0xb6657dfd	-3.4196994e-06
236	0x3dc8116a	0.097689465
237	0xb71d1f85	-9.365268e-06
238	0x3dce2df2	0.10067357
239	0x3dcb285f	0.099198096
240	0x3dd4144a	0.10355432
241	0x3dd33116	0.10312097
242	0x3dd87c94	0.105706364
243	0x3dd506e2	0.104017034
244	0x3db751ac	0.089511245
245	0x3dd6f8b6	0.104966566
246	0x3de56787	0.11201387
247	0x3dd4e8c9	0.10395963
248	0xb655d758	-3.186482e-06
249	0x3dc6f71a	0.097151
250	0x37308df6	1.052347e-05
251	0x3dce90e3	0.10086229
252	0x3dcec598	0.10096282
253	0x3dc05a35	0.093922056
254	0x3dd0a78f	0.10188209
255	0x3dd4ca12	0.10390104

network.6.bias f4 [128]
0	0x3c80a76f	0.015704839
1	0x3cadb82f	0.02120599
2	0xa92566b1	-3.672643e-14
3	0x3caa7042	0.020805482
4	0x3cb32ca7	0.021871878
5	0x33b77614	8.54308e-08
6	0x3cab7aae	0.020932522
7	0x3cae6e64	0.021292873
8	0xb2998d64	-1.7875841e-08
9	0x3caa3049	0.020774977
10	0x31828fac	3.7998316e-09
11	0xb71091f7	-8.617054e-06
12	0x32ed221e	2.7605946e-08
13	0x3caf0fbf	0.021369813
14	0x26592ac7	7.5344973e-16
15	0x3cada835	0.021198371
16	0x3cac0669	0.02099915
17	0xaf8d19e0	-2.5666136e-10
18	0x3ca871e6	0.020562124
19	0x3cab578e	0.020915773
20	0x3cada95e	0.021198925
21	0x33c785ea	9.2910184e-08
22	0x363d5797	2.8214179e-06
23	0x3caf2afd	0.021382803
24	0x3caf6aeb	0.021413287
25	0x2db9a41e	2.1104948e-11
26	0x3caecfd0	0.021339327
27	0x3ca70e30	0.020392507
28	0x3cae6ccf	0.021292118
29	0x3cac768b	0.02105262
30	0x31a5b6c1	4.8229087e-09
31	0x3cad323b	0.021142116
32	0x3cb3841c	0.02191358
33	0xaf3548cf	-1.6487721e-10
34	0x3cad5786	0.021159898
35	0x3cad2850	0.021137387
36	0x3cb15141	0.02164519
37	0x3cb143d3	0.021638786
38	0x35c8c4df	1.4958458e-06
39	0x3cb41008	0.0219803
40	0x3cae9b65	0.021314332
41	0x25642660	1.978885e-16
42	0xb522f19a	-6.070128e-07
43	0x2f871b03	2.457555e-10
44	0x3caa3731	0.02077827
45	0xaeb4b129	-8.216922e-11
46	0x3caccd88	0.021094099
47	0x3caabb24	0.020841189
48	0xb596d72e	-1.1238496e-06
49	0x3cb011d8	0.021492884
50	0xac7620aa	-3.4976835e-12
51	0x3ca97e6e	0.02069017
52	0x3cae44f5	0.021273116
53	0xae819186	-5.892091e-11
54	0xb138ed9e	-2.6910594e-09
55	0x2f97383c	2.7506697e-10
56	0xb5ff26f4	-1.9010317e-06
57	0xb18083ba	-3.740266e-09
58	0x35285eca	6.2722813e-07
59	0xb59900ea	-1.1399654e-06
60	0x3cb11efc	0.02162122
61	0x374b10f5	1.2103691e-05
62	0x3cad2fed	0.021141017
63	0x3cb4bffb	0.0220642
64	0x3cae54a1	0.021280589
65	0x800447d8	-3.93115e-40
66	0x3cb000df	0.02148479
67	0x3cb160a9	0.021652536
68	0x3c9f974d	0.019481326
69	0xb782711b	-1.5549876e-05
70	0x3ca951fe	0.02066898
71	0x3cb322fc	0.021867268
72	0x3cb30fdc	0.021858148
73	0x3cab0e1e	0.020880755
74	0x301bcfc6	5.6683935e-10
75	0x3caf63b9	0.021409856
76	0x2205a0ba	1.810995e-18
77	0x3cad7e09	0.021178262
78	0x3cb8200a	0.022476215
79	0x3ca76ca9	0.020437555
80	0x3891f586	6.959871e-05
81	0x3ca968a1	0.020679774
82	0xb3ee7605	-1.1104206e-07
83	0x3cad76d9	0.021174835
84	0x3caa6eb9	0.02080475
85	0x3cb0b5a1	0.021570982
86	0xafcf30ae	-3.768767e-10
87	0x3007d220	4.941132e-10
88	0x35b8be72	1.3764495e-06
89	0x3caa91d4	0.02082149
90	0x3c8d3e20	0.017241538
91	0x3caed920	0.021343768
92	0x3cadab83	0.021199947
93	0x3cb0d472	0.021585677
94	0x3cb0674b	0.021533629
95	0x3cb6af6c	0.022300445
96	0x3cabdcba	0.020979274
97	0xa7c11512	-5.3591105e-15
98	0xa3cc0e32	-2.2123736e-17
99	0x34bb075e	3.4836825e-07
100	0x3cad7a85	0.021176586
101	0xaa4f8680	-1.8431957e-13
102	0x3cb34277	0.021882279
103	0x3cb6c85b	0.022312334
104	0x3cb0f591	0.02160147
105	0x3cb27f90	0.021789342
106	0x3ca8dd1c	0.020613246
107	0x3cabd8e1	0.02097744
108	0x3cae7c7d	0.021299595
109	0xb57fedc8	-9.534092e-07
110	0x3cb20317	0.021729989
111	0x3caeea01	0.021351816
112	0x3cac0134	0.020996667
113	0xb92dd1e9	-0.00016576763
114	0x2f79a926	2.2706512e-10
115	0xb4e049e0	-4.1777002e-07
116	0x3cb07c66	0.021543693
117	0xb84ec060	-4.929339e-05
118	0x3caf63bb	0.02140986
119	0xb4ab11d9	-3.1864218e-07
120	0x3cab564d	0.020915175
121	0x3ca97435	0.020685295
122	0x3ca9c8e2	0.020725671
123	0x3caf75ba	0.021418441
124	0xac9dacfc	-4.4814135e-12
125	0xadb69ca4	-2.0760567e-11
126	0x3cabbd71	0.020964356
127	0x2c164e1c	2.1359641e-12

network.8.weight f4 [1, 128]
0	0xbf6c5e67	-0.92331547
1	0xbf9d3418	-1.2281523
2	0x2c6e4ba2	3.3863819e-12
3	0xbf9a5df1	-1.2059919
4	0xbfa1eb08	-1.2649851
5	0xb569b207	-8.705833e-07
6	0xbf9b4441	-1.2130204
7	0xbf9dd18f	-1.2329577
8	0xb45da8eb	-2.0643681e-07
9	0xbf9a2694	-1.2043023
10	0xb38ce78c	-6.561376e-08
11	0x371043a9	8.598822e-06
12	0xb541c283	-7.2181155e-07
13	0xbf9e5d03	-1.2372135
14	0x2818599a	8.457124e-15
15	0xbf9d263c	-1.2277293
16	0xbf9bbd13	-1.2167076
17	0xb12f6b53	-2.5526858e-09
18	0xbf98a49b	-1.1925234
19	0xbf9b25f1	-1.2120954
20	0xbf9d2741	-1.2277604
21	0x3504fa3b	4.9537965e-07
22	0x38a056c3	7.645555e-05
23	0xbf9e7499	-1.2379333
24	0xbf9eabcf	-1.2396182
25	0xafbcede4	-3.4366032e-10
26	0xbf9e25ba	-1.2355263
27	0xbf977105	-1.1831366
28	0xbf9dd033	-1.2329162
29	0xbf9c1e02	-1.2196658
30	0x3355e473	4.98007e-08
31	0xbf9cc046	-1.2246177
32	0xbfa23685	-1.2672888
33	0xb17bfd1f	-3.666919e-09
34	0xbf9ce084	-1.2256017
35	0xbf9cb7b7	-1.2243565
36	0xbfa0502e	-1.2524469
37	0xbfa0449b	-1.2520937
38	0x37fe319f	3.0302266e-05
39	0xbfa2af77	-1.2709798
40	0xbf9df87b	-1.2341455
41	0xa7389728	-2.5617072e-15
42	0xb6e992f5	-6.961049e-06
43	0xb0c9830c	-1.4661921e-09
44	0xbf9a2c99	-1.204486
45	0x3008442c	4.957339e-10
46	0xbf9c6939	-1.2219611
47	0xbf9a9ea9	-1.2079669
48	0x37ce43ce	2.4588688e-05
49	0xbf9f3c19	-1.2440215
50	0x2e17a129	3.4476564e-11
51	0xbf998cd2	-1.19961
52	0xbf9dadbb	-1.2318643
53	0xb058f82c	-7.8933016e-10
54	0x3336fac7	4.2603258e-08
55	0x32aef0af	2.0365716e-08
56	0x387a40fb	5.9665163e-05
57	0x321e8cad	9.228796e-09
58	0xb76d3c92	-1.4140403e-05
59	0xb774e183	-1.4596039e-05
60	0xbfa024b0	-1.2511196
61	0x39bbc95a	0.00035817438
62	0xbf9cbe41	-1.2245561
63	0xbfa3476c	-1.2756171
64	0xbf9dbb54	-1.2322793
65	0x8010a57c	-1.528733e-39
66	0xbf9f2d78	-1.2435751
67	0xbfa05d72	-1.2528517
68	0xbf90fbe6	-1.1326873
69	0xbada9352	-0.0016675985
70	0xbf996667	-1.1984376
71	0xbfa1e2a0	-1.2647285
72	0xbfa1d22a	-1.2642262
73	0xbf9ae66f	-1.2101573
74	0xb28293ac	-1.5201145e-08
75	0xbf9ea59c	-1.239429
76	0x240bd3a7	3.0320097e-17
77	0xbf9d01cf	-1.2266177
78	0xbfa63200	-1.2984009
79	0xbf97c2b7	-1.1856297
80	0x3a56338e	0.00081711344
81	0xbf9979f2	-1.199034
82	0x35206063	5.9744906e-07
83	0xbf9cfb9b	-1.2264284
84	0xbf9a5c8f	-1.2059497
85	0xbf9fc9aa	-1.2483418
86	0xb1718b12	-3.5149168e-09
87	0xb30ea034	-3.3207655e-08
88	0x38c32e71	9.306975e-05
89	0xbf9a7ae9	-1.2068759
90	0xbf8118c0	-1.0085678
91	0xbf9e2dca	-1.2357724
92	0xbf9d291b	-1.2278169
93	0xbf9fe453	-1.2491554
94	0xbf9f8604	-1.2462773
95	0xbfa4f380	-1.288681
96	0xbf9b991a	-1.2156098
97	0x28336546	9.958456e-15
98	0xa5d11224	-3.6268013e-16
99	0xb72e8c28	-1.0403841e-05
100	0xbf9cfed0	-1.2265263
101	0xab3afc01	-6.64302e-13
102	0xbfa1fde6	-1.2655609
103	0xbfa50922	-1.2893412
104	0xbfa000eb	-1.250028
105	0xbfa1556e	-1.2604196
106	0xbf99015b	-1.1953539
107	0xbf9b95b9	-1.2155067
108	0xbf9dddc9	-1.2333308
109	0xb7115eb9	-8.664728e-06
110	0xbfa0e9d6	-1.2571361
111	0xbf9e3c6f	-1.2362193
112	0xbf9bb895	-1.2165705
113	0xba3a12a5	-0.0007098115
114	0x31db77cc	6.387358e-09
115	0x36f396e6	7.2595312e-06
116	0xbf9f9834	-1.2468324
117	0xb886a4ca	-6.420312e-05
118	0xbf9ea5ab	-1.2394308
119	0x36ac0d35	5.127537e-06
120	0xbf9b24e4	-1.2120633
121	0xbf9983fb	-1.1993402
122	0xbf99cd34	-1.2015748
123	0xbf9eb528	-1.2399035
124	0x2fcf4a79	3.7705997e-10
125	0xafdedf87	-4.054039e-10
126	0xbf9b7e00	-1.2147827
127	0xae0938dd	-3.12007e-11

features_mean f4 [10]
0	0x448f6546	1147.1648
1	0x4095f546	4.6861906
2	0x40736fbe	3.8036952
3	0x3f86a162	1.0518
4	0x4146fcb9	12.4367
5	0x40358b17	2.8366144
6	0x3f84fd2d	1.0389763
7	0x3e30ebfd	0.17277522
8	0x3fd882ba	1.6914895
9	0x42c318c8	97.5484

features_std f4 [10]
0	0x45336d74	2870.8408
1	0x3fbf5888	1.4948893
2	0x3fc604b2	1.5470183
3	0x3f10c234	0.5654633
4	0x40b2fe4e	5.593543
5	0x3f628a78	0.88492537
6	0x3eb50d36	0.35361642
7	0x3ef9ae85	0.4876596
8	0x3eede3ae	0.46462768
9	0x42372b14	45.79207
