fast_qdpi_model.pth (torch, 52264 bytes, 9 tensors)

network.0.weight f4 [128, 12]
000000 89 af b4 be e3 49 bf 3d 7f 9f 9d 3e 68 5f 48 bd
       -0.35290173 0.09340265 0.30785748 -0.04891911
000010 c1 dc 54 be 35 e7 a2 be 6f ff f4 be 1f 8a 7d 3e
       -0.20787336 -0.31817022 -0.4785113 0.2475972
000020 9b 2b 08 bf 33 ba f0 be 69 c6 00 bf 85 fa ea be
       -0.53191537 -0.4701706 -0.5030275 -0.45894256
000030 9b e7 ff be 6d 62 ba 3e 69 1a 04 3f 18 af 2e be
       -0.49981388 0.36403218 0.516028 -0.1705898
000040 c4 0b 7c be 29 41 60 be 3d fb 16 bf 56 85 35 be
       -0.24613863 -0.21899857 -0.5897711 -0.17726645
000050 89 78 b6 3e 48 37 80 3e e5 99 a6 3d 39 e1 dc be
       0.35638836 0.25042176 0.08134822 -0.4314058
000060 af 9a 0a bf e8 55 0b 3f 9a 39 76 3e a2 6a 90 be
       -0.5414228 0.5442796 0.24045411 -0.28206354
000070 13 71 92 bd 26 05 09 bf ba d5 09 bf 37 47 f8 be
       -0.071504734 -0.5352348 -0.53841746 -0.48491833
000080 c2 a3 1d be 9b ee e5 be bb ab ef be 1e ff 0b bf
       -0.153945 -0.44908604 -0.46810707 -0.5468615
000090 54 c2 d6 be f8 84 52 3e 7b fc 99 bd 3e 58 e3 bd
       -0.41945136 0.20558536 -0.0751886 -0.11100815
0000a0 f3 e5 b9 be 55 f3 04 bf da 2b 91 be 1f a5 0b be
       -0.3630825 -0.51933795 -0.2835377 -0.13637207
0000b0 af 2b a7 3e 80 3d f0 3e 13 63 6c 3e c5 bb a8 bd
       0.32650515 0.4692192 0.23084669 -0.08238939
0000c0 67 24 07 bf c0 8a 41 3e 15 ee cc 3e ba be c3 be
       -0.5278992 0.18900585 0.40025392 -0.3823145
0000d0 a3 bf 87 be cc 49 18 bf c3 91 fa be e1 d3 79 3e
       -0.26513395 -0.59487605 -0.48939332 0.24397232
0000e0 a5 7a 81 3e 9e db a8 3e 86 a2 bd 3e de ed f2 be
       0.25288883 0.32980055 0.37038058 -0.47447103
0000f0 0d 2d 59 be 3c fd 97 3e 25 4c 47 3e 4a 09 72 be
       -0.21208592 0.2968539 0.1946264 -0.23636356
000100 fb 01 c9 3e fc 1f b2 3e 27 47 a1 3e 83 05 7a 3d
       0.39259323 0.34790027 0.31499597 0.061040413
000110 e0 22 07 bf 3f 32 12 bf 35 e9 1d bf ae 38 e5 bd
       -0.5278759 -0.5710792 -0.6168397 -0.111924514
000120 55 03 27 be d4 03 93 3e 69 7e da 3e b5 aa d0 be
       -0.16309865 0.28713858 0.42674568 -0.4075524
000130 48 ad 2a 3e df 57 09 be 20 6e 32 3d 93 9d 27 3e
       0.16667664 -0.13412426 0.043562055 0.16368704
000140 21 45 1e 3e d5 5e f3 3e 44 65 f5 3e cb f4 4d bd
       0.15456058 0.4753329 0.47928822 -0.05028228
000150 b8 76 15 bf 38 b7 e0 3e 99 e6 c0 3e c9 25 a1 be
       -0.58384275 0.43889785 0.37675932 -0.3147414
000160 96 1d c3 3d f9 12 0f bf 93 25 f3 be c3 02 c5 be
       0.095271274 -0.55888325 -0.47489604 -0.3847867
000170 eb af 38 3e 6a 2b af 3e 5c 3d 1a 3e 2c 28 c7 be
       0.18035857 0.3421281 0.15062469 -0.38897836
000180 4b eb 1d bf b8 19 1e 3e 72 72 00 3f 0d 97 80 be
       -0.61687154 0.15439498 0.5017463 -0.25115243
000190 1e 6f 91 be af 6c 11 bf 25 33 0c bf b3 ee 2e bd
       -0.28405088 -0.56806463 -0.5476554 -0.04270811
0001a0 b0 79 bc 3e 05 9f a0 3d ac d9 80 be 86 73 0c bf
       0.3681159 0.078428306 -0.2516607 -0.54863775
0001b0 0e 08 01 bf f6 fa e1 3e 5f fb 0f 3e 44 63 e1 be
       -0.50402915 0.4413678 0.14060734 -0.44021046
0001c0 4e e0 44 be cd 7e fd be e5 33 5c be 9a 0f 8b be
       -0.1922619 -0.49510804 -0.21504171 -0.2716034
0001d0 bb 3d 96 be 97 1e a2 be 95 57 a7 be a1 ee fe be
       -0.29343972 -0.31663963 -0.32684007 -0.49791434
0001e0 cd 45 c4 be ba d0 5d 3e 52 36 f2 3e e3 0c 5f be
       -0.38334504 0.21661654 0.47307068 -0.2178226
0001f0 92 84 91 3e a1 2b 14 3d 75 81 2a 3e 1b 92 02 3e
       0.28421456 0.03617442 0.16650946 0.12751047
000200 c0 2c ff be 7c f9 e6 be 1a b7 b1 be fd ed f9 be
       -0.4983883 -0.45112216 -0.34710008 -0.48814383
000210 7e dc e3 be ff 9a 04 3f ef da ee 3e 56 33 91 be
       -0.4450416 0.51799005 0.46651408 -0.2835948
000220 be fa a8 3e 64 ae 6f 3e e3 89 18 bd 38 16 94 be
       0.330038 0.23406368 -0.037240874 -0.28923202
000230 cc 4a 0a bf 05 c1 13 bf 2f 10 29 be bb 95 84 be
       -0.5402038 -0.577164 -0.1651008 -0.25895485
000240 68 45 16 bf 6a a2 b5 3e 8e 57 68 3e e9 b9 b0 be
       -0.58699656 0.35475475 0.2268965 -0.34516838
000250 26 90 1f be be a5 a9 be 8f 0b c5 be ce fe 11 bf
       -0.15582332 -0.33134264 -0.3848538 -0.57029426
000260 30 0d b4 3e 1d 6c 3d 3e bd 59 28 3d 77 63 0b bf
       0.3516631 0.18498273 0.041101206 -0.54448646
000270 47 bc d1 be 4a 77 d0 3e e5 7d e2 3d 11 03 a9 be
       -0.40963957 0.4071601 0.11059169 -0.33010152
000280 5b 7b 3b bd 8d 9a f0 be 9e 50 5d be 3d f7 93 be
       -0.045771938 -0.46992913 -0.21612784 -0.28899565
000290 81 70 16 bf a0 1d f0 be 00 e0 f5 be 70 12 96 be
       -0.5876542 -0.46897602 -0.4802246 -0.29310942
0002a0 e3 39 41 be ce 17 11 3e a0 c9 fc 3d b7 b4 a7 be
       -0.18869738 0.14169237 0.123431444 -0.32755062
0002b0 e1 38 c4 3e 3c 61 21 3e 9a 56 4e bd 8c 09 ce be
       0.38324645 0.15759748 -0.05037556 -0.4024166
0002c0 37 86 36 be ec 79 15 bf cd ed ef be f2 4a 1f bd
       -0.17824636 -0.58389163 -0.46861115 -0.038889833
0002d0 79 20 ee be c5 ff ec 3e 8f 03 2d 3e ed 6a 6c bc
       -0.4650915 0.46288887 0.16895889 -0.01442979
0002e0 e9 e2 1f 3e 94 37 b5 be 48 c5 05 bf bd ef 8c be
       0.15613903 -0.35393965 -0.5225415 -0.27526656
0002f0 82 74 3b be eb 50 c2 be 98 7b e8 be 62 f7 0f bf
       -0.18306163 -0.3795236 -0.45406795 -0.5623685
000300 9f 6d b4 be 32 2d 01 3f 01 38 8d 3e 6c 20 4d be
       -0.35239884 0.5045959 0.2758179 -0.20031899
000310 1c 13 51 be 49 41 8c be 7b a1 0d bf ac 00 fe be
       -0.20417446 -0.2739356 -0.55324525 -0.49609888
000320 20 60 9a be 81 1a bc be 9d 05 93 be c9 71 24 bf
       -0.30151463 -0.3673897 -0.2871522 -0.6423612
000330 c4 5f ff be 01 8f 26 3e 25 e7 a3 3e aa ce 92 be
       -0.4987775 0.16265489 0.32012287 -0.28673297
000340 0f 76 b3 be 70 09 9a be 30 bc 0a bf e6 c7 47 be
       -0.3505101 -0.30085325 -0.541934 -0.19509849
000350 fa 2a f4 3e ef a7 82 3e d7 d2 03 3d f6 06 7c be
       0.4768904 0.25518748 0.032183494 -0.2461203
000360 c9 76 1e bf 3f 52 eb 3e f6 e0 05 3f 70 20 3b be
       -0.619 0.45961186 0.5229639 -0.18274093
000370 8d 76 5c 3e 44 30 b0 bd 0c 2d f1 bd 41 c8 91 be
       0.21529599 -0.08602956 -0.1177617 -0.28473094
000380 06 6c 8b 3e 20 09 b5 3e bd 17 60 3e 15 0b 12 bf
       0.27230853 0.35358524 0.21884055 -0.5704816
000390 c5 8a 8a be 66 a0 11 3f 21 80 f8 3e 8e 7e 9f bd
       -0.27058998 0.56885374 0.48535255 -0.0778781
0003a0 9f 26 9b 3c b0 2e 08 bf 2c d4 f3 be 40 84 88 bb
       0.018939314 -0.5319624 -0.47622812 -0.004166156
0003b0 41 90 9c 3e b7 d9 99 3e f5 4e 35 3e bd 6c 1e bf
       0.30578807 0.30048916 0.17705901 -0.6188467
0003c0 4f 62 3a 3e 76 a5 1f 3e eb 96 fe be 69 34 a7 3e
       0.18201564 0.15590462 -0.49724516 0.32657173
0003d0 f3 a7 a5 3e 9f f7 80 3e 70 9a ce 3d c7 15 5a be
       0.32354698 0.2518892 0.1008805 -0.2129737
0003e0 35 c0 8d 3e c5 b7 cd 3e 33 3d a3 3e 39 4f de 3e
       0.27685705 0.40179268 0.3188263 0.43419817
0003f0 b9 62 bb be 7c 39 09 3f be 2a 07 3f 4c 9a 14 be
       -0.36598757 0.5360334 0.52799594 -0.14511985

network.0.bias f4 [128]
000000 66 e0 be 3e 9c cc c5 3e 13 77 dd 3e b6 e4 cd 3e
       0.37280577 0.38632667 0.4325491 0.40213555
000010 43 22 d7 3e 14 3c e3 3e 4a 15 e5 3e 42 1e e6 3e
       0.42018327 0.44381773 0.44742805 0.4494496
000020 76 8a dc 3e 4e e7 db 3e c5 8d e1 3e cb 83 d8 3e
       0.43074387 0.4294991 0.44053474 0.4228805
000030 fa e7 e7 3e c3 68 e1 3e bb 6d d4 3e c5 5e c4 3e
       0.45294172 0.4402524 0.41489968 0.38353553
000040 25 82 e6 3e 74 c4 dd 3e 69 e7 e8 3e 43 8d e6 3e
       0.45021167 0.43313944 0.45489052 0.4502965
000050 ee ef c0 3e c1 6c d4 3e f8 cf b2 3e b4 81 e0 3e
       0.37683052 0.41489223 0.34924293 0.43848956
000060 67 7f cb 3e 3f a5 c5 3e bb 51 cc 3e 87 31 e0 3e
       0.39745638 0.38602635 0.39906105 0.43787786
000070 3e 21 e7 3e fc df ec 3e 92 0a e3 3e d1 a9 d9 3e
       0.4514255 0.46264637 0.44344002 0.42512372
000080 9f ee e3 3e f6 58 e2 3e 21 50 e4 3e a4 2e d5 3e
       0.4451799 0.44208497 0.44592384 0.41637146
000090 0d b9 da 3e 4a 71 d0 3e 77 17 e6 3e cd 04 ed 3e
       0.42719308 0.40711433 0.44939777 0.46292725
0000a0 dd 5d e1 3e 16 9e d6 3e 66 e9 be 3e c4 16 e8 3e
       0.44016925 0.41917485 0.37287444 0.4532987
0000b0 01 20 e4 3e a0 e5 d6 3e c0 1b df 3e 8a 9f e0 3e
       0.44555667 0.41972065 0.4357586 0.4387172
0000c0 d4 04 e2 3e 83 6d ec 3e 33 dd ca 3e 25 33 e2 3e
       0.4414431 0.461773 0.39621887 0.44179645
0000d0 bf 28 d8 3e 12 ce e7 3e 42 21 e4 3e c4 4f ea 3e
       0.42218587 0.45274407 0.44556624 0.4576398
0000e0 4b f2 e8 3e f7 4b d0 3e c8 40 cb 3e ac 52 df 3e
       0.45497355 0.40682957 0.39697862 0.4361776
0000f0 90 06 d7 3e c5 ac df 3e a1 7b c9 3e 01 19 e7 3e
       0.41997194 0.436865 0.39352134 0.45136264
000100 ae fa e4 3e c5 90 e1 3e 4d 7f d2 3e 81 f9 e6 3e
       0.44722503 0.44055763 0.41112748 0.4511223
000110 6d ac e6 3e f3 18 e4 3e c4 ef ed 3e b8 05 d7 3e
       0.45053425 0.44550285 0.4647199 0.4199655
000120 7d f3 9b 3e 20 c8 e6 3e c2 42 e3 3e ec b9 e9 3e
       0.30459204 0.45074558 0.4438687 0.4564966
000130 b2 6d e4 3e 78 36 de 3e 9f 70 e9 3e c2 df e7 3e
       0.4461494 0.4340093 0.45593736 0.452879
000140 ae 0e d9 3e 22 3f d4 3e 73 5b e3 3e 3f 80 e9 3e
       0.42394012 0.41454417 0.44405708 0.45605657
000150 56 d7 e5 3e ff a4 d9 3e 68 95 d7 3e fa 7d ec 3e
       0.4489085 0.42508695 0.42106175 0.46189862
000160 d1 0d e6 3e 5a a2 e5 3e bf 15 c9 3e 12 64 e0 3e
       0.44932416 0.44850427 0.39274403 0.43826348
000170 ac 68 dd 3e 07 df e5 3e 36 a5 dd 3e 51 df e7 3e
       0.4324392 0.4489672 0.43290108 0.45287564
000180 6e 7d e7 3e 92 4c de 3e a3 4e e6 3e d6 f1 ca 3e
       0.45212883 0.43417794 0.4498187 0.3963763
000190 02 b7 c1 3e 68 06 e9 3e 9c 7c e6 3e b3 23 e6 3e
       0.37834936 0.455127 0.45016944 0.4494911
0001a0 20 98 c2 3e 1c 1a e7 3e 5e af d9 3e dd 65 e3 3e
       0.38006687 0.45137107 0.42516607 0.44413653
0001b0 36 d1 de 3e e1 9c ec 3e 12 ff e3 3e e4 9c d5 3e
       0.4351899 0.4621344 0.4453054 0.4172126
0001c0 35 f1 e5 3e d3 14 d2 3e 94 da d8 3e e3 78 9d 3e
       0.4491059 0.41031513 0.42354262 0.30756292
0001d0 43 ee df 3e 52 91 d9 3e 9e 9b e3 3e c6 60 c4 3e
       0.43736467 0.42493683 0.44454664 0.38355082
0001e0 88 17 c9 3e e9 00 cb 3e 26 74 d5 3e 80 82 d0 3e
       0.39275765 0.39649132 0.41690177 0.40724564
0001f0 df ac e0 3e 12 08 e3 3e 23 da ed 3e a9 b9 d8 3e
       0.4388189 0.44342095 0.46455488 0.42329147

network.3.weight f4 [64, 128]
000000 b0 87 86 3e bc c4 e6 3d 61 22 e0 3d 06 42 db 3e
       0.26275396 0.11267993 0.10944057 0.4282381
000010 c3 d8 d9 3e 44 57 26 3e b9 15 91 3e 83 f5 ad 3e
       0.4254819 0.16244227 0.28336886 0.33976373
000020 25 18 cc 3e d6 8a db 3e 20 70 cb 3e 1e 26 d1 3e
       0.3986217 0.4287936 0.39733982 0.40849394
000030 8e 8c 44 3e d0 fd 61 3e 58 b1 c4 3e 88 d6 fe 3d
       0.19194242 0.22069478 0.38416553 0.12443262
000040 67 3c c3 3d dc 79 d5 3e bd 8f ce 3e 76 a9 b0 3e
       0.09533005 0.41694534 0.4034404 0.34504288
000050 63 56 cc 3e fd e8 b7 3e 23 a3 a7 3e a4 3f 83 3e
       0.39909658 0.35919943 0.3274165 0.2563449
000060 91 9e 9f 3e 1f f4 5b 3e 7c ea d7 3e d4 26 dc 3e
       0.31175664 0.21479844 0.42171085 0.42998374
000070 14 b4 6a 3e 76 a0 c2 3e 3b 1c 85 3e 4c 07 d9 3e
       0.22920257 0.38013047 0.259981 0.4238838
000080 e9 ac 0c 3e 65 ab a3 3e 0d 1c 83 3e 4d f3 d1 3e
       0.13737835 0.319667 0.2560734 0.41005936
000090 b0 ea 8d 3e c0 c4 a1 3e f0 da fd 3d c1 4d 4d 3e
       0.27718115 0.3159542 0.12395275 0.20049192
0000a0 28 21 f1 3e d8 59 8e 3e ba d9 c3 3e 64 b8 13 3e
       0.4709561 0.2780292 0.3825205 0.14425808
0000b0 d1 00 b6 3e 50 f1 68 3e 4a d3 84 3e 14 f2 e1 3e
       0.35547498 0.22748303 0.2594245 0.44130003
0000c0 7b ac d5 3e 6b 58 0c 3e 27 53 51 3e 37 40 c6 3e
       0.41733155 0.13705604 0.20441876 0.38720867
0000d0 f6 27 6c 3e b0 86 cd 3e 11 65 b6 3e 55 f5 95 3e
       0.23062119 0.4014182 0.35623983 0.29288736
0000e0 13 92 24 3e 62 b5 90 3e f9 08 d2 3e 32 ed d2 3e
       0.16071348 0.28263384 0.4102247 0.4119659
0000f0 66 9e 66 3e 0e 4d 76 3e 6f fd a8 3e e8 26 fd 3d
       0.22521362 0.24052832 0.33005854 0.123609364
000100 7b 78 a2 3e 9d 4e a6 3e a4 20 e5 3e d5 d3 92 3e
       0.31732544 0.32481852 0.44751465 0.2867724
000110 4d 40 f2 3e 18 e5 e4 3e 08 3c 4a 3e 74 30 91 3e
       0.47314683 0.44706035 0.19749463 0.2835728
000120 5b 21 ce 3e ed c4 8b 3e b0 d7 45 3e 61 81 b6 3e
       0.40259823 0.2729868 0.1932056 0.35645583
000130 34 b4 b1 3e 1b 69 1c 3e d7 57 15 3e d3 5b 35 3e
       0.34707797 0.1527447 0.1458429 0.1771081
000140 5b 98 1c 3e ea 41 e7 3e b4 ca 4d 3e 25 e1 8f 3e
       0.15292494 0.45167476 0.20096856 0.2810146
000150 c9 7d 77 3e 06 97 49 3e aa 2f dd 3e 41 91 60 3e
       0.24169077 0.19686517 0.43200427 0.2193041
000160 e5 69 c6 3e 28 de 45 3e 40 8a f3 3e a3 de 9f 3e
       0.38752666 0.19323027 0.47566414 0.31224546
000170 f9 40 73 3e 93 e5 8b 3e 49 70 bd 3e 82 b9 42 3e
       0.23755254 0.2732359 0.3699973 0.19016078
000180 e1 bd 5a 3e 56 49 15 3e d6 3a 27 3e c6 23 c3 3e
       0.21361496 0.14578757 0.16331038 0.3811323
000190 51 b5 8b 3e 1c a9 4d 3e 85 39 98 3e 9e 28 c2 3e
       0.2728677 0.20084041 0.29731384 0.37921613
0001a0 b1 e5 eb 3e c0 47 30 3e 62 6e b1 3e 8d dc 9c 3e
       0.46073678 0.1721487 0.34654528 0.30637017
0001b0 78 6f 67 3e 9e 01 ac 3e de f2 8e 3e bd 5f cc 3e
       0.22601116 0.33594984 0.27919668 0.39916793
0001c0 6c 2d d7 3e 10 01 bc 3e 63 f7 99 3e c9 54 23 3e
       0.42026842 0.3671956 0.30071554 0.15950312
0001d0 87 58 11 3e 02 aa c0 3e 39 86 19 3e 8c ea 95 3e
       0.14193927 0.37629706 0.14992608 0.29280508
0001e0 c2 3b d2 3e d8 d0 b7 3e 06 5b 82 3e 41 2f 94 3e
       0.41061217 0.35901523 0.2546007 0.28942302
0001f0 66 69 8a 3e ad 71 a1 3e 6d 48 e7 3e b5 eb 46 3e
       0.27033538 0.3153204 0.45172444 0.19425853
000200 d5 a1 01 3e 11 7c 80 bb ab ac 1a 3e 6e 9f cc bd
       0.1265939 -0.00392104 0.1510493 -0.09991346
000210 ea fb a4 3d 52 da 0b be 41 86 2f be be 14 e0 3d
       0.08055861 -0.13657501 -0.17141058 0.10941456
000220 ee 36 06 3d a0 35 18 3e eb 34 3a 3d 11 54 b4 bd
       0.03276723 0.14864206 0.045460623 -0.08805097
000230 47 b2 0f be 12 66 d3 3d 16 71 d8 bd 27 4b 00 be
       -0.14032851 0.10322203 -0.105684444 -0.12528668
000240 9c b5 16 be 2b 06 1b be 80 59 bc bd 00 c2 25 be
       -0.14717716 -0.15139072 -0.09196758 -0.16187286
000250 a3 75 d5 3d 2b d7 ad bb de d2 07 3d 58 84 e8 bd
       0.10422828 -0.005305191 0.033160083 -0.113533676
000260 89 c1 4c bc 13 ed c9 3d 21 ac 9f bd c8 c0 f8 3d
       -0.012497314 0.098596714 -0.07796503 0.12146145
000270 12 46 b0 bd 6e 51 f0 bd 4a b3 3a be 9c 4d 46 be
       -0.08607115 -0.117342815 -0.18232456 -0.19365543
000280 3f e6 69 3d 87 fc 36 be 0c 24 fe bd eb 6d e3 bd
       0.057104345 -0.17869769 -0.12409219 -0.111049496
000290 24 f9 12 be c5 0a 1f be 96 e7 0c be 91 99 0c 3e
       -0.14352852 -0.15531452 -0.13760218 0.13730456
0002a0 c0 da 89 bd 73 0a b6 bd e8 66 22 bd f1 e4 bc 3d
       -0.067311764 -0.08888712 -0.03964892 0.092233546
0002b0 88 07 04 be ae a6 22 3d 25 e2 a8 bd 26 01 41 be
       -0.12893498 0.03970974 -0.08246259 -0.18848094
0002c0 ae 03 bd 3d 81 82 0d 3d 35 06 e6 3d b1 33 65 3d
       0.092292175 0.034548286 0.11231653 0.0559575
0002d0 22 7f d5 3b ac 1a 2d 3d 3e aa 20 be 81 b8 04 3e
       0.0065153996 0.042261764 -0.15689942 0.12961008
0002e0 bf 99 15 be da 84 da 3d c7 c7 25 be 6d 23 25 be
       -0.1460943 0.10669871 -0.1618949 -0.16126795
0002f0 ef 5f 14 3d f9 8f ba 3d 48 18 a7 bd 8a d2 4c 3c
       0.036224302 0.09109492 -0.08158928 0.012501368
000300 a0 69 3f be c3 ec 1d bd 8d 3d c9 3d e0 9c ff 3d
       -0.18692636 -0.03855587 0.09826193 0.124810934
000310 dd f9 c8 bd 01 ae 01 3d 56 ab fb 3d ac 97 66 3d
       -0.09813283 0.031660084 0.12288539 0.05629699
000320 57 0a 01 3c 78 1c 27 be ec f2 d7 3c 9a ae 3e bb
       0.007876 -0.16319454 0.026360951 -0.002909577
000330 af d4 f1 bd 65 9d 3e 3d 28 01 0a be f0 7a 04 3e
       -0.11808144 0.046536822 -0.13477004 0.12937522
000340 8c 46 5f bd 42 10 a7 3d 0a a5 8a bd 96 95 ec bd
       -0.054510638 0.08157398 -0.0676976 -0.11551969
000350 31 df db 3d 9a 40 83 3d 50 f3 13 3e bd 20 de 3c
       0.1073593 0.06408806 0.14448285 0.02711522
000360 03 2b be bd 7e 86 f5 bd 1c 82 56 be c3 63 53 bc
       -0.092855476 -0.11988543 -0.2094807 -0.012902203
000370 ac 38 15 3e 1a ea 9f bd 21 30 7f bd 11 61 b7 3d
       0.145724 -0.07808323 -0.06230176 0.08954061
000380 4b 33 02 3e f7 a1 f4 ba 4e 4e 01 bc 19 40 21 3e
       0.12714879 -0.0018663992 -0.007892204 0.15747108
000390 e1 36 e1 3d 25 e8 0d be f8 dc 21 be da 94 af bd
       0.109967954 -0.13858087 -0.15806949 -0.08573313
0003a0 e2 97 5a 3d ba 32 0b be 81 41 cc bd 2e 71 4f bc
       0.053367503 -0.1359357 -0.099734314 -0.0126612615
0003b0 9f 3d c1 bd 19 62 83 3d 01 d0 b0 3d 3c 92 c9 3d
       -0.094355814 0.06415195 0.086334236 0.09842345
0003c0 af 1c 58 3d 43 ec f6 bd 92 7f 29 be 13 54 07 be
       0.05276173 -0.12056782 -0.1655257 -0.13215666
0003d0 85 b3 4e bd 68 0e ce 3d ce 5f 64 bd e5 d3 f0 3d
       -0.050464172 0.100613415 -0.05575543 0.11759166
0003e0 d4 dd a0 3d 5e d4 4a be 1a 93 81 3d e8 27 cc bd
       0.0785481 -0.19807574 0.063268855 -0.09968549
0003f0 e8 52 52 be bb 50 19 3c 15 11 01 be db f2 36 be
       -0.20539439 0.009357627 -0.12604173 -0.1786608

network.3.bias f4 [64]
000000 95 de 8c 3e a6 9b 0b bd a2 61 93 3e ac a6 13 3e
       0.27513567 -0.034083985 0.28785425 0.14419049
000010 f3 7a bd 3e 5b 20 bf 3e 93 dd bb 3e 50 8d 9c 3e
       0.37007865 0.37329373 0.36692485 0.30576563
000020 00 03 c7 3e 7f 4d cd 3e a9 7c f2 bc 98 da cb 3e
       0.38869476 0.40098187 -0.029600458 0.3981521
000030 43 1b c7 3e 85 e5 b5 3e c9 0f c3 3e 7e 2f c6 3e
       0.38887987 0.35526672 0.3809798 0.3870811
000040 cb 1e c2 3e db 8c b1 3e e6 0a cb 3e bd 1e bc 3e
       0.37914118 0.34677777 0.39656752 0.367422
000050 b9 75 bf 3e 6f 7f c6 3e f0 b2 02 bd 61 81 be 3e
       0.37394503 0.387691 -0.03190893 0.37208083
000060 68 00 a2 3e 4f 90 c8 3e 5d a5 c9 3e 72 17 c5 3e
       0.31640935 0.391726 0.39383975 0.3849445
000070 76 71 ca 3e c1 0a c8 3e d9 98 a9 3e d1 e4 bf 3e
       0.3953969 0.39070705 0.33124426 0.3747926
000080 7f e9 bf 3e db d8 ca 3e d7 c4 bb 3e ed 3f 9f 3e
       0.3748283 0.39618573 0.36673614 0.3110346
000090 e9 8a c9 3e ee 8d dd bc fb d2 ca 3e 6a 31 c2 3e
       0.39363793 -0.027045216 0.3961409 0.37928325
0000a0 95 47 c2 3e 51 02 c1 3e 04 1e ca 3e b1 bb ca 3e
       0.37945238 0.3769708 0.39476025 0.39596322
0000b0 28 6f 06 bd 8e 53 c4 3e 89 5f c3 3e 46 c8 ab 3e
       -0.03282085 0.38344997 0.38158825 0.33551234
0000c0 44 8a c8 3e 75 11 c3 3e 45 ea bd 3e 35 77 b0 3e
       0.39167988 0.38099256 0.37092796 0.34465948
0000d0 0d 1c c1 3e 4a 90 0d bd 5e 4d c3 3e 33 f4 d1 bc
       0.37716714 -0.034561433 0.38144964 -0.025629139
0000e0 10 24 bc 3e fb af be 3e 9e 10 9f 3e ff ff 00 bd
       0.36746264 0.37243637 0.31067365 -0.031494137
0000f0 57 ec ca 3e 3c 90 0b bd 62 e6 c1 3e a4 20 c0 3e
       0.39633438 -0.0340731 0.3787108 0.37524903

network.6.weight f4 [32, 64]
000000 e0 9f 3e 3e ec c8 e1 bd 5f 3c 42 3e 71 d5 ef 3e
       0.18615675 -0.11024651 0.18968342 0.4684253
000010 d9 62 d5 3e 84 70 04 3f 99 00 cc 3e 27 fb f8 3e
       0.41676977 0.51734185 0.39844206 0.48629114
000020 72 07 1d 3f 0f ca 80 3e c7 65 19 be 33 38 bb 3e
       0.61339486 0.25154158 -0.14980231 0.36566314
000030 db 12 e5 3e 01 c7 c2 3e e2 ff 09 3f bf 4e 0b 3f
       0.44740948 0.38042453 0.5390607 0.5441703
000040 5e c5 fa 3e 59 ab 65 3e ee 46 8f 3e 02 fe 12 3f
       0.48978704 0.22428645 0.27983803 0.57418835
000050 50 67 af 3e be f5 86 3e 7c 56 ad bc 51 7d 1f 3f
       0.3425851 0.2635936 -0.021159403 0.6230059
000060 3f ca ee 3e de a6 ac 3e 36 52 23 3f 12 ee c5 3e
       0.46638677 0.3372106 0.6379732 0.38658196
000070 4d a8 25 3f 43 f2 2d 3f 9d 3e 6f 3e 55 ae c0 3e
       0.6470993 0.6794779 0.23363729 0.37633005
000080 fc d0 1d 3f 32 3e 48 3e 93 2d 1b 3f 81 57 1a 3f
       0.6164701 0.19554976 0.60616416 0.6028977
000090 4b 7f 27 3f f9 34 9f bd 96 40 28 3f 69 62 fd 3e
       0.6542861 -0.077737756 0.6572355 0.49489143
0000a0 c3 3d 25 3f e9 31 09 3f b3 da e1 3e 65 79 41 3e
       0.64547366 0.5359178 0.44112167 0.18893965
0000b0 25 0d f9 bd 15 0a 24 3f b1 12 08 3f 21 be a4 3e
       -0.1216071 0.64077884 0.5315352 0.32176307
0000c0 7b 67 2c 3f d6 74 81 3e 98 29 19 3f e4 8e 2c 3f
       0.673454 0.2528445 0.5982909 0.67405534
0000d0 37 99 ad 3e 93 0a d7 3d e9 57 17 3f 31 49 16 bd
       0.33905956 0.10500064 0.59118515 -0.036690895
0000e0 74 43 f7 3e 60 29 10 3f 02 54 a6 3e 8e bf ec bd
       0.4829365 0.56313133 0.32485968 -0.11559974
0000f0 50 de 03 3f e7 89 3c be 9c 04 5b 3e 9e e0 df 3e
       0.51511097 -0.1841198 0.21388477 0.43726057
000100 5d b8 86 3e 73 80 ec 3d d4 c5 de 3e 0f a3 3c 3d
       0.26312533 0.11547937 0.43510306 0.046053942
000110 57 b7 96 3e 39 11 30 3f 1e 9e d7 3e e3 d1 ac 3e
       0.29436752 0.6877628 0.4211282 0.3375388
000120 67 2e a6 3e 35 05 0a 3f 44 65 e6 3d ef 05 0b 3f
       0.32457277 0.53914195 0.11249784 0.5430593
000130 7f b6 b1 3e 80 01 0f 3f 90 19 1a 3f 19 3b 2c 3f
       0.34709546 0.55861664 0.60195255 0.67277676
000140 7d 67 52 3e 2a 50 09 3f 45 d2 b3 3e c0 68 bf 3e
       0.2054729 0.53637946 0.3512136 0.37384605
000150 1d 5a 85 3e 68 0e 04 3f 96 93 28 be 5c 21 96 3e
       0.26045313 0.5158448 -0.1646255 0.29322326
000160 9f 17 ce 3e 94 f0 08 3f 3b c6 0b 3f 00 92 18 3f
       0.40252396 0.53492093 0.5459935 0.5959778
000170 05 5e 50 3e a3 45 a7 3e c0 2c ea 3e c3 68 84 3e
       0.20348366 0.32670316 0.45737267 0.25861177
000180 ba 3d 99 3e b4 b1 ae 3e 73 18 10 3f 58 5f 04 3f
       0.29929906 0.34119952 0.56287307 0.51707983
000190 1a bb b7 3e 2e ca e1 bd f3 c0 01 3f d5 a6 03 3f
       0.35884935 -0.11024891 0.5068504 0.5142644
0001a0 3b b3 2b 3f a2 ab 1e 3f 49 54 bf 3e e5 00 d9 3e
       0.6707036 0.6198064 0.37368992 0.42383495
0001b0 82 40 29 3e e0 e4 ff 3e c8 75 10 3f 00 1d 18 3f
       0.16528514 0.49979305 0.5642972 0.5941925
0001c0 95 b1 06 3f 1f 92 da 3e a8 a1 44 3e 95 b4 a3 3e
       0.5261472 0.42689607 0.19202292 0.3197371
0001d0 15 6f 0e 3f 73 ca 83 3e 18 1a 07 3f 95 1e 1b be
       0.5563825 0.25740394 0.5277419 -0.15148385
0001e0 38 4e 71 3e 0b c2 2f 3f c6 07 a7 3e fb 55 20 bd
       0.23564994 0.6865546 0.32623118 -0.039144497
0001f0 5c ad cb 3e 3e 56 30 3e 8e 0c 2a 3f ee 66 07 3f
       0.397807 0.17220399 0.66425407 0.52891433
000200 3d e1 0d 3e 5d cb 42 3e be 2c 86 be fe c7 01 be
       0.13855453 0.1902289 -0.2620601 -0.12673947
000210 49 00 47 be 7d 24 51 3d 3f 41 ef 3d 7e 55 9b 3c
       -0.19433703 0.05106019 0.116823666 0.018961664
000220 76 75 c9 3d 33 ae 98 be 8d 3e 82 bd d6 6e 2e bd
       0.09836857 -0.29820403 -0.06359587 -0.04258617
000230 ad 93 9d bd c7 96 12 3e f7 d2 27 be 84 8f 10 3e
       -0.076941825 0.1431533 -0.1638907 0.14117247
000240 9f 92 fc bd 63 2d cd bc 26 02 a4 bc 65 d7 1e 3e
       -0.12332653 -0.025046056 -0.020020556 0.15511854
000250 4d 94 e8 bd ed ca b2 bd ad 3d 1f 3e 68 6e 37 3e
       -0.11356411 -0.08730111 0.15550871 0.1791321
000260 a1 3c 26 be 4e 36 55 3c fb 30 7a bd 92 b0 94 be
       -0.16234066 0.0130134355 -0.061081868 -0.29040962
000270 3c f0 8e be 47 5a f4 bd 9f 19 ae bd 8e 1d 8a bc
       -0.2791766 -0.119312815 -0.085009806 -0.016859796
000280 72 8d 3d be bd f9 51 bc df 61 34 3e 37 f0 48 bb
       -0.18510988 -0.01281589 0.1761546 -0.0030660757
000290 45 a7 bf 3d eb 5a 2e be 16 88 1e 3e ed 6a ea bd
       0.09358076 -0.1702687 0.154816 -0.11446176
0002a0 71 96 3c 3e d9 f1 1b be 6c 02 de bc 98 63 d5 bc
       0.18416764 -0.15228976 -0.027100764 -0.026048467
0002b0 63 f3 32 3d 50 10 53 bd 8f 6f da bd 18 86 94 bd
       0.043689143 -0.05152923 -0.10665809 -0.07252139
0002c0 ea 39 e3 3d 4b ef 20 3e f8 60 42 3e 2c 2b 33 be
       0.110950306 0.15716283 0.18982303 -0.17496938
0002d0 a9 78 09 3e 0a f8 48 3e 62 ab 50 3d df ea 1c bd
       0.13424934 0.1962587 0.050944693 -0.038309928
0002e0 24 37 66 be 64 75 0e be 63 6b 84 be fe 35 01 3e
       -0.22481972 -0.13911968 -0.2586318 0.12618253
0002f0 58 46 d4 3d 70 06 a3 3d ef ea 97 be 99 b4 c8 3c
       0.103649795 0.07960212 -0.29671428 0.024500178
000300 b7 28 85 3e 19 7d 87 bd 59 f6 41 3e 42 b2 e9 3e
       0.26007625 -0.06615657 0.1894163 0.45643812
000310 17 83 12 3f 01 8c 2a 3f e7 7b 2b 3f 08 b1 80 3e
       0.5723128 0.6661988 0.66985935 0.25135064
000320 97 c1 1e 3f bc 0a 23 3f f7 74 af 3d 1e ed 4e 3e
       0.62014145 0.63688254 0.08567231 0.2020764
000330 f5 96 cc 3e 47 d3 40 3e e1 67 d4 3e 0e 4d 26 3f
       0.3995892 0.18830596 0.41485503 0.64961326
000340 8b df de 3e 4a 5d 7f 3e 06 d8 2c 3f 4d 80 d5 3e
       0.43529925 0.2493793 0.67517126 0.41699448
000350 56 e8 14 3f 3e 0c c9 3e 61 49 fb bd 93 68 04 3f
       0.58167017 0.39267153 -0.12269855 0.5172207
000360 f0 74 e6 3e 5b ed 06 3f e3 e3 d9 3e 40 91 25 3f
       0.4501109 0.52705926 0.42556676 0.6467476
000370 08 d3 65 3e 07 29 80 3e 00 91 57 3e 2c 83 bc 3e
       0.22443783 0.250313 0.21051407 0.36818826
000380 11 42 fe 3e 79 ca b4 3e f1 b4 bf 3e c7 8b 92 3e
       0.4965978 0.35310724 0.37442735 0.28622267
000390 7a 0b b4 3e 96 82 52 be f5 d1 f1 3e 09 35 05 3f
       0.35165006 -0.20557627 0.47230497 0.5203405
0003a0 45 16 b4 3e da 1b eb 3e a5 36 27 3f c3 df 1a 3f
       0.3517324 0.45919687 0.65317756 0.60497683
0003b0 6d f0 55 be 4b 8f 7c 3e ca 90 0b 3f 88 3c c0 3e
       -0.20892496 0.24664037 0.54517806 0.37546182
0003c0 bd f9 24 3f fd 81 1f 3f 90 b8 80 3e 88 e3 64 3e
       0.6444357 0.6230772 0.2514081 0.22352421
0003d0 97 d7 f5 3e 68 72 e2 3d a1 47 c5 3e b6 e4 3c 3e
       0.48016044 0.110569775 0.3853121 0.18446621
0003e0 c2 7a 2d 3f 8e e0 d6 3e fe 41 f6 3e bd 4f 55 be
       0.6776544 0.41968197 0.48097223 -0.20831199
0003f0 c5 15 d6 3e b0 ed 27 be da 88 25 3f b1 dd 04 3f
       0.41813484 -0.16399264 0.64661944 0.51900774

network.6.bias f4 [32]
000000 1e e8 8d 3e 18 37 99 3e 87 42 23 bd 90 ae 98 3e
       0.27716154 0.29924846 -0.039858367 0.2982068
000010 15 51 1b bd 3d 15 a2 3e 45 8f 94 3e 0a b8 b5 3e
       -0.037919123 0.3165683 0.29015556 0.35491973
000020 dd 28 d3 bc f0 77 93 3e 09 14 84 bc cd e5 8d bc
       -0.025776321 0.28802443 -0.016122835 -0.017321492
000030 d9 86 c7 bc 89 e9 a5 3e 35 06 02 bd e8 da 8e 3e
       -0.024356293 0.32404736 -0.0317442 0.27901387
000040 a1 de 9b 3e 99 4b ef bc 69 13 93 3e 02 33 0a bd
       0.3044329 -0.029210852 0.28725746 -0.03374005
000050 45 9f a4 3e 1c ce 91 3e 19 6a 8b bc 5c de ca bc
       0.32152763 0.2847756 -0.017018365 -0.024764232
000060 b3 fd c0 bc 98 02 93 3e 93 f6 22 bd 45 44 ad 3e
       -0.023558473 0.28712916 -0.039785933 0.33841148
000070 5a fd 7f bc f7 fd c6 bc 35 57 b4 3e f0 15 8b 3e
       -0.015624369 -0.024291022 0.35222784 0.27165174

network.8.weight f4 [1, 32]
000000 44 29 59 bf f7 15 24 bf 01 eb c6 3d 09 24 25 bf
       -0.8482859 -0.64096016 0.09712792 -0.6450811
000010 77 35 fd 3d 43 f7 cc be ba ec 32 bf c8 a6 f9 be
       0.12363713 -0.40032396 -0.69892466 -0.48760056
000020 c3 21 6e 3e 58 2a 39 bf 77 3c b6 3e 1c 9b d1 3d
       0.23255067 -0.72330236 0.35593006 0.10234663
000030 91 d0 4c 3e 31 39 0c bf d5 2c 95 3e e8 c6 48 bf
       0.20001437 -0.5477477 0.29135767 -0.78428507
000040 c4 1e 24 bf 20 c5 79 3e b5 e2 30 bf ff 63 a6 3e
       -0.64109445 0.24391603 -0.6909593 0.32498166
000050 cf 9e 1e bf e2 bf 5d bf 97 c2 c7 3e 17 27 a5 3e
       -0.6196107 -0.86620915 0.39015648 0.32256386
000060 8e 30 1c 3e 78 e0 55 bf eb 84 5e 3d 19 3c 12 bf
       0.15252897 -0.8354564 0.05432598 -0.5712295
000070 fe 49 c4 3e cf be 99 3d 32 00 01 bf 3d 31 64 bf
       0.38337702 0.07507097 -0.50390923 -0.8913763

X_mean f4 [12]
000000 8f 6e 0c 45 33 33 7f 42 b6 47 1e 41 af 45 91 40
       2246.91 63.8 9.892508 4.5397563
000010 69 bd 01 40 f6 76 4c 3f f3 bb 7c 40 88 d3 1a 3f
       2.0271857 0.7986902 3.9489715 0.6047902
000020 1c d1 2b 40 c5 00 e6 3f a8 a9 19 41 14 d7 21 45
       2.684638 1.7968985 9.60392 2589.4424

X_std f4 [12]
000000 77 54 d0 45 f3 fc 1b 42 a1 26 dd 40 25 20 88 40
       6666.558 38.99702 6.9109654 4.253924
000010 1c f7 b3 3f 32 f2 4f 3f ad 6a 91 40 b5 eb c9 3e
       1.4059787 0.81228936 4.544272 0.39437643
000020 f1 88 f3 3f 03 ef cf 3f 90 f5 c5 40 a4 44 b7 45
       1.9026166 1.6244816 6.186226 5864.58
