optimized_qdpi_results.pth (torch, 817338 bytes, 39 tensors)

input_norm.weight f4 [15]
0	0x3f88a7ed	1.0676247
1	0x3fb049fc	1.3772578
2	0x3fa7d787	1.3112649
3	0x3f944a26	1.1585128
4	0x3ef0fa2a	0.4706586
5	0x3f5a3f5d	0.85252935
6	0x3f7b0e7a	0.98068964
7	0x3e7bdafe	0.24595258
8	0x3ed86364	0.4226333
9	0x3e1c2c32	0.15251234
10	0x3f026748	0.50938845
11	0x3f18744f	0.5955247
12	0x3eddb353	0.43300876
13	0x3f41cd94	0.7570431
14	0x3f3f931a	0.74833834

input_norm.bias f4 [15]
0	0x3c167f65	0.009185647
1	0xbdb2ffe3	-0.08740213
2	0xbdd9ebd7	-0.10640686
3	0x3de0d5d1	0.10978282
4	0x3d808e51	0.06277145
5	0x3d550141	0.05200315
6	0x3dc5295c	0.09627029
7	0xbc476bb1	-0.012171672
8	0xbc220533	-0.009888935
9	0xbd1a0c6d	-0.037609506
10	0x3d50fa36	0.05101987
11	0xba944b66	-0.0011313974
12	0xbc5f9b5e	-0.013647882
13	0x3d2dcc20	0.042430997
14	0x3d3f8612	0.04675872

input_norm.running_mean f4 [15]
0	0x3b3ed5f7	0.0029119232
1	0x3c215a4a	0.009848187
2	0x3d86920d	0.06570826
3	0x3cccedb1	0.025015684
4	0xbb30dd00	-0.0026987195
5	0xbb806018	-0.0039177053
6	0x3bd7ba70	0.0065835044
7	0xbbabbdb4	-0.0052411202
8	0xbab8ddd0	-0.0014104191
9	0xbda5b766	-0.08091621
10	0x3a75e4e0	0.00093801133
11	0xbd08be12	-0.03338439
12	0xbcd4b91d	-0.025967175
13	0xbd35e3ec	-0.044406816
14	0xbc95f33c	-0.01830446

input_norm.running_var f4 [15]
0	0x3f7ae5be	0.9800681
1	0x3f7c098f	0.98452085
2	0x3f9f081e	1.2424352
3	0x3f970937	1.1799687
4	0x3f7c774f	0.9861955
5	0x3f7b0f3f	0.9807014
6	0x3f7d8a13	0.9903881
7	0x3f7bfc24	0.9843161
8	0x3f7aa1ae	0.97902954
9	0x3f695e6b	0.91159695
10	0x3f7c60f1	0.9858542
11	0x3f7f5c03	0.99749774
12	0x3f83cba3	1.029652
13	0x3f8d44bb	1.10366
14	0x3f75337c	0.95781684

block1.0.weight f4 [256, 15]
0	0xbd597570	-0.053090513
1	0x3e20ede6	0.15715751
2	0x3cb014d6	0.02149431
3	0xbd558d87	-0.052136924
4	0xbcb51843	-0.022106295
5	0xbd43e7df	-0.04782855
6	0x3e9959fb	0.29951462
7	0xbd695128	-0.056962162
8	0x3d903ba8	0.070426285
9	0xbdd7a633	-0.10529747
10	0x3b88df96	0.004177044
11	0x3d1e492a	0.038643993
12	0xbd864467	-0.065560155
13	0xbd2cad8b	-0.04215769
14	0xbe7e5425	-0.24836786
15	0x3e2af875	0.16696341
16	0x3e496de9	0.19670834
17	0x3ec473d0	0.38369608
18	0x3e343f1f	0.17602204
19	0x3d66ba39	0.05632994
20	0xbdc18345	-0.09448866
21	0xbddbd6b2	-0.10734309
22	0x3da36462	0.07978131
23	0xbc37c4a8	-0.01121632
24	0xbdc1ff7c	-0.09472558
25	0xbd91083f	-0.07081651
26	0x3ce06f19	0.027396725
27	0xbdb43d93	-0.08800807
28	0x3d44d335	0.048052985
29	0x3d92b1d7	0.071628265
30	0xbd98a61d	-0.074535586
31	0x3d27cd16	0.04096707
32	0xbe7b1be6	-0.24522361
33	0xbea1c670	-0.31596708
34	0xbcba5203	-0.022744184
35	0x3de0e06d	0.10980306
36	0x3c294334	0.010330964
37	0xbdfad389	-0.122473784
38	0xbc4d633c	-0.012535866
39	0xbc8a1a71	-0.016858311
40	0xbd96de81	-0.07366658
41	0x3ce89f61	0.02839631
42	0xbd2b6e4f	-0.041853245
43	0x3cf94604	0.030428894
44	0xbca79a63	-0.02045936
45	0xbec4989a	-0.38397676
46	0xbdade34a	-0.084906176
47	0x3e2870cd	0.1644928
48	0xbe5f1e71	-0.21788956
49	0x3c9f621f	0.019455967
50	0x3d0c4e5d	0.03425442
51	0xbdaf4606	-0.08558278
52	0x3cca09b2	0.024662826
53	0x3da25b6f	0.07927596
54	0x3c62fdc8	0.0138544515
55	0x3cd811a4	0.0263756
56	0x3d37c990	0.04486996
57	0xbcb4f0e1	-0.022087516
58	0xbdf629bb	-0.12019678
59	0xbe2987d9	-0.16555728
60	0x3d9ea16d	0.07745633
61	0x3ee44db4	0.44590533
62	0x3d0802b7	0.033205714
63	0xbd15f3e1	-0.036609534
64	0xbd9f006d	-0.07763753
65	0x3c47f0f8	0.0122034475
66	0x3d97fef4	0.07421675
67	0x3d961db8	0.07329887
68	0xbe02c387	-0.127699
69	0xbd07454c	-0.03302507
70	0xbd411da4	-0.047147408
71	0xbd3c21dd	-0.045930732
72	0xbd9c1256	-0.07620685
73	0xbc6dce85	-0.01451457
74	0x3d68c021	0.056823853
75	0x3e2c647f	0.16835211
76	0x3df3e24c	0.11908397
77	0x3eb86748	0.36016297
78	0x3e26dc3a	0.16294947
79	0x3db53c9c	0.08849451
80	0xbd14ce3a	-0.036329485
81	0xbe3c934d	-0.18415566
82	0x3d576507	0.05258658
83	0x3d49bdeb	0.049253386
84	0xbd834e5e	-0.06411432
85	0xbdab8246	-0.08374457
86	0xbda31e4b	-0.07964762
87	0xbdb662f2	-0.08905591
88	0xbdc5ada6	-0.096522614
89	0x3e272972	0.16324404
90	0x3b81b998	0.003958892
91	0xbc1a89ce	-0.009432269
92	0xbdaa967d	-0.083294846
93	0x3ee5ff42	0.4492131
94	0x3e420258	0.18946207
95	0xbc67f25c	-0.014156904
96	0xbdf8ad10	-0.12142384
97	0xbd86cfaf	-0.06582581
98	0xbcfde55a	-0.030993152
99	0x3d428f85	0.047500152
100	0x3dcb6dfc	0.09933087
101	0xbdd5dd0e	-0.104425535
102	0x3d7afac6	0.061274312
103	0x3e1aecee	0.15129444
104	0xbe126761	-0.14297248
105	0xbc4033d1	-0.011731104
106	0x3ed1f5ae	0.4100775
107	0x3ddeb332	0.108740225
108	0xbd51e9bb	-0.051248293
109	0xbc337ad7	-0.01095458
110	0x3dd69c11	0.10478986
111	0x3d43cd78	0.047803372
112	0x3d9a49d2	0.07533611
113	0x3e04d882	0.12973216
114	0xbc3c5d91	-0.011496917
115	0xbc4acd4f	-0.012378051
116	0xbdf63264	-0.1202133
117	0xbc92aa44	-0.017903455
118	0xbb6dc504	-0.003628076
119	0xbca23304	-0.019799717
120	0x3e286b93	0.16447286
121	0x3ec35f20	0.38158512
122	0x3e25ec86	0.16203508
123	0xbc2bdca2	-0.010489615
124	0xbda7b76b	-0.08189281
125	0x3d31ba7e	0.043390743
126	0x3deda10f	0.11602985
127	0x3e172b6a	0.14762655
128	0x3c8f301f	0.017479
129	0x3cfbb8a1	0.030727686
130	0xbbd398e4	-0.006457435
131	0x3d169b29	0.036769066
132	0xbb9a547c	-0.0047097784
133	0xbcf0cf2d	-0.029395664
134	0x3c54e91b	0.01299503
135	0xbe7dc58d	-0.24782391
136	0x3e625930	0.22104335
137	0xbca7ed4c	-0.020498894
138	0xbdf10a7d	-0.117695786
139	0x3d8631f0	0.065524936
140	0xbe3e0551	-0.18556716
141	0x3e068b54	0.13139087
142	0xb8c73fac	-9.500919e-05
143	0x3defb62c	0.117046684
144	0xbd0baa2b	-0.03409783
145	0x3d29e365	0.041476626
146	0xbdfcd5b6	-0.123454496
147	0x3dc2bd37	0.09508746
148	0xbdc36811	-0.095413335
149	0xbd027091	-0.031845633
150	0xbe0ed303	-0.13947682
151	0x3e99a713	0.3001028
152	0x3e051ced	0.12999316
153	0xbd7aba27	-0.061212685
154	0xbd914570	-0.07093322
155	0xbe0a5e40	-0.13512516
156	0x3e231fd3	0.15930109
157	0x3cff9845	0.031200537
158	0x3dd2fe10	0.10302365
159	0xbb5d0726	-0.0033726185
160	0x3d0132ad	0.03154247
161	0xbd0d09d7	-0.034433212
162	0xbd89e8f3	-0.06733885
163	0xbdb85a38	-0.09001583
164	0xbde468e2	-0.11152817
165	0xbdd5faa9	-0.104482
166	0x3ecf32d3	0.40468463
167	0x3d633a5f	0.05547559
168	0xbd6a89d9	-0.057260368
169	0x3dbf682c	0.09346041
170	0x3dbcc0ad	0.092164375
171	0x3d890261	0.06689907
172	0xbe0c396e	-0.13693783
173	0xbcbb0d42	-0.02283347
174	0xbbb5c735	-0.005547429
175	0x3d7143ba	0.05890248
176	0x3d75122f	0.059831794
177	0xbd5de213	-0.05417068
178	0xbd5b032e	-0.05346983
179	0xbde0a312	-0.10968603
180	0x3e0a33b1	0.13496281
181	0x3d379cd0	0.044827282
182	0x3e63fd51	0.22264601
183	0xbdf49b0f	-0.119436376
184	0x3de2e52b	0.110788666
185	0xbe136fbe	-0.14398095
186	0x3d7d1a77	0.061792817
187	0xbd273a45	-0.040827055
188	0xba2934c1	-0.00064546993
189	0x3def310a	0.11679275
190	0x3d862d6b	0.065516315
191	0xbe520197	-0.20508419
192	0xbe8a9c5c	-0.27072418
193	0xbeae70b5	-0.34070364
194	0x3e6fcc5d	0.23417802
195	0x3dd952f1	0.10611523
196	0x3e462ad0	0.19352269
197	0x3e88d35f	0.26723763
198	0x3e0f0407	0.1396638
199	0x3d2d8188	0.04235986
200	0xbe0fb8d0	-0.14035344
201	0x3bb44b8c	0.00550217
202	0x3dd95436	0.10611765
203	0x3de57fc8	0.11206013
204	0x3c29fa8c	0.010374676
205	0xbda8a25c	-0.082340926
206	0xbd9382e3	-0.07202699
207	0x3d7da128	0.06192127
208	0x3d8ab1f0	0.0677222
209	0x3e41b7be	0.18917748
210	0xbded01bc	-0.115725964
211	0xbc9c0fcc	-0.019050501
212	0xbdba1a6d	-0.090870716
213	0x3f105753	0.56383246
214	0x39c44d85	0.0003744179
215	0x3e134a99	0.14383925
216	0x3b5a77e0	0.0033335611
217	0x3d8c0122	0.068361536
218	0xbd12ec97	-0.03587016
219	0xbd740bf6	-0.05958172
220	0xbdb80c1d	-0.089866854
221	0x3c48e9aa	0.012262741
222	0x3d96c8a8	0.07362491
223	0x3e0f4641	0.13991643
224	0xbd66e239	-0.056368086
225	0xbe63a3f7	-0.22230516
226	0x3e4442e2	0.19166139
227	0x3dc175a3	0.094462655
228	0xbcba2006	-0.022720348
229	0xbcac24dd	-0.021013672
230	0xbd1d3d10	-0.038388312
231	0xbdba42d9	-0.090947814
232	0x3d9a3f76	0.075316355
233	0x3df12e2d	0.117763855
234	0xbb6a611f	-0.0035763455
235	0x3d764f59	0.060134266
236	0xbdfef3ed	-0.12448869
237	0xbd892954	-0.06697336
238	0xbdd17f86	-0.10229401
239	0xbe67f924	-0.22653633
240	0x3c3b8406	0.011445051
241	0x3e5c39c6	0.21506414
242	0x3ec7f90d	0.39057198
243	0x3e221ed8	0.15832078
244	0xbd57604f	-0.05258208
245	0x3c86b509	0.016443746
246	0xbdaa5048	-0.08316094
247	0x3c20ca6e	0.009813888
248	0x3d182f2b	0.037154358
249	0xbcf5360b	-0.029932996
250	0x3d17d9f9	0.03707311
251	0xbc829d43	-0.015944129
252	0x3cbcef35	0.023063282
253	0xbd6dfb2b	-0.05810086
254	0x3a9757f6	0.00115466
255	0xbbb5a170	-0.0055429265

block1.0.bias f4 [256]
0	0x3c2d6766	0.010583734
1	0xbbf794b6	-0.0075555695
2	0x3c6bc2e7	0.01438973
3	0xba753945	-0.0009354542
4	0xbad88267	-0.0016518355
5	0xba1b2604	-0.00059184455
6	0x3b50e239	0.003187312
7	0xbb916a83	-0.004437746
8	0xbad1d3df	-0.0016008577
9	0xbae8821f	-0.0017738974
10	0x3a7a66e9	0.0009552078
11	0xb9808cc6	-0.00024518947
12	0x3c0715a1	0.008244903
13	0xbb78a639	-0.0037940873
14	0xbbcb6445	-0.0062070214
15	0x3a819b6f	0.0009888242
16	0xbbc5c41f	-0.0060353423
17	0x3c327a7b	0.010893459
18	0xbc5124c4	-0.012765113
19	0xbb5a4490	-0.0033305027
20	0xba8aca76	-0.0010588903
21	0xbb4adbcc	-0.0030953763
22	0x3a38b941	0.0007046648
23	0x3c5749d5	0.0131401615
24	0xb8ed84ea	-0.00011325798
25	0x3919f036	0.00014680703
26	0x3b85a8c5	0.004078957
27	0xbb96026f	-0.004577927
28	0xbaf64f2c	-0.0018791906
29	0xbb9d9b84	-0.0048097987
30	0x3b94b34a	0.0045379745
31	0x3ba0677f	0.00489515
32	0xb90b9c14	-0.00013314217
33	0xbccf83a0	-0.025331318
34	0xbb90d498	-0.0044198744
35	0x3cb1bb0e	0.02169564
36	0x3b3cdf5b	0.0028819654
37	0x3b43320e	0.0029784474
38	0xbc35e032	-0.011100816
39	0x3bd8ea27	0.00661971
40	0xbbcb7f7e	-0.0062102666
41	0x3b9b8b3e	0.0047468236
42	0xbbb2d212	-0.0054571712
43	0x3c0dc917	0.008653901
44	0xbb6c3c9c	-0.0036046868
45	0x3b77a426	0.003778705
46	0x3adbae26	0.0016760274
47	0x3ae5df92	0.0017537943
48	0x3b8a2c41	0.0042167013
49	0x3b68b838	0.0035510194
50	0x3a7fef28	0.0009763115
51	0x3c85c371	0.016328545
52	0xbca60fdb	-0.020271232
53	0xbb6c9d78	-0.00361046
54	0x38e5f153	0.00010964521
55	0x3c3c822d	0.011505646
56	0x3b24f871	0.0025172497
57	0x3bd929fa	0.0066273184
58	0x3b0431c6	0.002017127
59	0x3be96235	0.007122303
60	0x3b390457	0.0028231347
61	0x3bd9e666	0.00664978
62	0x3bd62625	0.006535309
63	0x3b1a1a76	0.0023514307
64	0xbc19de71	-0.009391413
65	0xbbc71be3	-0.0060763224
66	0x3b866cd7	0.00410233
67	0x3b4e8aa0	0.0031515732
68	0xbc37ad8a	-0.0112108085
69	0xba592981	-0.00082840776
70	0x3aaccd30	0.0013183709
71	0x3b504b8e	0.0031783315
72	0x385a8641	5.2100284e-05
73	0xbba573dc	-0.005049212
74	0xba612521	-0.00085886015
75	0x3a42a618	0.00074252626
76	0xba709ed0	-0.00091789383
77	0x3be59e22	0.0070073763
78	0xbba70ee7	-0.005098212
79	0xbc1e55f6	-0.009664049
80	0x3afaf978	0.0019147834
81	0xbc050425	-0.008118664
82	0xbb33a330	-0.00274105
83	0x3a8fd82d	0.001097446
84	0xbbac96c7	-0.0052669975
85	0xbc1ebab7	-0.009688071
86	0x3bf07b2c	0.007338902
87	0xbb794f1a	-0.0038041533
88	0xbb769d1c	-0.0037630266
89	0x3abff329	0.0014644611
90	0x3b0f2cdb	0.0021846804
91	0xbbe032b8	-0.0068419836
92	0xba4c858c	-0.00078018825
93	0xbc1b215f	-0.0094684055
94	0x3b370d37	0.002793146
95	0xbba0f98d	-0.0049125613
96	0xba961bce	-0.0011452378
97	0x3b8b2ebc	0.0042475145
98	0xbb5f665c	-0.003408811
99	0xbb8a14df	-0.004213914
100	0x3c243d70	0.0100244135
101	0xbb9ccdaa	-0.0047852593
102	0x39855aca	0.0002543538
103	0x38b21af6	8.492723e-05
104	0xbcc141e9	-0.023590999
105	0xbb3b31e0	-0.0028563663
106	0x3986876a	0.00025659363
107	0xbbd02200	-0.0063517094
108	0xbbc25ee2	-0.005931721
109	0x3c4ee24f	0.012627198
110	0xba9a0688	-0.0011751214
111	0x3c20bdac	0.009810846
112	0x3be5d7e3	0.007014261
113	0x3b9b6dc2	0.0047433088
114	0x3b25f558	0.0025323238
115	0x3b3cd11b	0.002881116
116	0xbb084e3c	-0.0020798584
117	0x3a2c9af2	0.0006584368
118	0xbc0d3f45	-0.008621042
119	0xbb1a95f9	-0.0023587926
120	0x3b9ebb95	0.004844139
121	0xbb0aeab7	-0.002119703
122	0xbadadfe0	-0.00166988
123	0x3b869cde	0.0041080555
124	0xba1621ea	-0.00057270995
125	0xbb832849	-0.004002605
126	0x3abbc93a	0.0014326938
127	0x3b064b45	0.0020491641
128	0x3a651f48	0.0008740318
129	0x39a14f47	0.0003076738
130	0x3bff1702	0.007784725
131	0x3b796457	0.0038054192
132	0xbb013694	-0.001971637
133	0x3b0b069a	0.0021213652
134	0x3cbaaca5	0.022787401
135	0x3bd75b1d	0.006572141
136	0xbb752f87	-0.0037412362
137	0xbc0ff54d	-0.008786512
138	0x3c8a6331	0.016893001
139	0xbb454c2b	-0.0030105214
140	0x3c757be5	0.014983152
141	0x3af40a34	0.0018618763
142	0x3c704c9d	0.0146667035
143	0xbb95d218	-0.0045721643
144	0xbc16f346	-0.009213274
145	0xbc272cd2	-0.010203557
146	0x3cbe9f0a	0.023269195
147	0x3b545bfb	0.0032403457
148	0xbc2f0261	-0.0106817195
149	0xbb44f0b2	-0.0030050692
150	0xbc12ab9e	-0.00895205
151	0xba856002	-0.0010175707
152	0x3c23e333	0.010002899
153	0xba342cb8	-0.00068731187
154	0x3cc73b5e	0.0243203
155	0xbb7ea868	-0.0038857702
156	0xbae56c0b	-0.0017503513
157	0x3b9b5897	0.0047407853
158	0x3d145a4a	0.03621892
159	0xbb8ae6fb	-0.004238961
160	0x3b746e33	0.003729713
161	0xbaafe3c0	-0.0013419315
162	0x3a1e2b88	0.00060337083
163	0xbc697c30	-0.0142508
164	0x39b00f7f	0.0003358088
165	0x3b873420	0.004126087
166	0xbb16aa8d	-0.002298984
167	0xbbfd24cd	-0.0077253343
168	0xbb1fae40	-0.0024365336
169	0xbbe5b35e	-0.0070099076
170	0x39efea21	0.00045760072
171	0x3b743f8a	0.0037269318
172	0x3a239bb3	0.00062411575
173	0xbb31776f	-0.0027079245
174	0xbb5b2f56	-0.0033444962
175	0x3b85a489	0.004078452
176	0x3b536baa	0.0032260218
177	0x3bdad01e	0.0066776415
178	0xba6d0562	-0.00090416346
179	0xb9ef2152	-0.00045610458
180	0x3ae1180f	0.0017173308
181	0xbb403cad	-0.002933304
182	0x3a88f903	0.0010450188
183	0xbc1ae08c	-0.00945295
184	0xbba99440	-0.0051751435
185	0xbb6f8695	-0.0036548723
186	0x3a777749	0.0009440077
187	0x3b925c74	0.0044665877
188	0xbb3f6777	-0.0029205957
189	0xbb624af0	-0.003452953
190	0xbad393b1	-0.0016142038
191	0x3b867e80	0.0041044354
192	0x3c0771ea	0.008266905
193	0x39ff839c	0.00048735447
194	0xbb65c86f	-0.0035062095
195	0xbb25866f	-0.002525713
196	0x3c421758	0.011846386
197	0x39c5ae3b	0.0003770458
198	0x3ba2eeb6	0.004972304
199	0xbb1fafc2	-0.0024366234
200	0xbb1d871d	-0.0024036833
201	0xbae11487	-0.0017172255
202	0x39d49de4	0.0004055343
203	0xb9c02d0a	-0.0003665465
204	0xbc0c52b3	-0.008564639
205	0xbb9433e0	-0.0045227855
206	0x3baba5e9	0.005238284
207	0xb93e8f42	-0.0001817318
208	0xbb573393	-0.0032837137
209	0xbba84bde	-0.005135997
210	0x3a80a305	0.0009814209
211	0xbad60b1e	-0.0016330217
212	0xbabbfaa8	-0.0014341669
213	0xbb041290	-0.0020152666
214	0x3beb7cd8	0.0071865134
215	0x3b8d3a65	0.0043099397
216	0x3b8f759a	0.004378033
217	0x3ba41120	0.0050069243
218	0xba82ac6a	-0.0009969596
219	0xbbbb98e6	-0.005725014
220	0x3c0dd840	0.008657515
221	0xbc1bec99	-0.0095168585
222	0xba27f0d3	-0.000640643
223	0xbb1f795d	-0.0024333813
224	0xbc1f5e72	-0.009727107
225	0xbb3c2755	-0.0028709967
226	0xbb7a8f9a	-0.0038232566
227	0xbb80559a	-0.0039164545
228	0x3affd792	0.0019519201
229	0xbb117876	-0.0022197044
230	0xbb17e82a	-0.0023179152
231	0xba7d532d	-0.0009663578
232	0xbd065d65	-0.03280391
233	0x3b801d6b	0.003909757
234	0xb9f03e3a	-0.0004582273
235	0xba42475d	-0.00074111467
236	0xbaa13367	-0.0012298644
237	0xbb4d8d3c	-0.00313647
238	0x3a6e0aee	0.0009080608
239	0xbc1365ef	-0.008996471
240	0x3bfc9a38	0.007708814
241	0x382f8d3a	4.185478e-05
242	0xba20c76a	-0.00061332306
243	0xbbf2b863	-0.0074072345
244	0x3bbb90ea	0.005724062
245	0x3b0ce6d3	0.0021499887
246	0x3bcc2589	0.0062300605
247	0x3c17bd24	0.009261403
248	0x3c15ac00	0.009135246
249	0xbab1d102	-0.0013566318
250	0x3bb0b1bb	0.005392281
251	0xbb471d8c	-0.0030382602
252	0xbabe3fb0	-0.001451483
253	0x3b9125f9	0.0044295755
254	0x3c07ff85	0.008300667
255	0x3c62c62d	0.013841194

block1.1.weight f4 [256]
0	0x3ff1de6c	1.8896003
1	0x4001493b	2.0200946
2	0x3fd84a07	1.6897591
3	0x3fe2bff0	1.7714825
4	0x3ff53370	1.9156322
5	0x3fe9c1d8	1.8262281
6	0x3fefd9d8	1.8738356
7	0x3ff38ac7	1.9026726
8	0x3fe512d2	1.7896369
9	0x3fd3a700	1.6535339
10	0x40033b57	2.0504968
11	0x3fe403df	1.7813681
12	0x40034f29	2.0517066
13	0x3fe2491a	1.7678559
14	0x3ff9a4fa	1.9503472
15	0x3ff7b342	1.935158
16	0x3fec5193	1.8462394
17	0x3ffabd9c	1.9589114
18	0x3ff6b32d	1.927343
19	0x3fdfb8c5	1.7478262
20	0x3ff399f8	1.9031363
21	0x3fd349e7	1.6506928
22	0x40096e33	2.147351
23	0x3fe15021	1.7602578
24	0x3fff0e24	1.992619
25	0x3fe33678	1.7750998
26	0x3fef31bf	1.8687056
27	0x3ff2824d	1.8946015
28	0x3fe81eea	1.8134434
29	0x3ff0f608	1.8825083
30	0x3ff2bc37	1.8963689
31	0x40020bfb	2.0319812
32	0x40064745	2.0981
33	0x3fe72652	1.805857
34	0x3fd5a590	1.6691151
35	0x3fdbf897	1.7185239
36	0x3ff9775f	1.9489554
37	0x40021390	2.032444
38	0x3fecee4f	1.8510226
39	0x3fce19d8	1.6101637
40	0x400723d4	2.1115618
41	0x400172c9	2.022631
42	0x400e214a	2.2207818
43	0x4003ec00	2.0612793
44	0x3fc1ccd7	1.5140637
45	0x3fea8dc3	1.8324512
46	0x3ffc5a17	1.9714993
47	0x3fdc0175	1.7187945
48	0x3ff54176	1.9160602
49	0x3fdf1fdc	1.7431598
50	0x3feda83e	1.8566968
51	0x3fe5a378	1.7940512
52	0x400d1070	2.2041283
53	0x400801a3	2.1251
54	0x4005b49d	2.0891488
55	0x3ff2fe77	1.8983907
56	0x4001e1bd	2.029403
57	0x3ff7f237	1.9370793
58	0x400303cc	2.0471067
59	0x3ffe4707	1.9865426
60	0x3fe8fa17	1.8201321
61	0x3ff74bcb	1.9320005
62	0x40060a02	2.0943608
63	0x3ff1442e	1.8848932
64	0x3fe5b9d1	1.7947332
65	0x400843d5	2.1291401
66	0x3fedb208	1.8569956
67	0x3ff49462	1.9107783
68	0x3ff76e0b	1.9330457
69	0x3fddc7df	1.7326621
70	0x3fe33e06	1.7753303
71	0x3fe7d898	1.8112974
72	0x3fe65498	1.7994566
73	0x3fd9fe71	1.7030774
74	0x3ff93c5d	1.9471546
75	0x3ff78ce5	1.9339873
76	0x3ff1e31a	1.8897431
77	0x3fea3c9c	1.8299747
78	0x3fe694be	1.8014143
79	0x400df2b4	2.2179384
80	0x3fe0a0f9	1.7549125
81	0x3ff112b0	1.8833828
82	0x40002e84	2.002839
83	0x3fe2c43c	1.7716136
84	0x3ff22dcd	1.8920227
85	0x3fe2ae78	1.7709494
86	0x3ffe1d0c	1.9852614
87	0x3ff7718e	1.9331529
88	0x3fd4816a	1.6601994
89	0x3feedd7b	1.866134
90	0x3ffd15c8	1.9772272
91	0x3fe85114	1.8149743
92	0x3fd8360f	1.6891497
93	0x3fd14e69	1.6352054
94	0x3ffe0a2f	1.9846858
95	0x3ffd5a63	1.9793209
96	0x3fdc5ed6	1.7216442
97	0x3fec6a23	1.846989
98	0x3febc9cc	1.8420959
99	0x3ff70ea6	1.9301345
100	0x3fe9b119	1.8257171
101	0x3fe9f8b6	1.8279026
102	0x3fe35a4e	1.7761934
103	0x40026772	2.0375638
104	0x3fee427c	1.861404
105	0x3ff39a2c	1.9031425
106	0x3fe51185	1.7895972
107	0x3feb20a3	1.8369335
108	0x4008d5e0	2.138054
109	0x3fe9f6d2	1.8278449
110	0x4003742f	2.0539663
111	0x3fefb3c0	1.872673
112	0x4009a151	2.150471
113	0x3fe569ea	1.7922947
114	0x3ff8de2d	1.9442803
115	0x3ffcd88a	1.9753582
116	0x4001fee6	2.0311828
117	0x3fe87ed1	1.8163701
118	0x4000de2d	2.0135605
119	0x4001a213	2.0255172
120	0x4005edfa	2.09265
121	0x400a07bf	2.1567228
122	0x3ff18685	1.8869177
123	0x3fc51b37	1.539893
124	0x3ff2033f	1.8907241
125	0x3ff0f352	1.8824255
126	0x400f5508	2.239565
127	0x3fd5b403	1.669556
128	0x3ff890b2	1.9419158
129	0x3fed866e	1.855665
130	0x3ff1ffe5	1.8906218
131	0x3ff4e329	1.9131824
132	0x3fffb47b	1.9976953
133	0x3ff85a87	1.9402627
134	0x3fef0589	1.8673564
135	0x3fd7cfc2	1.6860278
136	0x4006aaed	2.1041825
137	0x3ffc875a	1.9728806
138	0x3fe6ebe8	1.8040743
139	0x3ff36171	1.9014112
140	0x400b5175	2.1768467
141	0x3ff446e5	1.9084135
142	0x3ff239eb	1.8923925
143	0x3ff74651	1.9318334
144	0x3ff550ba	1.9165261
145	0x3ff2c10f	1.8965167
146	0x3ff4d627	1.9127854
147	0x3fefafdf	1.8725547
148	0x3fdfc20b	1.7481092
149	0x3ff8bc01	1.9432374
150	0x40043136	2.0655036
151	0x3ff46b93	1.9095329
152	0x40031edf	2.0487592
153	0x3ff3be8c	1.9042525
154	0x3ffa7faa	1.957021
155	0x3fcaa884	1.5832677
156	0x3fe70e42	1.8051226
157	0x3ff04e48	1.877389
158	0x3ff64d57	1.9242352
159	0x3fd6bac6	1.6775749
160	0x3ff9eca8	1.9525347
161	0x3fecf094	1.8510919
162	0x3fe945ea	1.8224461
163	0x4005aea3	2.088784
164	0x3fe7fd19	1.8124114
165	0x3fed325a	1.8530991
166	0x3ff41a70	1.9070568
167	0x3fe5c471	1.7950574
168	0x3ffba012	1.9658225
169	0x3ff87108	1.9409494
170	0x3feab638	1.8336859
171	0x3ff94156	1.9473064
172	0x3fe8abd4	1.8177438
173	0x400b3c69	2.1755621
174	0x3fedd257	1.8579816
175	0x3fdfad29	1.7474719
176	0x40125f22	2.2870564
177	0x3ff1a354	1.8877969
178	0x3ff0a05d	1.8798939
179	0x3ff63cb8	1.923728
180	0x3fe6b870	1.8025036
181	0x3fff2034	1.9931703
182	0x3fe7c516	1.8107021
183	0x3ff9c474	1.9513078
184	0x3fe1f1f4	1.7651963
185	0x3ffa55fa	1.9557488
186	0x3ff4d5b5	1.9127718
187	0x4003727b	2.0538623
188	0x3ff2a471	1.8956434
189	0x3ff30d2e	1.8988397
190	0x3fe0223f	1.7510451
191	0x3ffa95ff	1.9577025
192	0x3fda0e1f	1.703556
193	0x3ffb1bdc	1.9617877
194	0x3fec7402	1.8472903
195	0x3ff7d1d2	1.9360907
196	0x400af4ee	2.1711993
197	0x3feab800	1.8337402
198	0x3fcabcb0	1.5838833
199	0x3feeb9b0	1.8650417
200	0x3fdf41ca	1.7441952
201	0x3ff0807e	1.8789213
202	0x3ffb7e5a	1.9647934
203	0x3ffc674d	1.9719025
204	0x3fc6da47	1.5535363
205	0x3fd14cf7	1.6351613
206	0x3ffaa53c	1.9581676
207	0x3ff25451	1.8931981
208	0x3ff86b9b	1.9407839
209	0x3fd2f175	1.6479937
210	0x40010eb1	2.0165217
211	0x3feba4b2	1.8409636
212	0x3ff32b60	1.8997612
213	0x40054284	2.0821848
214	0x3ff833d3	1.9390815
215	0x3ff3b7ae	1.904043
216	0x3fe7ed06	1.8119209
217	0x3feb12b9	1.8365089
218	0x3fe53881	1.7907869
219	0x4003c5e5	2.0589535
220	0x3fef7eeb	1.8710607
221	0x3ffe29c8	1.9856501
222	0x3ffeaced	1.9896523
223	0x3fefb022	1.8725626
224	0x4002ec32	2.0456662
225	0x3ff10c71	1.8831922
226	0x40016520	2.0217972
227	0x400a3307	2.1593645
228	0x3fe30ea5	1.7738844
229	0x3ffdbc76	1.9823139
230	0x4006176c	2.0951796
231	0x3ffc9806	1.9733894
232	0x3ff98194	1.9492669
233	0x3ffc4445	1.9708334
234	0x3fedd367	1.858014
235	0x3fe7fbdb	1.8123735
236	0x3fe4dd25	1.7879988
237	0x3ff333c4	1.9000173
238	0x4000a21a	2.009894
239	0x3fed2551	1.8527013
240	0x3fe92aec	1.8216224
241	0x40040553	2.062825
242	0x3ff6fd6e	1.9296091
243	0x3fe66ac0	1.8001328
244	0x3ff0af3f	1.8803481
245	0x4001ca1e	2.0279613
246	0x3ff6b971	1.9275342
247	0x4003b76a	2.0580697
248	0x400907a9	2.1410925
249	0x3fee8484	1.863419
250	0x3fe44e9a	1.7836487
251	0x3fe7efd0	1.812006
252	0x3fd739db	1.6814531
253	0x3fe93b98	1.8221312
254	0x3febdcc6	1.842675
255	0x3ffa51b6	1.9556186

block1.1.bias f4 [256]
0	0x3f818ed6	1.0121715
1	0x3f7b97ba	0.9827839
2	0x3f3d9b68	0.74065256
3	0x3f560c1b	0.8361222
4	0x3f824ef2	1.0180342
5	0x3f693230	0.91092205
6	0x3f89b2e7	1.0757722
7	0x3f83eb57	1.0306195
8	0x3f8db78c	1.1071639
9	0x3f463115	0.77418643
10	0x3f859464	1.043591
11	0x3f88cf1b	1.0688204
12	0x3f63848d	0.8887413
13	0x3f701036	0.93774736
14	0x3f82aae2	1.0208399
15	0x3f83861a	1.02753
16	0x3f8bfac5	1.0935904
17	0x3f83c8d1	1.0295659
18	0x3f6bb7b8	0.9207721
19	0x3f70d481	0.94074255
20	0x3f8baa3e	1.0911329
21	0x3f675071	0.9035712
22	0x3fa6cc50	1.3031101
23	0x3f1f38ca	0.6219603
24	0x3f8bc923	1.0920757
25	0x3f6202e9	0.8828569
26	0x3f883b6a	1.0643132
27	0x3f814835	1.0100161
28	0x3f80bc6b	1.0057501
29	0x3f8fe268	1.1240969
30	0x3f5b929a	0.8577057
31	0x3f8f87ef	1.1213359
32	0x3f96fed7	1.1796521
33	0x3f32fe83	0.69919604
34	0x3f6389ff	0.8888244
35	0x3f27cfb0	0.6555128
36	0x3f93ffd0	1.1562443
37	0x3f6a18b9	0.91443974
38	0x3f9d0177	1.2266072
39	0x3f5b277c	0.85607123
40	0x3f984618	1.1896391
41	0x3fa44e95	1.2836481
42	0x3f97f306	1.187104
43	0x3f97855c	1.1837573
44	0x3f81eeca	1.0150998
45	0x3f7f408b	0.9970786
46	0x3f9e4c0a	1.2366955
47	0x3f7fd145	0.99928695
48	0x3f9cbb28	1.2244616
49	0x3f8e707c	1.1128078
50	0x3f8f7ca6	1.1209915
51	0x3f7c4cf7	0.9855494
52	0x3f80a2b2	1.0049651
53	0x3f75293d	0.9576605
54	0x3f986139	1.190467
55	0x3f995600	1.197937
56	0x3f82fe9d	1.0233952
57	0x3f4b0f22	0.79319966
58	0x3f85cc1b	1.0452913
59	0x3f98e60e	1.1945207
60	0x3f6d95e7	0.9280686
61	0x3f86b700	1.0524597
62	0x3f5090e5	0.8147109
63	0x3f8b28d1	1.0871831
64	0x3f89bce6	1.0760772
65	0x3f90bfb2	1.1308501
66	0x3f8a884c	1.0822845
67	0x3f9a7157	1.2065839
68	0x3f802d9b	1.0013918
69	0x3f61a3de	0.88140666
70	0x3f082008	0.53173876
71	0x3f5fb07c	0.8737867
72	0x3f6bb9f1	0.920806
73	0x3ef5fff2	0.48046833
74	0x3f4ab526	0.7918266
75	0x3f884cf9	1.064849
76	0x3f7787d7	0.9669165
77	0x3f955b88	1.1668558
78	0x3f9154fa	1.1354058
79	0x3f1e1c2f	0.61761755
80	0x3f86b42a	1.0523732
81	0x3f2d90e9	0.6779924
82	0x3f3b5c1c	0.7318742
83	0x3f84dc9a	1.0379822
84	0x3f766ab0	0.9625654
85	0x3f902353	1.126078
86	0x3f83fdf1	1.0311872
87	0x3f79e8ce	0.97620857
88	0x3f4c1a34	0.7972748
89	0x3f7c32de	0.9851512
90	0x3f607e15	0.87692386
91	0x3f7af363	0.9802763
92	0x3f7faa8c	0.9986961
93	0x3f518369	0.8184114
94	0x3fa0b421	1.2554971
95	0x3f8dbcee	1.1073282
96	0x3f7aeee3	0.9802076
97	0x3f8ff0c0	1.1245346
98	0x3f8c89fa	1.0979607
99	0x3f8aadea	1.0834324
100	0x3f9c9f26	1.2236068
101	0x3f91d7b7	1.1393956
102	0x3f9591bf	1.1685103
103	0x3f931398	1.1490355
104	0x3f6047ee	0.87609756
105	0x3f92c9ef	1.1467875
106	0x3f95c95c	1.1702075
107	0x3f558f09	0.8342138
108	0x3f6f8731	0.9356566
109	0x3f84bd95	1.0370356
110	0x3f8db005	1.1069342
111	0x3f895e95	1.0731989
112	0x3f8994a9	1.0748492
113	0x3f8e2d23	1.1107525
114	0x3f89a460	1.0753288
115	0x3f8702a9	1.0547687
116	0x3f8ad97a	1.0847619
117	0x3f8db409	1.1070567
118	0x3f973738	1.1813726
119	0x3fa5096f	1.2893504
120	0x3f8efb70	1.1170483
121	0x3f8d087e	1.1018217
122	0x3f5e7f26	0.86912763
123	0x3f728312	0.9473125
124	0x3f095c25	0.53656226
125	0x3f6545d9	0.89559704
126	0x3f637f99	0.88866574
127	0x3f5e80a6	0.8691505
128	0x3f902cae	1.1263635
129	0x3f85235f	1.0401419
130	0x3f82af07	1.0209664
131	0x3f8093ca	1.0045102
132	0x3f91ed02	1.1400454
133	0x3f9f14d9	1.2428237
134	0x3f1d269b	0.6138703
135	0x3f83f210	1.0308247
136	0x3fa04b93	1.2523063
137	0x3f73fd70	0.9530859
138	0x3eeaae88	0.45836282
139	0x3fa1e5df	1.2648276
140	0x3f1301e2	0.5742475
141	0x3f5ef7bb	0.87096757
142	0x3f595dfe	0.84909046
143	0x3f9c3b50	1.2205601
144	0x3f842736	1.0324466
145	0x3f63f514	0.89045835
146	0x3f67230d	0.9028786
147	0x3f40bebf	0.75291055
148	0x3f104f99	0.56371456
149	0x3f80d027	1.0063523
150	0x3f8ffed4	1.1249642
151	0x3fabea90	1.3430958
152	0x3fa1d12a	1.2641957
153	0x3f95013d	1.1641003
154	0x3f37eea4	0.7184851
155	0x3f8ca2dd	1.0987202
156	0x3f646cf5	0.89228755
157	0x3f8f2147	1.118203
158	0x3f2e8ecf	0.6818666
159	0x3eea1214	0.45716918
160	0x3f96d107	1.178254
161	0x3f939967	1.153119
162	0x3f937c6a	1.1522343
163	0x3f8193f6	1.0123279
164	0x3f8edd4a	1.1161282
165	0x3f8585d3	1.0431465
166	0x3f6c730b	0.9236304
167	0x3f75ab21	0.95964247
168	0x3f8e2539	1.110511
169	0x3f8e88c5	1.1135489
170	0x3ef99b28	0.48751187
171	0x3fac7830	1.3474178
172	0x3f99cc54	1.2015481
173	0x3f8c9554	1.0983071
174	0x3f93c852	1.1545508
175	0x3f710797	0.94152206
176	0x3fa024cd	1.2511231
177	0x3f3c38cd	0.7352417
178	0x3f8fb310	1.122652
179	0x3f90fcf8	1.13272
180	0x3fab95f2	1.3405135
181	0x3f8bc502	1.0919497
182	0x3f18954b	0.59602803
183	0x3f932141	1.1494523
184	0x3f39328d	0.7234276
185	0x3fab2154	1.3369546
186	0x3f502a0b	0.8131415
187	0x3fa71b3c	1.3055186
188	0x3f9a880d	1.2072769
189	0x3f6ff593	0.9373409
190	0x3f8ab6ac	1.0836997
191	0x3f9c29d4	1.2200265
192	0x3f63f0ea	0.8903948
193	0x3fa0c05c	1.2558703
194	0x3f964eac	1.1742759
195	0x3f8d31b5	1.1030794
196	0x3f2a245e	0.6646174
197	0x3f8a1a93	1.078936
198	0x3f7132b9	0.9421802
199	0x3f3eb193	0.74489707
200	0x3f7546ef	0.9581136
201	0x3f68a903	0.9088289
202	0x3f99002e	1.195318
203	0x3fa0f4f6	1.2574756
204	0x3eac5211	0.33656362
205	0x3f705cb1	0.93891436
206	0x3f604448	0.8760419
207	0x3f8050f2	1.0024703
208	0x3fa8b0b5	1.3178927
209	0x3eaa4e93	0.33263072
210	0x3f99d49d	1.201801
211	0x3f7c9354	0.98662305
212	0x3f3fe568	0.7495942
213	0x3f89e6c6	1.0773551
214	0x3f76a4a8	0.96344995
215	0x3f9e226e	1.2354257
216	0x3f6f0b24	0.93376374
217	0x3f65d20a	0.8977362
218	0x3f9f00be	1.2422101
219	0x3f8e2302	1.1104434
220	0x3f8dce35	1.1078554
221	0x3f9c64bc	1.2218242
222	0x3f93285e	1.1496694
223	0x3f8a9365	1.0826231
224	0x3f7decde	0.99189556
225	0x3f93f74b	1.1559843
226	0x3f423334	0.7585938
227	0x3f506a58	0.8141227
228	0x3f591217	0.8479323
229	0x3f820b04	1.0159612
230	0x3f8b8035	1.0898501
231	0x3f848fa0	1.0356331
232	0x3f0ef394	0.5584042
233	0x3f7b4961	0.9815884
234	0x3f90776e	1.1286447
235	0x3f7f2ad0	0.996747
236	0x3f79ea86	0.9762348
237	0x3f7e7f33	0.9941284
238	0x3f9eb6b2	1.2399504
239	0x3f325677	0.69663185
240	0x3f8d30a2	1.1030467
241	0x3f9b23e3	1.2120327
242	0x3f453707	0.7703709
243	0x3f484cad	0.78242
244	0x3f9bed91	1.2181875
245	0x3f9ad6c1	1.2096788
246	0x3f97d5d6	1.1862133
247	0x3f8b2c47	1.0872887
248	0x3f966bce	1.1751649
249	0x3f8bdb73	1.0926346
250	0x3f869188	1.0513163
251	0x3f967f0f	1.1757525
252	0x3f8d4b7c	1.1038661
253	0x3f827ccc	1.0194335
254	0x3f748eb8	0.9553027
255	0x3f8ef1b2	1.116751

block1.1.running_mean f4 [256]
0	0x3b3d6590	0.0028899647
1	0xbd593aae	-0.053034477
2	0x3c10bb8d	0.008833778
3	0xbd5f7144	-0.054551378
4	0xbd342afa	-0.0439863
5	0xbd32f430	-0.043689907
6	0x3d8325de	0.06403707
7	0xbd5b9d46	-0.053616785
8	0xbd540bc8	-0.051769048
9	0xbd0aa157	-0.033845272
10	0xbd5d3170	-0.054002225
11	0xbd143b76	-0.03618952
12	0xbcd9a03a	-0.02656566
13	0xbd0b33b2	-0.033984847
14	0x3d97cd6b	0.07412227
15	0xbd5ec1c1	-0.054383997
16	0xbd7b92a3	-0.06141914
17	0xbd1a35dc	-0.03764902
18	0xbd490e5a	-0.049085952
19	0xbd0f14b5	-0.034931857
20	0xbc549f76	-0.012977472
21	0xbd0135c9	-0.031545434
22	0xbd954886	-0.072892234
23	0xba954a10	-0.001138987
24	0xbd5b39e1	-0.053521995
25	0xbd2d55a0	-0.042317986
26	0xbd2758f3	-0.040856313
27	0xbd59ad99	-0.05314407
28	0xbcc5093b	-0.024052253
29	0xbd397dee	-0.04528611
30	0xbd09ef4c	-0.033675477
31	0xbd4f1a12	-0.050561972
32	0xbd05e74f	-0.032691296
33	0x3bbd6d92	0.005780884
34	0xbd3488a0	-0.04407561
35	0xbcd579d2	-0.026059065
36	0xbd47ccc1	-0.048779253
37	0xbc53ff64	-0.012939308
38	0xbd1ef800	-0.03881073
39	0xbce7a486	-0.028276693
40	0xbd304853	-0.043037724
41	0xbd2f4ca0	-0.042797685
42	0xbd297d12	-0.041379042
43	0xbd025dde	-0.0318278
44	0xbd2f6322	-0.04281915
45	0xbce9feb9	-0.028563844
46	0xba24c183	-0.0006284939
47	0xbcd64353	-0.02615515
48	0xbd3a0f1f	-0.045424577
49	0xbcabfabf	-0.020993588
50	0xbd546f30	-0.05186385
51	0xbcd43c90	-0.025907785
52	0xbbb8e78b	-0.0056428364
53	0x3d82c271	0.06384743
54	0xbd52f0a7	-0.051499035
55	0xbcb10ba0	-0.021611989
56	0xbd27227a	-0.040804364
57	0xbce76520	-0.028246462
58	0xbd36349e	-0.044483773
59	0xbc283fcc	-0.010269117
60	0xbcc27976	-0.023739558
61	0x3c8b967d	0.017039532
62	0xbcf70dda	-0.030157972
63	0xbc997756	-0.018733662
64	0xbd8608b9	-0.065446325
65	0xbd1be350	-0.03805858
66	0xbd211e26	-0.039335392
67	0x3d504e5c	0.05085598
68	0xbd45fbd2	-0.048335858
69	0xbd65b765	-0.0560831
70	0xbd53650a	-0.05161003
71	0xbd60bc3b	-0.05486701
72	0xbd03c7a6	-0.03217282
73	0xbd356e00	-0.044294357
74	0xbd28f57f	-0.04124975
75	0xbd903dd0	-0.0704304
76	0xbd8107a0	-0.063002825
77	0xbcb5a5d6	-0.022173803
78	0x3d6b7215	0.057481844
79	0xbd371e20	-0.044706464
80	0xbd125c8c	-0.03573279
81	0xbd26658e	-0.040624194
82	0xbcaa47a2	-0.02078611
83	0xbd526d4d	-0.05137377
84	0xbd6a4863	-0.05719794
85	0xbd5b117f	-0.053483482
86	0xbcc93b94	-0.024564542
87	0xbd7aeb73	-0.061259698
88	0xbcdbbc07	-0.026823057
89	0xbc9cf556	-0.019159954
90	0xbd09d093	-0.033646178
91	0xbcb67d1a	-0.02227645
92	0xbc5dcc94	-0.013537545
93	0xbcc15068	-0.023597911
94	0xbc940aad	-0.018071497
95	0xbd0fd3e7	-0.035114195
96	0xbd2572b5	-0.040392596
97	0xbd01a75e	-0.031653754
98	0xbce671e8	-0.028130487
99	0xbcf292c6	-0.029611003
100	0xbc5ca094	-0.013466019
101	0xbd6bf20a	-0.057603873
102	0xbcf9488a	-0.030430097
103	0xbd5de426	-0.054172657
104	0xbd7ee8b8	-0.062233657
105	0xbcacc634	-0.021090604
106	0xbcd2e122	-0.025742117
107	0xbd165c8a	-0.036709346
108	0xbd2ffd3d	-0.042966116
109	0xbd0a01ca	-0.033693112
110	0xbd0063dc	-0.031345233
111	0xbc96f88f	-0.018429069
112	0xbcfd08d5	-0.030888
113	0xbd0d8ec2	-0.034559973
114	0xbd3cc637	-0.04608747
115	0xbd20558c	-0.039144084
116	0xbd624cdf	-0.05524909
117	0xbce07094	-0.027397431
118	0xbd4a602a	-0.049408115
119	0x3cb0f8b1	0.02160296
120	0xbd0cd439	-0.03438208
121	0xbd1bb642	-0.03801561
122	0xbd503037	-0.05082723
123	0xbd0cdd15	-0.034390528
124	0xbd009a07	-0.031396892
125	0xbd0b50c4	-0.03401257
126	0xbca3c5af	-0.019991724
127	0xbd12752a	-0.035756268
128	0xbc9d6300	-0.019212246
129	0xbd14b04e	-0.03630095
130	0xbd4f40f6	-0.05059906
131	0xbccd6a43	-0.025075084
132	0xbd8486fe	-0.0647106
133	0xbd448801	-0.047981266
134	0x3d0a1654	0.0337127
135	0xbd417d89	-0.04723886
136	0xbd0b780b	-0.03405003
137	0xbd584555	-0.052800495
138	0x3cb8381b	0.02248769
139	0xbcf75046	-0.030189645
140	0xbc3baed4	-0.0114552565
141	0xbcaf21f0	-0.021378487
142	0xbd3fbc41	-0.046810392
143	0xbc9cbdb2	-0.019133423
144	0xbd53d11f	-0.051713105
145	0xbd29f95c	-0.041497573
146	0xbd263c59	-0.040584896
147	0xbd64798f	-0.05577999
148	0xbb1d7607	-0.0024026649
149	0xbd3022fa	-0.043002106
150	0xbd16f8b2	-0.036858268
151	0xbcd462bd	-0.025925988
152	0xbd199941	-0.03749967
153	0xbd07567a	-0.033041455
154	0xbc92ebb6	-0.017934661
155	0xbd359cb0	-0.044338882
156	0xbd567325	-0.052355904
157	0x3d196708	0.037451774
158	0x3d34f26b	0.0441765
159	0xbb913a29	-0.004431982
160	0xbd3050c9	-0.043045793
161	0xbd17c4a9	-0.037052784
162	0x3be02758	0.0068406276
163	0xbd5071de	-0.050889842
164	0xbd865c10	-0.06560528
165	0xbd4b808c	-0.04968314
166	0xbd46469f	-0.048407193
167	0xbb19917a	-0.0023432658
168	0xbd49d19b	-0.04927216
169	0xbd037254	-0.032091454
170	0x3ac357d5	0.0014903495
171	0xbd39d6f0	-0.045370996
172	0x3cb47628	0.022028998
173	0xbd47c697	-0.048773374
174	0xbd2f3513	-0.042775225
175	0xbcf59573	-0.02997849
176	0x3dab0ee7	0.08352452
177	0x3d03a5a0	0.032140374
178	0xbd2c9914	-0.042138174
179	0xbd877b94	-0.066153675
180	0xbd711aa0	-0.058863282
181	0xbd41cab8	-0.04731247
182	0xbb75d0f8	-0.0037508588
183	0xbd4d25bd	-0.05008482
184	0xbd5145c2	-0.051091917
185	0xbd073a97	-0.03301486
186	0xbcb37c40	-0.021909833
187	0xbc693390	-0.014233485
188	0xbd5bd57e	-0.0536704
189	0xbd282b2e	-0.041056804
190	0xbc4e7357	-0.012600741
191	0xbd695435	-0.05696507
192	0xbc8a1d74	-0.016859747
193	0xbd359f9c	-0.04434167
194	0xbac1dcba	-0.0014790513
195	0x3d124056	0.035705887
196	0xbc9d6c24	-0.019216605
197	0xba8db54e	-0.0010811479
198	0xbb1eb6fa	-0.002421795
199	0xbccaeb17	-0.024770303
200	0xbb0c78c8	-0.0021434296
201	0xbd31ddf6	-0.04342457
202	0xbd1a3969	-0.037652407
203	0xbc82e558	-0.0159785
204	0xbc4f830a	-0.0126655195
205	0xbd0f97d8	-0.03505692
206	0xbd885d11	-0.06658376
207	0xbd1ba57e	-0.037999623
208	0xbcd31c37	-0.02577029
209	0xbb811b49	-0.00394002
210	0xbd1fb822	-0.038993962
211	0xbd05732b	-0.032580536
212	0xbd179366	-0.037005804
213	0xbd24dd1d	-0.040249933
214	0xbd1296d9	-0.03578839
215	0x3cd78db1	0.02631268
216	0xbd218531	-0.03943366
217	0xbce235c3	-0.027613526
218	0x3cd2f4f7	0.025751574
219	0xbd2de248	-0.042452127
220	0xbc2801be	-0.010254322
221	0xbd74a564	-0.05972804
222	0xbd51d26a	-0.051226057
223	0xbcb90406	-0.022584926
224	0xbd4adda5	-0.049527783
225	0xbd49fa3a	-0.0493109
226	0x3ce6f102	0.028191093
227	0xbd059565	-0.032613177
228	0xbd019c08	-0.031642944
229	0xbd2308cb	-0.039803308
230	0xbd589ab6	-0.05288192
231	0xbd130a24	-0.035898343
232	0xbcb99d7d	-0.022658104
233	0xbc3be9d3	-0.011469322
234	0xbd2261ae	-0.039643936
235	0xbc940696	-0.018069547
236	0xbd1e7c7d	-0.03869294
237	0xbcf49dbd	-0.029860372
238	0xbd0bcacc	-0.03412895
239	0xbb87cb8e	-0.0041441387
240	0xbd1f3eba	-0.03887818
241	0xbd5fac5e	-0.05460774
242	0xbd1702fd	-0.036868084
243	0xbd7a74f2	-0.061146684
244	0xbcc0b5e3	-0.02352423
245	0xbd02a61c	-0.031896695
246	0x3c5fcd4c	0.013659786
247	0xbd09bb9a	-0.033626176
248	0x3c074c4f	0.0082579395
249	0xbd21c7e8	-0.039497286
250	0xbc193d9d	-0.009353069
251	0xbceaf6c3	-0.028682118
252	0xbbec1ffd	-0.0072059617
253	0xbc688c4a	-0.014193604
254	0xbc293190	-0.010326758
255	0x3d396b78	0.045268506

block1.1.running_var f4 [256]
0	0x3e43889b	0.1909508
1	0x3f00d5f7	0.50326484
2	0x3e99cab0	0.3003745
3	0x3ec40b27	0.3828976
4	0x3e997ec8	0.2997954
5	0x3eb25449	0.3482993
6	0x3e7b5c9f	0.24547051
7	0x3ed43e77	0.41453907
8	0x3eb73d24	0.35788834
9	0x3e865444	0.26236165
10	0x3f058c1c	0.52166915
11	0x3f06c08b	0.5263755
12	0x3e68e1fb	0.22742455
13	0x3e725577	0.23665415
14	0x3ec27c82	0.37985617
15	0x3f028597	0.5098509
16	0x3f43a0e9	0.76417404
17	0x3efb4cfe	0.49082178
18	0x3e5efed8	0.21776903
19	0x3ebd54c7	0.36978742
20	0x3ed06d62	0.40708452
21	0x3ed7fd83	0.42185602
22	0x3f6a95e9	0.91634995
23	0x3e5ef258	0.21772134
24	0x3f1bba79	0.6083141
25	0x3efc8fd4	0.49328482
26	0x3f08ea38	0.5348239
27	0x3e956c58	0.29184222
28	0x3eab9ec3	0.33519563
29	0x3ed23768	0.41057897
30	0x3ef0b8a9	0.47015885
31	0x3ebb47d7	0.36578247
32	0x3f00f223	0.5036947
33	0x3e493829	0.1965033
34	0x3e9f260c	0.31083715
35	0x3dfce947	0.123491816
36	0x3eb7013c	0.3574313
37	0x3e6bb29d	0.23017354
38	0x3e98cebd	0.2984523
39	0x3e98e3c4	0.2986127
40	0x3ef38488	0.4756205
41	0x3f5ea399	0.8696838
42	0x3ec27489	0.37979534
43	0x3ee715be	0.45133775
44	0x3eb5b17a	0.35486966
45	0x3e79f9ed	0.24411745
46	0x3ed8e533	0.42362365
47	0x3eacad87	0.3372614
48	0x3f0d303b	0.5515172
49	0x3ec824ee	0.39090675
50	0x3e9c6ff1	0.30554155
51	0x3e3e8af3	0.18607692
52	0x3df7bbc2	0.12096359
53	0x3eb58597	0.35453483
54	0x3f198f48	0.59984255
55	0x3efddb5a	0.49581414
56	0x3f1319c4	0.5746119
57	0x3e9a94cb	0.30191645
58	0x3f2c349e	0.6726779
59	0x3ef81786	0.48455447
60	0x3e34807e	0.17627141
61	0x3f0cafdd	0.54955846
62	0x3e945df6	0.28977937
63	0x3f214696	0.6299833
64	0x3f2800eb	0.656264
65	0x3f1ac134	0.60451055
66	0x3eb4cab9	0.35310915
67	0x3ecaed93	0.3963438
68	0x3e871e31	0.26390222
69	0x3ec1ac3f	0.37826726
70	0x3e50aece	0.20379183
71	0x3e932d01	0.28745273
72	0x3ee5449c	0.44778907
73	0x3e31bca5	0.17357118
74	0x3f120e9e	0.57053554
75	0x3f2fe122	0.687029
76	0x3f3eed6b	0.7458102
77	0x3edf9eb9	0.43675783
78	0x3e819c8f	0.25314757
79	0x3dbc9318	0.092077434
80	0x3f0f20e3	0.55909556
81	0x3e236674	0.15957052
82	0x3e017884	0.1264363
83	0x3f07ff29	0.5312372
84	0x3ecbfaf7	0.39839908
85	0x3edf56f6	0.43621033
86	0x3e5c8aed	0.21537371
87	0x3ee205ff	0.441452
88	0x3e0028a3	0.12515502
89	0x3f11bf9c	0.56933
90	0x3ef24ac6	0.47322673
91	0x3f06783b	0.5252721
92	0x3e930447	0.287142
93	0x3e762f21	0.24041416
94	0x3eca03ce	0.39456028
95	0x3ebd9215	0.37025514
96	0x3ed26fd1	0.41100934
97	0x3f07a18b	0.5298087
98	0x3ed6c28e	0.41945308
99	0x3e185c16	0.14878878
100	0x3f0190b3	0.5061142
101	0x3f01b016	0.5065931
102	0x3f221833	0.63318175
103	0x3f408409	0.7520147
104	0x3e222211	0.15833308
105	0x3e776803	0.24160771
106	0x3f17b9ef	0.5926809
107	0x3e2f26fc	0.17104715
108	0x3e25d8d0	0.16195989
109	0x3efaee0b	0.49009737
110	0x3eb9f73b	0.36321434
111	0x3e6a118f	0.2285826
112	0x3ed07c50	0.40719843
113	0x3ef4c86a	0.47809154
114	0x3ed47cfd	0.41501608
115	0x3ee95da4	0.45579255
116	0x3e8ef454	0.27920783
117	0x3e9ec506	0.31009692
118	0x3e322208	0.17395794
119	0x3f0f80b7	0.5605578
120	0x3e5ab19b	0.21356814
121	0x3e82469d	0.254445
122	0x3e4befee	0.19915745
123	0x3e09d2f2	0.13459376
124	0x3e024b18	0.12723958
125	0x3e948b32	0.29012448
126	0x3e5e8b89	0.21732916
127	0x3e898478	0.26858878
128	0x3e835d49	0.25657108
129	0x3ea22d77	0.31675312
130	0x3f084acb	0.53239125
131	0x3e609d29	0.21934952
132	0x3f053ed8	0.52049017
133	0x3f06885f	0.52551836
134	0x3dd04e2b	0.10171159
135	0x3ede3330	0.43398428
136	0x3f07e20e	0.5307931
137	0x3f0c6345	0.54838973
138	0x3dc9f5fb	0.0986137
139	0x3e9d9289	0.3077586
140	0x3db94b07	0.090475135
141	0x3e945aec	0.28975618
142	0x3e98246f	0.29715297
143	0x3e409d13	0.18809919
144	0x3e25ee1f	0.16204117
145	0x3e7480db	0.2387728
146	0x3f10b6b4	0.5652878
147	0x3f072942	0.5279733
148	0x3df5ca06	0.120014235
149	0x3e201eb7	0.15636717
150	0x3e145b1a	0.14487877
151	0x3ec5b5ed	0.3861536
152	0x3f145995	0.5794919
153	0x3f0c99c9	0.5492216
154	0x3e1de0f1	0.1541784
155	0x3f2c339a	0.6726624
156	0x3e9e9e15	0.30979982
157	0x3eb67efe	0.35643762
158	0x3e10ad1b	0.14128534
159	0x3e83f897	0.25775596
160	0x3f1af942	0.6053659
161	0x3ec4ee2a	0.38462955
162	0x3ee87921	0.45404914
163	0x3e0bbae6	0.13645515
164	0x3f027507	0.5095982
165	0x3f437ef3	0.76365584
166	0x3ee01d12	0.4377218
167	0x3ee752d8	0.45180392
168	0x3f172870	0.5904608
169	0x3e96048d	0.29300347
170	0x3e092e19	0.13396491
171	0x3e8cae2b	0.2747663
172	0x3ea19d2f	0.31565234
173	0x3f53b45e	0.82697093
174	0x3f1a9cf9	0.6039577
175	0x3ef068bc	0.46954906
176	0x3ebb8703	0.36626443
177	0x3ddd5232	0.10806693
178	0x3f0cb415	0.54962283
179	0x3ea268c8	0.31720567
180	0x3efc019f	0.49219987
181	0x3eb2ba9c	0.34907997
182	0x3e6b3fc6	0.22973546
183	0x3e882487	0.26590368
184	0x3e15fecb	0.14647977
185	0x3ec91530	0.39273977
186	0x3e4489a4	0.1919313
187	0x3e255d4c	0.16148871
188	0x3f67d6ee	0.9056233
189	0x3e0f9b9d	0.14024206
190	0x3ead0a7f	0.3379707
191	0x3f39e790	0.7261896
192	0x3e5401af	0.20703767
193	0x3ef4b3ca	0.47793418
194	0x3ed04010	0.40673876
195	0x3e957363	0.29189596
196	0x3dc8f090	0.09811509
197	0x3f126bef	0.57195944
198	0x3e673a24	0.22580773
199	0x3e466a7f	0.19376563
200	0x3ebc727f	0.36806104
201	0x3f2bd251	0.6711779
202	0x3f14de35	0.5815156
203	0x3f243f2b	0.64158887
204	0x3e74ede6	0.23918876
205	0x3ed760fe	0.42066187
206	0x3e7bfc95	0.24608071
207	0x3e5a525c	0.2132048
208	0x3eafed59	0.3436077
209	0x3e893be2	0.268035
210	0x3f23f479	0.6404491
211	0x3e84a955	0.2591044
212	0x3e2215ba	0.158286
213	0x3e3b1f3a	0.1827363
214	0x3eb7e5b3	0.35917434
215	0x3ed21b5c	0.410365
216	0x3eb66e35	0.35630956
217	0x3eb24d72	0.3482471
218	0x3edec463	0.43509206
219	0x3eaa373c	0.33245265
220	0x3ed03476	0.40665025
221	0x3f10461e	0.5635699
222	0x3f26d628	0.65170527
223	0x3e568ad2	0.20951393
224	0x3e39a5ef	0.18129705
225	0x3f35d2f5	0.7102502
226	0x3e3d186f	0.18466352
227	0x3e664709	0.22488035
228	0x3e9d6aee	0.30745643
229	0x3e807bb8	0.2509439
230	0x3ea7be02	0.32762152
231	0x3e44bfba	0.19213763
232	0x3d9ef03d	0.077606656
233	0x3e65a3ec	0.22425812
234	0x3ed8c57a	0.42338163
235	0x3e379a90	0.17930055
236	0x3ed04062	0.4067412
237	0x3ea8b719	0.32952192
238	0x3f018916	0.505998
239	0x3e16d389	0.14729132
240	0x3efe66df	0.4968786
241	0x3f10ba81	0.5653458
242	0x3e80708b	0.25085863
243	0x3f13e1b8	0.57766294
244	0x3ee2a39e	0.44265455
245	0x3f24d795	0.6439145
246	0x3ec0d2a6	0.37660712
247	0x3f0c564c	0.5481918
248	0x3eaecb04	0.34139264
249	0x3f0c97df	0.54919237
250	0x3eb3746c	0.3504976
251	0x3e782f85	0.24236877
252	0x3e64cd22	0.22343877
253	0x3dc890d1	0.097932465
254	0x3f030830	0.5118437
255	0x3edc8d83	0.43076715

block2.0.weight f4 [256, 256]
0	0xbd76f4e5	-0.060292143
1	0xbe40cbe6	-0.18827781
2	0x3e1fe880	0.15616035
3	0xbe08e15c	-0.13367218
4	0x3c01eb9c	0.007929709
5	0xbe1b49f3	-0.15164928
6	0xbd64a8b3	-0.055824947
7	0x3d2aaa76	0.04166647
8	0xbd603908	-0.05474189
9	0x3da6c697	0.08143347
10	0xbca64452	-0.02029625
11	0xbdeb27df	-0.11482214
12	0xbe306004	-0.17224127
13	0x3c530cf1	0.012881503
14	0xbdf83c95	-0.1212093
15	0x3d1bf258	0.038072914
16	0xbe4428bc	-0.19156164
17	0x3deec139	0.11657948
18	0x3e27b814	0.16378814
19	0xbe425a86	-0.18979844
20	0x3d572860	0.05252874
21	0xbd78b898	-0.060722917
22	0x3d974996	0.07387082
23	0x3e10a488	0.14125264
24	0xbd1740aa	-0.036926903
25	0xbd63e9ae	-0.055642776
26	0x3d0840b0	0.033264816
27	0x3d8ef964	0.06981161
28	0xbda50f89	-0.08059604
29	0x3d9e502e	0.07730137
30	0xbd53be47	-0.051695134
31	0xbd5c27bb	-0.053748827
32	0xbdd667c6	-0.10469012
33	0x3c3e155b	0.011601771
34	0xbdfd49e2	-0.12367608
35	0xbe12413f	-0.14282702
36	0xbd26d6cf	-0.0407322
37	0x3d84ec9d	0.06490443
38	0x3d61faa4	0.05517067
39	0xbda72909	-0.08162124
40	0xbdcaa797	-0.098952465
41	0xbe2301c3	-0.15918641
42	0x3d84c03c	0.06481978
43	0xbd2349d4	-0.03986533
44	0xbe1bc21c	-0.15210766
45	0x3d10c3ec	0.035343096
46	0xbe321c26	-0.1739355
47	0x3d4b41a5	0.04962315
48	0xbc865283	-0.016396767
49	0x3da34052	0.079712525
50	0x3e414116	0.18872485
51	0x3c8f0c32	0.01746187
52	0x3de7b3a3	0.1131356
53	0x3d461627	0.04836097
54	0xbd6bdbea	-0.057582773
55	0xbdb88ade	-0.09010862
56	0xbe14ef85	-0.14544494
57	0x3d1df433	0.038562965
58	0x3db1888a	0.08668621
59	0xbda1a2b4	-0.07892361
60	0x3d826004	0.0636597
61	0xbe1dfa79	-0.15427579
62	0xbe42c586	-0.19020662
63	0xbe2e9378	-0.17048442
64	0xbddbfd1c	-0.10741636
65	0xbe2bc960	-0.16776037
66	0xbe3898d9	-0.18027057
67	0xbcc1c9ef	-0.02365586
68	0xbd8a56ec	-0.0675486
69	0xbd50d12e	-0.05098074
70	0xbad3e8d9	-0.0016167416
71	0xbe582ed0	-0.21111608
72	0x3cd7096d	0.026249612
73	0xbc596d53	-0.013270694
74	0xbd217e54	-0.039427117
75	0x3d949636	0.07255213
76	0x3d81538d	0.06314764
77	0x3d3a8394	0.04553564
78	0xbe1bfdc9	-0.1523353
79	0xbd214fba	-0.039382674
80	0x3c2588b4	0.010103393
81	0xbd7ae302	-0.061251648
82	0xbd7ffbcf	-0.062496003
83	0xbc2b4282	-0.010452868
84	0xbc2b22d7	-0.010445318
85	0x3dadb4a0	0.08481717
86	0x3dfc905e	0.12332223
87	0x3e28600c	0.16442889
88	0xbce5aace	-0.028035548
89	0xbeb6e4f5	-0.35721555
90	0xbea91f04	-0.33031476
91	0xbdb77581	-0.08957959
92	0x3c9cb879	0.019130932
93	0xbd6efdaf	-0.0583474
94	0x3cdb2151	0.026749285
95	0x3dab0848	0.08351189
96	0x3e316e8e	0.1732733
97	0x3de6f8b9	0.11277909
98	0xbca31015	-0.01990513
99	0x3e505f73	0.20348911
100	0xbdb9ad28	-0.0906623
101	0x3d54c574	0.05194612
102	0xbe5dd8c4	-0.21664721
103	0xbd999030	-0.07498205
104	0xbad3fa84	-0.0016172682
105	0xbde6daa0	-0.11272168
106	0x3bb51940	0.0055266917
107	0xba8111ad	-0.0009847187
108	0x3d6f9ddf	0.058500167
109	0x3ddd2013	0.10797133
110	0x3ca2d170	0.019875258
111	0xbd60a484	-0.054844394
112	0xbd6284cf	-0.055302437
113	0xbc8d447f	-0.017244576
114	0x3d5f7b79	0.054561112
115	0xbe96c2f1	-0.29445603
116	0x3e07ff57	0.13280998
117	0x3dee4d3d	0.11635826
118	0x3d9a2b44	0.075277835
119	0xbdd4d008	-0.10391241
120	0x3e2fcbde	0.17167613
121	0x3df596a1	0.11991621
122	0x3dade3ed	0.08490739
123	0x3e0f0ad7	0.13968979
124	0xbd88ee67	-0.06686097
125	0xbcacef92	-0.02111033
126	0x3e00459e	0.12526557
127	0xbcf60008	-0.030029312
128	0x3e241645	0.1602412
129	0xbe0be651	-0.13662077
130	0xbe35dbe1	-0.17759658
131	0x3d830cf1	0.06398953
132	0x3e009df8	0.1256026
133	0xbd90ee88	-0.07076746
134	0x3cf7e050	0.030258328
135	0xbd0d8f7b	-0.03456066
136	0xbe56caba	-0.20975772
137	0xbe8cb05a	-0.27478296
138	0x3db61228	0.08890182
139	0x3d632f82	0.05546523
140	0xbd6332f9	-0.055468533
141	0xbe5d9477	-0.21638666
142	0x3d7da4c3	0.061924707
143	0x3e205a51	0.15659453
144	0x3e251932	0.16122892
145	0xbd5fdb61	-0.054652575
146	0x3cf3a3d5	0.029741207
147	0xbd5cb6cd	-0.05388527
148	0x3cec61f9	0.02885531
149	0x3e04c4f3	0.12965755
150	0xbb862b15	-0.0040944912
151	0xbe00c97e	-0.12576863
152	0x3dc88991	0.09791864
153	0xbdbe787c	-0.09300324
154	0x3dee18d8	0.11625832
155	0xbe22c86f	-0.15896772
156	0xbeabfd20	-0.33591557
157	0xbe08f5be	-0.13374993
158	0x3dff442c	0.12464175
159	0x3e2259a7	0.15854512
160	0xbdbb14e8	-0.09134847
161	0xbdc3bd04	-0.09557536
162	0xbe9f2a2b	-0.3108686
163	0x3dd98292	0.106206074
164	0x3d64879f	0.0557934
165	0xbe51c105	-0.20483787
166	0x3beb72dc	0.007185323
167	0xbeb68218	-0.3564613
168	0x3df6da2c	0.12053332
169	0x3ded1f23	0.115782045
170	0x3e3bf282	0.18354228
171	0xbdba04d3	-0.090829514
172	0xbb7816de	-0.0037855427
173	0xbe362d85	-0.17790802
174	0x3d6ecd35	0.05830117
175	0x3dc5f980	0.09666729
176	0xbc9df8bf	-0.01928365
177	0x3d822824	0.063553125
178	0xbd055590	-0.032552302
179	0xbe164932	-0.1467636
180	0x3e39417d	0.18091388
181	0xbd8c40ea	-0.06848319
182	0x3e36211e	0.1778607
183	0xbdcbf206	-0.09958272
184	0x3ce34912	0.027744804
185	0xbd0aa27b	-0.03384636
186	0x3dba8587	0.091074996
187	0x3e10eab1	0.14152028
188	0xbdbaec0e	-0.09127055
189	0x3d8b5470	0.068032146
190	0xbe26cffc	-0.16290277
191	0x3ddebbfd	0.108757
192	0xbdc8cce1	-0.098047026
193	0xbd87293f	-0.06599664
194	0xbe327441	-0.1742716
195	0xbe239569	-0.15974964
196	0x3e3d5891	0.18490817
197	0xbd9a167b	-0.07523819
198	0xbdaf39d7	-0.08555954
199	0xbbc5d1f9	-0.0060369936
200	0xbe3d66a9	-0.18496193
201	0x3c12ed91	0.008967773
202	0x3d75eab8	0.0600383
203	0xbdea41e8	-0.11438352
204	0x3e2a4148	0.16626465
205	0x3ccded10	0.025137454
206	0x3d0abed0	0.03387338
207	0x3d43c31b	0.04779349
208	0x3e444a19	0.19168891
209	0x3e23fa6a	0.16013494
210	0xbc9e94c0	-0.019358039
211	0xbe24b679	-0.16085233
212	0xbe0afc08	-0.13572705
213	0x3e085ef7	0.13317476
214	0x3dc665aa	0.0968736
215	0xbe87221a	-0.26393205
216	0xbda0305d	-0.078217246
217	0xbe51f130	-0.20502162
218	0xbdb801cc	-0.08984718
219	0xbc878274	-0.016541697
220	0xbdb93760	-0.09043765
221	0xbcbff694	-0.023433007
222	0xbc8231a7	-0.015892817
223	0x3d44d994	0.04805906
224	0x3c54e2c8	0.012993522
225	0xbd6ca0b5	-0.05777045
226	0xbc375edf	-0.011192053
227	0x3e306c85	0.17228897
228	0xbe83a8b6	-0.25714654
229	0x3d892876	0.066971704
230	0x3db6a602	0.08918382
231	0xbc2a2bf9	-0.01038646
232	0x3af5a302	0.0018740597
233	0x3ddb9bcf	0.107230775
234	0x3c7b230a	0.015328178
235	0xbe59bc5b	-0.21263258
236	0x3dda852e	0.10669933
237	0xbe0c7ec4	-0.13720232
238	0xbe541d59	-0.2071432
239	0x3dd1f80f	0.102523915
240	0xbe429add	-0.19004388
241	0xba99b4b7	-0.0011726831
242	0xbe8ffe09	-0.281235
243	0xbe7cfdd0	-0.24706197
244	0x3d817177	0.0632047
245	0x38d8a0a0	0.00010329601
246	0xbd40375d	-0.0469278
247	0xbeb4048e	-0.35159725
248	0xbe63a829	-0.22232117
249	0xbe9574ec	-0.29190767
250	0x3d900dc1	0.07033873
251	0x3dc5abb9	0.09651894
252	0xbdaf2af5	-0.08553115
253	0x3e3a75c5	0.18208988
254	0x3b616a22	0.0034395535
255	0xbe599417	-0.21247898
