src/molpot/pipeline/train/baseline_qdpi_model.pth (torch, 705120 bytes, 9 tensors)

network.0.weight f4 [512, 10]
0	0x8001cf4f	-1.66204e-40
1	0x00041c32	3.77457e-40
2	0x08578b57	6.4863e-34
3	0x000039a2	2.0675e-41
4	0x053218a8	8.3740484e-36
5	0x00009f66	5.7181e-41
6	0x80001799	-8.465e-42
7	0x8028e781	-3.756468e-39
8	0x8000dfe6	-8.032e-41
9	0x00017051	1.32127e-40
10	0xbe8a9b03	-0.2707139
11	0x3e130e37	0.14360891
12	0x3f124507	0.5713658
13	0x3d37d4be	0.04488062
14	0x3e989274	0.29799235
15	0xbe60ae68	-0.2194153
16	0x3c5df27c	0.013546582
17	0xbdbb4ffb	-0.091461144
18	0x3e09049e	0.13380668
19	0x3f3cf6f1	0.738143
20	0x9d2973ca	-2.2426825e-21
21	0xa708ffe5	-1.9012512e-15
22	0x27df1d22	6.192652e-15
23	0x0000eaea	8.4271e-41
24	0x297d7914	5.6282304e-14
25	0xa54b07d7	-1.76101e-16
26	0xa5a7ae2e	-2.908791e-16
27	0x967de8bc	-2.0510615e-25
28	0xa877245f	-1.3719141e-14
29	0x29b20045	7.904835e-14
30	0xbaa324da	-0.0012446896
31	0xbc6343f3	-0.013871181
32	0xb9cc5bec	-0.000389784
33	0x3ae97e33	0.00178141
34	0xbb12b163	-0.0022383563
35	0xbb8ef4fc	-0.0043627005
36	0x3af06612	0.0018340966
37	0xbb111add	-0.0022141256
38	0xbacfed75	-0.0015863614
39	0x3bcbbccc	0.0062175747
40	0x3cff80f2	0.031189416
41	0xbc961ac6	-0.018323313
42	0x3e4d0a7c	0.2002353
43	0xbda1ce00	-0.079006195
44	0x3c3b37a2	0.011426838
45	0xbd38689b	-0.045021635
46	0x3c95ef25	0.01830251
47	0x3d5ddcaa	0.05416552
48	0x3da43dc1	0.08019591
49	0x3e588446	0.21144208
50	0xbcedc32b	-0.029023727
51	0xbe2ba844	-0.16763407
52	0xbf3a40b2	-0.7275497
53	0xbd6cb7a2	-0.057792313
54	0x3e129110	0.1431315
55	0xbc378d7c	-0.011203166
56	0xbd75c8c4	-0.06000592
57	0xbe2c5fb1	-0.16833378
58	0x3cda776c	0.026668273
59	0x3f279e9d	0.654764
60	0xbae2a9fb	-0.001729309
61	0xb8edf214	-0.00011346131
62	0x3793e001	1.7628076e-05
63	0xbc11563c	-0.0088706575
64	0xb9dd20f7	-0.00042176966
65	0xba4fea57	-0.00079313427
66	0xbb5dcf80	-0.0033845603
67	0x38aba044	8.183767e-05
68	0x395d5e7b	0.00021111399
69	0x3b44cabb	0.0030028063
70	0x3c47b571	0.012189255
71	0x3dbcce4e	0.09219037
72	0x3e89319f	0.2679567
73	0xbd0d32be	-0.03447222
74	0xbd74fffa	-0.05981443
75	0xbdf13449	-0.11777551
76	0x3ce5e563	0.028063482
77	0x3d236c77	0.039898362
78	0x3d79594e	0.060876183
79	0x3ead4d75	0.33848158
80	0xbd339c85	-0.04385044
81	0xbfc0fb04	-1.5076604
82	0x3f964374	1.1739335
83	0x3e25f246	0.16205701
84	0x3e7be311	0.24598338
85	0xbe319e7c	-0.17345613
86	0xbd751e99	-0.059843633
87	0x3e0ede8a	0.1395208
88	0x3e3d58d6	0.1849092
89	0x3e963db5	0.29343954
90	0x3b6466a5	0.003485122
91	0x3e5189ad	0.20462675
92	0x3e081e2a	0.13292757
93	0x3d379ffa	0.0448303
94	0xbc8a2d5f	-0.016867338
95	0xbdd50212	-0.104007855
96	0x3cc3f942	0.023922566
97	0xbe836aa0	-0.25667286
98	0x3dcd2617	0.10017031
99	0x3e842226	0.25807303
100	0xbb198435	-0.0023424749
101	0xba32493d	-0.00068010745
102	0xba4c1e7b	-0.00077865244
103	0xb8b3e3cb	-8.577815e-05
104	0x3ab02a09	0.0013440262
105	0xbb3bae0c	-0.0028637676
106	0xbab8467b	-0.0014059091
107	0xbad90cca	-0.0016559598
108	0xba81aa37	-0.0009892647
109	0x3b8d58bc	0.0043135565
110	0xbe675585	-0.22591217
111	0xbf2a9296	-0.6662992
112	0x3f823479	1.0172263
113	0x3eaf608a	0.3425334
114	0x3f217a1d	0.63076955
115	0x3f014f85	0.5051196
116	0xbde0306d	-0.109467365
117	0xbf3a84e3	-0.7285902
118	0xbf314edd	-0.6926096
119	0x3f1fa9f6	0.62368715
120	0xbcf6233a	-0.030046094
121	0x3c3d598c	0.011556994
122	0xbc149836	-0.009069493
123	0x3b5a29d1	0.0033289085
124	0x3be9d816	0.007136355
125	0xbd11e263	-0.03561629
126	0x3d86d6ec	0.06583962
127	0xbd0650f3	-0.032792043
128	0x3c8b480c	0.017002128
129	0xbc91e75d	-0.017810518
130	0x3893a43e	7.040099e-05
131	0xbbe01ed1	-0.006839611
132	0x3a74adbb	0.0009333749
133	0x3b4fdf7d	0.0031718903
134	0xba11ba56	-0.0005559077
135	0x3a98cf57	0.0011658472
136	0x3b73622f	0.003713738
137	0xbb0771a7	-0.0020667107
138	0x3b456e8f	0.0030125713
139	0xba52b895	-0.0008038369
140	0xbcb984b1	-0.02264628
141	0xbe943d99	-0.28953245
142	0x3f154662	0.5831052
143	0xbd28447d	-0.04108094
144	0x3d9a543b	0.07535597
145	0xbe432793	-0.19058065
146	0xbd209b2d	-0.039210487
147	0x3bd6796d	0.006545237
148	0xbd6f580f	-0.05843359
149	0x3e730397	0.23731838
150	0xbd066442	-0.032810457
151	0xbc7e4bfe	-0.015521048
152	0x3c643c0a	0.01393033
153	0x3ac7a2d0	0.0015231017
154	0xbb5d55b6	-0.0033773012
155	0xbce60fd8	-0.028083727
156	0xbca69899	-0.020336436
157	0x3cf88abd	0.030339593
158	0xbd286b51	-0.04111797
159	0x3d782ac0	0.060587645
160	0x12aac97a	1.0778176e-27
161	0xaaebe35f	-4.1902156e-13
162	0x2905454a	2.959203e-14
163	0xafdc752f	-4.010103e-10
164	0x2ff88d02	4.521113e-10
165	0xaf433d4c	-1.7756924e-10
166	0x2f5f0262	2.0282578e-10
167	0xab5ea53e	-7.9099563e-13
168	0x30a43ccf	1.1949853e-09
169	0xb04d59f2	-7.4706386e-10
170	0xbc0ac9d7	-0.008470974
171	0x3c0ae195	0.0084766345
172	0xbce77256	-0.028252762
173	0x3c03789c	0.008024361
174	0x3c99797b	0.018734684
175	0x3c993d0c	0.018705867
176	0xbcd6db6d	-0.026227677
177	0xbd058bbe	-0.03260397
178	0x3c9a3642	0.0188247
179	0x3ca0a09e	0.019607838
180	0xb5e325f7	-1.6923867e-06
181	0x35c7a492	1.4874552e-06
182	0xb4e4cb02	-4.2616017e-07
183	0xb53865ad	-6.86933e-07
184	0xb58e06ed	-1.058184e-06
185	0xb62de16e	-2.5910226e-06
186	0x3504cee5	4.9474903e-07
187	0xb5b4e353	-1.3477205e-06
188	0x364fb7f4	3.0952478e-06
189	0xb6b1d04a	-5.299259e-06
190	0x3d183d0f	0.037167605
191	0x3b007bb3	0.001960498
192	0x3e491759	0.19637813
193	0x3d5d0f73	0.05396981
194	0x3a7add8a	0.0009569755
195	0xbe04af1b	-0.12957422
196	0xbcfdaf11	-0.030967267
197	0xbb9bde06	-0.004756692
198	0x3c95757b	0.018244496
199	0x3ea1b6eb	0.31584868
200	0xa5969438	-2.612129e-16
201	0xb6babbeb	-5.5651085e-06
202	0x335a76e1	5.08652e-08
203	0xb218d39a	-8.895677e-09
204	0x343c100e	1.7514705e-07
205	0xb5734982	-9.063152e-07
206	0x35764495	9.174194e-07
207	0xae164c19	-3.417364e-11
208	0x33ab4ba3	7.976566e-08
209	0xb5d01757	-1.5504e-06
210	0xbe342b83	-0.17594723
211	0xbe6e2251	-0.23255278
212	0xbf0d885c	-0.5528619
213	0x3d1bc844	0.038032785
214	0xbc9a516f	-0.018837659
215	0x3e42242b	0.1895911
216	0x3deec225	0.11658124
217	0xbdd15ed2	-0.10223164
218	0x3dddb00d	0.10824595
219	0x3f22b556	0.63557947
220	0xb8e2f3bc	-0.00010821919
221	0xba17e233	-0.0005793899
222	0x39f7e4b0	0.00047281897
223	0xb8688724	-5.543897e-05
224	0x3a12f75f	0.0005606319
225	0xb6217878	-2.4060992e-06
226	0xba186c73	-0.00058145
227	0xb9d54ff3	-0.00040686093
228	0x3838226f	4.3901087e-05
229	0x3993250c	0.00028065627
230	0xad58df96	-1.23278245e-11
231	0x2524ae30	1.428375e-16
232	0x25e5d84a	3.987173e-16
233	0x9b85662b	-2.206903e-22
234	0x275d32ef	3.0697522e-15
235	0x2ae7db58	4.1186043e-13
236	0xaa2f9e04	-1.5597945e-13
237	0x9d8d29b6	-3.7365517e-21
238	0x2e6d8611	5.4006636e-11
239	0xab135826	-5.234722e-13
240	0x3a295c35	0.00064605783
241	0xbbdab5df	-0.0066745128
242	0x3b9f044c	0.004852807
243	0x391c86b6	0.00014927503
244	0xbb746171	-0.0037289525
245	0xbc33471b	-0.010942246
246	0xbc75a334	-0.014992524
247	0xbccf0814	-0.025272407
248	0x3c91e2c0	0.017808318
249	0x3d3654c7	0.044514444
250	0x39c89c08	0.00038263225
251	0xbb950375	-0.0045475313
252	0x3bcba69d	0.00621493
253	0xbb1c8e0c	-0.0023888377
254	0x3b9999b0	0.0046875104
255	0xbbb38849	-0.005478893

network.0.bias f4 [512]
0	0x9228e619	-5.329507e-28
1	0xbfa1d265	-1.2642332
2	0xb1255f1d	-2.4064726e-09
3	0xbd69c6c3	-0.05707432
4	0x3f1f6765	0.6226714
5	0xbec4ca43	-0.38435563
6	0xbc66f996	-0.014097592
7	0x3f32f57f	0.6990585
8	0xbf797cd2	-0.97456086
9	0x3ef2472f	0.47319934
10	0xbc04b848	-0.008100577
11	0xc0897e89	-4.296696
12	0xbe122061	-0.14270164
13	0xbcef07fa	-0.029178608
14	0x3ec7c55a	0.39017755
15	0xbe5e8642	-0.21730903
16	0xb2516897	-1.2189182e-08
17	0xbdd270bf	-0.10275411
18	0xb721ecb1	-9.651457e-06
19	0x3f2ffc5c	0.68744445
20	0xb7cc4811	-2.4352254e-05
21	0xbf8b87a4	-1.0900769
22	0xbb3df4c7	-0.002898501
23	0xb24710f2	-1.1587177e-08
24	0xbe20a21c	-0.1568684
25	0xbd488b5c	-0.04896103
26	0x3efaef64	0.49010766
27	0xbdb22783	-0.086989425
28	0x3f0d5851	0.55212885
29	0xb9965a34	-0.00028677436
30	0x3f32610b	0.69679326
31	0xbe5b897f	-0.2143917
32	0x3f05ff7b	0.5234296
33	0xbd35d333	-0.04439087
34	0xbd6b727e	-0.057482235
35	0x3f28de95	0.65964633
36	0xbdfa1f39	-0.122129865
37	0x8f22d813	-8.028831e-30
38	0x3f2816a0	0.65659523
39	0xbd69c66f	-0.057074007
40	0xbe68c3f0	-0.22730994
41	0xb981eda8	-0.00024781865
42	0xbe5bea1d	-0.21476026
43	0xbc2cb227	-0.010540522
44	0x3f22dbe5	0.6361678
45	0x3f18c701	0.59678656
46	0xbfe6ccf6	-1.8031299
47	0xbc65acd5	-0.014018257
48	0x3f21cf40	0.63206863
49	0xbdb5e744	-0.08882001
50	0x3f1cdab5	0.6127122
51	0x3f191f77	0.59813637
52	0xbdff99d0	-0.12480509
53	0xbcd2035a	-0.025636364
54	0x3eeda6bf	0.4641628
55	0x3f20bfb6	0.6279253
56	0xb30ecf3c	-3.325043e-08
57	0xbda089c2	-0.07838775
58	0x3f1ce470	0.6128607
59	0xbedf37eb	-0.4359735
60	0x3f0f9d58	0.5609946
61	0x3e325c9b	0.17418139
62	0x3f263c78	0.6493602
63	0xbf8d75a7	-1.105153
64	0xbe478f67	-0.19488297
65	0xbf85d7aa	-1.045644
66	0xbee32e5b	-0.44371304
67	0x3f2772f8	0.65409803
68	0x8f3d4251	-9.3311915e-30
69	0xbe4c3a4e	-0.19944116
70	0xbda5db4d	-0.08098469
71	0xbe0bfb43	-0.13670067
72	0xbd7e2f15	-0.06205662
73	0x3f3337a5	0.7000678
74	0xc0c8f1d9	-6.2795224
75	0x3e5ca209	0.21546187
76	0x3f2e8aa7	0.68180317
77	0x3f1850ff	0.5949859
78	0xb9e343bf	-0.0004334729
79	0x3f2dfbaa	0.67962134
80	0xbe84655f	-0.2585859
81	0x3dc9696c	0.09834561
82	0x3f2dbdf9	0.67868
83	0xbdbcd4fb	-0.0922031
84	0x3ead5f6d	0.33861867
85	0xbf987995	-1.1912104
86	0xb7f2e1ab	-2.8953733e-05
87	0xbf8b92ff	-1.0904235
88	0xb8d556de	-0.00010172812
89	0xbdf4c7f5	-0.11952201
90	0x3f22d8ba	0.6361195
91	0xbf440cfb	-0.76582307
92	0x3f2293fc	0.63507056
93	0xbe3705cd	-0.17873307
94	0x3d52fb1a	0.051509
95	0x3f29e1bd	0.66360074
96	0x3f27c7fc	0.65539527
97	0x3e37ee55	0.1796201
98	0xbd851489	-0.064980574
99	0xc0b49f40	-5.6444397
100	0x3ef21526	0.4728176
101	0x3f1e4919	0.6183029
102	0x3f33fd52	0.7030841
103	0xbe979a6e	-0.29610008
104	0xc059767d	-3.397857
105	0xbdbdbfd0	-0.09265101
106	0x3c352c70	0.011057958
107	0xc0c10f0c	-6.033087
108	0x3f13d8fd	0.5775297
109	0xbd36976b	-0.044577997
110	0xbfa9be07	-1.3261117
111	0x3f2a1ea1	0.66452986
112	0xbf7ae557	-0.98006195
113	0xbcbc9583	-0.023020511
114	0xb609cf0e	-2.0535113e-06
115	0xbdf78d0e	-0.12087451
116	0x3f02c48e	0.5108117
117	0x3f24e5ca	0.6441313
118	0xbf0c203e	-0.547367
119	0xbe8a48e2	-0.2700873
120	0x3f28a856	0.6588186
121	0xbf9ec379	-1.2403404
122	0xbd55f279	-0.052233193
123	0xbd4306f0	-0.047614038
124	0xc072b4f3	-3.7922943
125	0xbf16e245	-0.5893901
126	0x3f1d608f	0.6147546
127	0x3f233445	0.6375163
128	0xbe569df3	-0.2095869
129	0xbdecc21e	-0.115604624
130	0x3f1fb73c	0.6238897
131	0x3f2224af	0.63337225
132	0x3f259c63	0.6469175
133	0xbcfa4069	-0.030548291
134	0x3f2b5377	0.6692423
135	0x3f1cf549	0.61311775
136	0x3e55711e	0.20843932
137	0xbd64e226	-0.055879734
138	0xbe83f719	-0.25774458
139	0xbd90bfdb	-0.070678435
140	0x3f31aab5	0.69401103
141	0xbb03b0da	-0.0020094425
142	0xc0941b72	-4.6283503
143	0xc0a0a687	-5.020328
144	0xbf747d66	-0.9550384
145	0xbd879d6c	-0.06621823
146	0x3f225da3	0.6342413
147	0xbe703078	-0.2345599
148	0x3f1a068b	0.60166234
149	0xbd89ca2c	-0.06728014
150	0xbe04ac7e	-0.12956426
151	0xbcbd40e9	-0.02310224
152	0xbe94afee	-0.29040474
153	0xc0b7ed25	-5.7476983
154	0x3f303c0b	0.6884162
155	0xbe4421e9	-0.1915356
156	0xbdb1138b	-0.08646306
157	0xc02e5a23	-2.7242515
158	0x3f256e42	0.64621365
159	0xbeacfe37	-0.337877
160	0xbd1ee9e5	-0.038797278
161	0x3f26c3d8	0.65142584
162	0x3f2ff0d9	0.6872688
163	0xbdf370a3	-0.11886718
164	0xc029e954	-2.6548662
165	0xafa0de84	-2.9261937e-10
166	0x3f2cdf0b	0.67527837
167	0x3f2eef82	0.6833421
168	0xbc4c8147	-0.012481994
169	0x3f2df43d	0.67950803
170	0xbff86961	-1.9407159
171	0x3e79f183	0.24408536
172	0x3f247c0f	0.642518
173	0x3e8ee961	0.2791243
174	0xbea3ed57	-0.32017013
175	0xbcbba68a	-0.02290656
176	0xbd9628ec	-0.07332024
177	0xbdbc2451	-0.09186614
178	0xbb904d32	-0.0044037336
179	0xbd501266	-0.050798796
180	0xbe7539e9	-0.23947872
181	0xbee087a3	-0.43853483
182	0xbe0d3280	-0.13788795
183	0xbe4b1685	-0.1983281
184	0xbd04f5ed	-0.032461096
185	0x3e808e96	0.25108784
186	0xbe59b080	-0.21258736
187	0x3f29a6c1	0.6627007
188	0xbcbf7c8b	-0.023374816
189	0xbe7144b6	-0.23561367
190	0x3f29a61f	0.66269106
191	0xbd7e0d74	-0.06202455
192	0xbdbbdbc6	-0.09172778
193	0xbd0e84e5	-0.034794707
194	0xbdfbdda2	-0.122981325
195	0xbf5eb75f	-0.8699855
196	0xc01bfeb8	-2.4374218
197	0xb81d0401	-3.7435446e-05
198	0x39418a36	0.00018457402
199	0x3ef55ecf	0.47923896
200	0x3f219775	0.6312173
201	0xbceb3155	-0.028710047
202	0xbf20929d	-0.62723714
203	0x3f3c3235	0.7351411
204	0xbd107056	-0.035263382
205	0x3f2eb461	0.68243986
206	0xbba45f27	-0.005016226
207	0xbfaee404	-1.3663335
208	0xb8541150	-5.0560862e-05
209	0xc00a097b	-2.1568286
210	0xbe4c83df	-0.1997218
211	0xbfeb06db	-1.8361467
212	0x3e9a9caa	0.3019765
213	0xbc065163	-0.008198115
214	0xbba11eba	-0.004916993
215	0xbc35cfda	-0.011096919
216	0xbfd6e1c3	-1.6787647
217	0x3f2b94b0	0.67023754
218	0xbe74c29c	-0.23902363
219	0x3e949a95	0.29024187
220	0xbeaaf376	-0.3338887
221	0xbda8a968	-0.08235437
222	0xbe72e735	-0.23721011
223	0xbf7b2124	-0.98097444
224	0xbec302eb	-0.38088164
225	0xbe930f2e	-0.2872252
226	0x3f128c0f	0.5724496
227	0xbcbdff54	-0.023193039
228	0x3f230f8d	0.63695604
229	0x3f1b87ab	0.6075389
230	0xbce07fc4	-0.027404673
231	0xbfd83f9c	-1.6894412
232	0xbd2f14b7	-0.042744365
233	0x3f1f7ed0	0.62302876
234	0x3f274c51	0.65350825
235	0xbd01da9b	-0.03170262
236	0xbd458974	-0.04822679
237	0xbe572869	-0.21011509
238	0xbf1b49eb	-0.60659665
239	0xbe659ac7	-0.22422324
240	0xbe90e3f9	-0.2829893
241	0x3f1f1156	0.6213583
242	0x3f22494c	0.6339309
243	0xbf362941	-0.711567
244	0x3f2c1283	0.67215747
245	0x3f2abf5d	0.6669825
246	0xbc83e763	-0.016101545
247	0xb998f40f	-0.00029173537
248	0xba0bfe2c	-0.0005340304
249	0xbcecbdd2	-0.028899107
250	0xb4ef2b07	-4.4548526e-07
251	0xbb8a75b2	-0.004225456
252	0x3f2e0165	0.6797088
253	0x3f281e7c	0.65671515
254	0x3f234bee	0.63787735
255	0xbd355992	-0.044274874

network.3.weight f4 [256, 512]
0	0x8001feb0	-1.832e-40
1	0x3df48a27	0.11940413
2	0x8000245b	-1.3042e-41
3	0x3218fa85	8.904526e-09
4	0x3d479c04	0.048732772
5	0xbe0ffa93	-0.1406043
6	0x34f1486e	4.4942448e-07
7	0x3d7c4595	0.061589796
8	0x3e02b708	0.12765133
9	0x3d792eb3	0.06083555
10	0xba17e7b1	-0.00057947176
11	0xbee67d3c	-0.4501742
12	0xb8da6c3d	-0.00010415211
13	0xb62a4c07	-2.5376228e-06
14	0x3d829ab5	0.06377164
15	0xba64ee6a	-0.0008733036
16	0x800480db	-4.13567e-40
17	0x3aab7399	0.0013080715
18	0xb334c982	-4.2092786e-08
19	0x3d578473	0.052616548
20	0x80033c7d	-2.97206e-40
21	0xbe28c9a1	-0.16483165
22	0x38179046	3.613557e-05
23	0x800278f3	-2.2706e-40
24	0x3a03f6b1	0.00050340133
25	0xb9085fe1	-0.00013005688
26	0x3da3a9b1	0.079913504
27	0x1c981508	1.0063953e-21
28	0x3d923686	0.07139306
29	0xb54619cc	-7.379829e-07
30	0x3d78619a	0.060639955
31	0xbb7458ff	-0.003728449
32	0x3d4528a8	0.048134476
33	0xbb115415	-0.002217536
34	0xbaab0b16	-0.0013049569
35	0x3d9e01c5	0.07715181
36	0xbb9230cb	-0.004461383
37	0x00009435	5.3167e-41
38	0x3d4815da	0.048848964
39	0x37aef3e0	2.085598e-05
40	0x3bfc9ba9	0.007708986
41	0x08995c58	9.230062e-34
42	0xbc0c4eba	-0.008563692
43	0x84d9b7ae	-5.1185138e-36
44	0x3d8ebb7a	0.06969352
45	0x3d2c9066	0.042129897
46	0x3de4cc12	0.11171736
47	0xb9bcfad6	-0.00036045042
48	0x3d89ec64	0.06734541
49	0xaf916984	-2.645032e-10
50	0x3da01e66	0.07818298
51	0x3d621ff6	0.05520626
52	0xbbd9365c	-0.0066287946
53	0xb7fcdb87	-3.0142966e-05
54	0x3d68234e	0.056674294
55	0x3d8f0eec	0.06985268
56	0x80022838	-1.98099e-40
57	0x3b19ec87	0.0023486929
58	0x3d95ea33	0.073200606
59	0x3d3182dc	0.043337688
60	0x3d7e5134	0.06208916
61	0x3d8fe8de	0.07026838
62	0x3d8929eb	0.06697448
63	0xbe03bfb8	-0.12866104
64	0xbc0dbe98	-0.008651398
65	0x3d7e9f13	0.062163424
66	0xbe0d81f2	-0.13819101
67	0x3dc2cb7f	0.0951147
68	0x8003a1cc	-3.33548e-40
69	0x3d7a7bf6	0.061153375
70	0x29a2e134	7.233312e-14
71	0x3d696c13	0.056987833
72	0xbac777a9	-0.0015218157
73	0x3d409f88	0.04702714
74	0xbf1ac31a	-0.6045395
75	0x3d9426a9	0.07233936
76	0x3d89965c	0.06718132
77	0x3d0825c2	0.033239134
78	0x8001a826	-1.52156e-40
79	0x3d625299	0.055254553
80	0xb7da3acf	-2.601501e-05
81	0x3dbaff12	0.09130682
82	0x3db2c4a6	0.08728914
83	0xbb942390	-0.004520841
84	0x3dcbf8a2	0.09959532
85	0xbe256cc3	-0.1615477
86	0x0000a68d	5.9747e-41
87	0x3e0d0039	0.13769616
88	0x800168a7	-1.29378e-40
89	0x325be2b5	1.2799025e-08
90	0x3d3981e1	0.045289878
91	0x3dc079c4	0.09398225
92	0x3d961228	0.07327682
93	0xbcf10fe7	-0.029426528
94	0x3cef824b	0.029236933
95	0x3d26f31e	0.0407592
96	0x3d183cd1	0.037167374
97	0x3d966346	0.07343154
98	0xb9aad5a7	-0.0003258411
99	0xbf0e7f83	-0.5566332
100	0x3d985043	0.07437184
101	0x3d844997	0.06459349
102	0x3d52b8e6	0.051445864
103	0xbe090ec2	-0.13384536
104	0xbeb95d6e	-0.36204094
105	0x3aad36c4	0.0013215174
106	0x3d81b774	0.06333819
107	0xbf22bcc6	-0.63569295
108	0x3d5af8d0	0.053459942
109	0xb8ee24f4	-0.000113556074
110	0xbe19496a	-0.14969411
111	0x3dadf733	0.08494415
112	0x3dceafd3	0.100921296
113	0x35809d09	9.582446e-07
114	0x80000939	-3.308e-42
115	0x3d91cad6	0.07118766
116	0x3d548af9	0.051890347
117	0x3d90aec1	0.07064582
118	0xbe233539	-0.15938272
119	0xbc5f983a	-0.0136471335
120	0x3d759514	0.059956625
121	0xbe1ce620	-0.1532216
122	0xb85772ca	-5.13669e-05
123	0x380b8be2	3.327046e-05
124	0xbee761c9	-0.45191792
125	0xbde666e9	-0.11250097
126	0x3d8ad72e	0.067793235
127	0x3d82e482	0.06391241
128	0x38f31409	0.00011590875
129	0x3d810896	0.06300466
130	0x3d75fa31	0.060053054
131	0x3d6ba1c2	0.05752731
132	0x3d782283	0.060579788
133	0x3d5029fa	0.050821282
134	0x3d66193c	0.05617641
135	0x3d82116f	0.063509814
136	0x3e0cdaf6	0.13755402
137	0x3da1dbba	0.07903238
138	0x3d95866f	0.07301032
139	0xbb601f08	-0.0034198184
140	0x3d59301b	0.053024393
141	0xb8db8578	-0.00010467594
142	0xbee5235c	-0.4475354
143	0xbf02e2bf	-0.5112724
144	0xbe165679	-0.14681424
145	0x390c2757	0.00013366096
146	0x3db3773c	0.087629765
147	0x39960d00	0.00028619915
148	0x3d119f9b	0.035552602
149	0xb760402f	-1.3366384e-05
150	0xbd3f5d05	-0.04671957
151	0x3d2876e1	0.041128997
152	0xbb9b8a9e	-0.004746749
153	0xbf19217a	-0.59816706
154	0x3da9d0eb	0.08291801
155	0xba7092eb	-0.0009177166
156	0x3988e3a9	0.0002610956
157	0xbe798c2b	-0.24369876
158	0x3d8372ad	0.06418357
159	0xbca4787c	-0.020076983
160	0xb94d8ff3	-0.00019603949
161	0x3d496185	0.049165267
162	0x3d9a185b	0.07524177
163	0xbab705e3	-0.0013963546
164	0xbe9cdb64	-0.30636132
165	0x80008238	-4.6714e-41
166	0x3d816d61	0.063196905
167	0x3da955c3	0.08268311
168	0x380c4c70	3.344979e-05
169	0x3d99a31d	0.075018145
170	0x3e203547	0.15645324
171	0x3d8d54af	0.06900918
172	0x3d985ee6	0.074399754
173	0x3dd9ce2e	0.10635029
174	0xbd69a67a	-0.05704353
175	0x3d5a8b14	0.05335529
176	0xb8d5ebe9	-0.00010200573
177	0xbbb222de	-0.0054362854
178	0x36dd5b03	6.5969084e-06
179	0xba03afed	-0.00050234684
180	0x3c713be2	0.01472375
181	0xbe061d39	-0.13097085
182	0xbad68fc7	-0.0016369753
183	0xbc98b0c1	-0.01863897
184	0xb910bd05	-0.00013803325
185	0x3d46e145	0.048554678
186	0xba733683	-0.0009277837
187	0x3d4142bb	0.04718278
188	0xba44b0e4	-0.00075031654
189	0xbc2c7523	-0.010525974
190	0x3d64de18	0.055875868
191	0xba011b40	-0.000492502
192	0x3997bc78	0.00028941385
193	0x1a932175	6.085183e-23
194	0x3c696935	0.014246275
195	0x3db49e4e	0.08819257
196	0xbe829183	-0.25501642
197	0x2ae0d21c	3.9936186e-13
198	0x39901016	0.00027477805
199	0x3dc2fc60	0.09520793
200	0x3d225f39	0.039641593
201	0xbb15d600	-0.002286315
202	0x3d7cfe61	0.061766032
203	0x3d83245c	0.064034194
204	0x9680ce2e	-2.0809633e-25
205	0x3d418755	0.047248203
206	0xb9302f8b	-0.00016802379
207	0xbe310ee9	-0.17290844
208	0x8004ab2b	-4.28745e-40
209	0xbe5675a4	-0.20943314
210	0xbb56ea40	-0.0032793432
211	0x3e22b459	0.1588911
212	0x3d8c7dd8	0.0685994
213	0xb78e1658	-1.6938124e-05
214	0x3d9f6d66	0.07784538
215	0xb8c3413a	-9.310474e-05
216	0x3e066fbf	0.13128565
217	0x3da8672b	0.08222803
218	0xbc4515e7	-0.012029148
219	0x3d9ba621	0.07600046
220	0x3ab56992	0.0013840667
221	0xb7f9f925	-2.979913e-05
222	0xbc5ffa1c	-0.013670471
223	0xbe5818cf	-0.21103214
224	0x3c2576b0	0.010099098
225	0xbd30c55f	-0.043156978
226	0x3d50c5e5	0.050969977
227	0xb8449f82	-4.6878595e-05
228	0x3d46e8cb	0.048561852
229	0x3d9ae631	0.07563437
230	0xbab0228a	-0.0013438028
231	0xbe3fb83d	-0.18722625
232	0xba9357ab	-0.0011241337
233	0x3d6e2e63	0.058149707
234	0x3d5b4c05	0.053539295
235	0x339107f9	6.753539e-08
236	0x37ea2164	2.7910522e-05
237	0x3bc284bd	0.005936234
238	0xbdf47d6e	-0.11937986
239	0x38e76672	0.0001103402
240	0xbac9f99e	-0.0015409475
241	0x3d405761	0.04695833
242	0x3d8869c0	0.06660795
243	0xbe1b6f8f	-0.15179275
244	0x3d7689d7	0.060190048
245	0x3d86aa66	0.0657547
246	0xb9c2d793	-0.0003716318
247	0x0002a68a	2.43414e-40
248	0x00035b0c	3.08168e-40
249	0x31507b6e	3.0338145e-09
250	0x0003b165	3.39144e-40
251	0x80601b54	-8.826011e-39
252	0x3dbe6a9e	0.09297679
253	0x3d797f61	0.060912494
254	0x3d435aa8	0.04769388
255	0xb99fb393	-0.00030460636

network.3.bias f4 [256]
0	0x3f49ea1e	0.7887286
1	0x33066ab0	3.1296338e-08
2	0x3f2ee759	0.6832176
3	0xbc14d1b0	-0.0090831965
4	0x3f2a68ac	0.66565967
5	0x3f71fbe6	0.9452499
6	0xb700df19	-7.6813385e-06
7	0xbe011b36	-0.12608036
8	0x3f6af5ba	0.917812
9	0xb83d32c2	-4.5108383e-05
10	0x3f1dde33	0.61667174
11	0xb5cc5d61	-1.5226361e-06
12	0x3f146ace	0.5797547
13	0xb9422c32	-0.00018517746
14	0x35d7dd04	1.6083072e-06
15	0x3687ac52	4.0433742e-06
16	0xb7bc3768	-2.2437147e-05
17	0x3f7a2ece	0.9772767
18	0x3ed9e362	0.42556292
19	0x3f68dd87	0.90963024
20	0xb72dab7c	-1.035153e-05
21	0xb41dc007	-1.4691624e-07
22	0xbdda109e	-0.10647701
23	0x3f523d1a	0.82124484
24	0xb78f5024	-1.7084247e-05
25	0x3f6a19e5	0.9144576
26	0x3f62d747	0.8860974
27	0x32943327	1.7252729e-08
28	0x3f268004	0.65039086
29	0x3f404275	0.75101405
30	0xbcf17cef	-0.029478518
31	0xb4a0b9dc	-2.9937553e-07
32	0x34d80072	4.023346e-07
33	0x3f15b368	0.5847688
34	0x3f6100bc	0.87891746
35	0xb4fc268d	-4.6966707e-07
36	0x3f612832	0.8795196
37	0x3f1ed606	0.62045324
38	0x3f110e50	0.56662464
39	0xb7d846cb	-2.5782172e-05
40	0x3f2123ff	0.6294555
41	0xb5811bf6	-9.619387e-07
42	0xb60e6cfc	-2.1223086e-06
43	0x3f60685a	0.8765923
44	0x3ee342ee	0.44387
45	0xbd30ece4	-0.043194667
46	0x3f6ed3ba	0.9329182
47	0xb450d03f	-1.9447269e-07
48	0xbd416ce5	-0.04722299
49	0x3f703fd4	0.93847394
50	0x3f55c660	0.8350582
51	0xb822f3ce	-3.885087e-05
52	0xbc5ff608	-0.013669498
53	0x3f5de94d	0.86684114
54	0x3f615445	0.8801921
55	0x3f63dd40	0.89009476
56	0xb637a5dc	-2.7365668e-06
57	0x3f53a6a0	0.82676125
58	0xbc60e8f9	-0.01372742
59	0x3f4ae022	0.7924825
60	0xbb017e5e	-0.0019759159
61	0x3f3da7a6	0.74083936
62	0xb825160c	-3.93596e-05
63	0x3f6aad72	0.91670907
64	0xb547a8c1	-7.4378846e-07
65	0x3f44a69e	0.7681674
66	0x3f552474	0.8325875
67	0x3f67a05e	0.90479076
68	0xb5239720	-6.094215e-07
69	0xb4e5f687	-4.2833946e-07
70	0x3f36f3be	0.7146567
71	0x3f159220	0.58426094
72	0x3f5e2495	0.8677457
73	0x3f5b4422	0.8565084
74	0xb5c3d2e6	-1.4590012e-06
75	0x3f5e6db8	0.8688617
76	0xb6b4858e	-5.379966e-06
77	0xb6a02185	-4.7722738e-06
78	0xba44f07d	-0.0007512642
79	0x36a63500	4.9533555e-06
80	0x3f72baf3	0.9481651
81	0x3f763df8	0.96188307
82	0x3f565e77	0.8373789
83	0xbda121f0	-0.07867801
84	0xbce34f44	-0.027747758
85	0x3b1a9627	0.0023588033
86	0xba0db76a	-0.0005406054
87	0x3f5ef0b8	0.8708606
88	0x3f4bd094	0.7961514
89	0xb4c01b99	-3.5782867e-07
90	0x3f7ae202	0.9800111
91	0x3f52d796	0.8236021
92	0xb7b05c06	-2.1023687e-05
93	0x3f52cb3d	0.82341367
94	0x3f1fd210	0.62429905
95	0x3f309266	0.68973386
96	0xbca55335	-0.020181278
97	0xb3eeb8dd	-1.1116365e-07
98	0xb664b369	-3.4079078e-06
99	0x3f7e4cc2	0.99335873
100	0xb50803ed	-5.066966e-07
101	0x3f6e2a81	0.93033606
102	0x3f85146f	1.0396861
103	0xb6cd5646	-6.1195196e-06
104	0x3f38132f	0.7190427
105	0x3f4f43ce	0.80962837
106	0xb6c74df4	-5.939737e-06
107	0xbc470caa	-0.012149015
108	0x3f13756f	0.57601064
109	0x3f19bb74	0.60051656
110	0xb71a4887	-9.196002e-06
111	0xb63a7159	-2.7782137e-06
112	0xb8358f30	-4.3287117e-05
113	0x3f57d819	0.84314114
114	0x3f668b5b	0.9005639
115	0x3f6535cc	0.8953521
116	0x3f40de95	0.75339633
117	0xb78ae27c	-1.6556347e-05
118	0xbbc6a322	-0.0060619274
119	0x3f0c523a	0.5481297
120	0x3f6113f8	0.87921095
121	0x3f5b1a3a	0.85586894
122	0xb5c9b863	-1.5029331e-06
123	0xb914434d	-0.00014139451
124	0x3f51674c	0.81798244
125	0xb8cf3e4b	-9.882132e-05
126	0x3f5c579c	0.8607118
127	0x3f1eef5b	0.6208398
128	0xb959672a	-0.00020733164
129	0x3f616f2e	0.8806027
130	0x3f53316a	0.82497275
131	0xb9470eb3	-0.00018983595
132	0xbca85f21	-0.020553173
133	0x3f4588de	0.7716197
134	0x3f5ba6a6	0.8580116
135	0xb3207d44	-3.736683e-08
136	0x3ae44904	0.001741678
137	0x3f491543	0.7854807
138	0xb6cbf216	-6.078054e-06
139	0x3f6307a3	0.8868353
140	0xb59aef58	-1.1543552e-06
141	0x3f5e5a11	0.8685618
142	0xb5bcba39	-1.406129e-06
143	0x3f67c1e0	0.90530205
144	0x3496c3ee	2.8082235e-07
145	0x3f150ecd	0.5822571
146	0x3f5542a7	0.8330483
147	0x3f77026c	0.9648807
148	0x3f402e8e	0.75071037
149	0x3f5f78d1	0.87293726
150	0x3f2becfa	0.6715847
151	0xba947e6f	-0.0011329184
152	0x3f85f5f7	1.0465688
153	0xb7c984e7	-2.4022955e-05
154	0xba3ac941	-0.0007125326
155	0x320c103d	8.152765e-09
156	0xb707f239	-8.103024e-06
157	0x3f2dc931	0.6788512
158	0xbdee049f	-0.11621975
159	0xb6187e00	-2.2723107e-06
160	0xba00b19e	-0.00049092795
161	0xb6271163	-2.489506e-06
162	0x3f097967	0.5370087
163	0x3d8246f4	0.063611895
164	0xbb972d68	-0.004613567
165	0x3f7acef0	0.9797201
166	0x3f02fd0a	0.51167357
167	0xb6f7fc14	-7.3905194e-06
168	0xb9b07306	-0.00033655035
169	0xb76024fa	-1.336005e-05
170	0x3f589335	0.8459962
171	0x3f708324	0.93950105
172	0xba784018	-0.000947
173	0xb82e2e5e	-4.1528016e-05
174	0xb9be776e	-0.00036328606
175	0xb6fe27bb	-7.574415e-06
176	0x3f7b358b	0.98128575
177	0x3f0c422e	0.5478848
178	0xb909acf0	-0.00013129762
179	0xb85c7e1d	-5.256954e-05
180	0xb5226307	-6.0493807e-07
181	0xba8cbb3f	-0.0010736956
182	0xbb2a8c10	-0.0026023425
183	0xbe0b6d9e	-0.13616034
184	0x3f209568	0.62727976
185	0xbcd0f31d	-0.02550655
186	0xbaeed37e	-0.0018220989
187	0x3f6dc022	0.92871296
188	0xb760a1c1	-1.3389102e-05
189	0x3f575467	0.8411316
190	0xb7fd26d0	-3.0178024e-05
191	0x3c314a09	0.010820874
192	0xb716ae89	-8.981334e-06
193	0x3f6ef942	0.9334909
194	0xb421470b	-1.5020139e-07
195	0xb4a5f18a	-3.0909388e-07
196	0xb62b4b67	-2.5524876e-06
197	0xb48f949f	-2.6743962e-07
198	0x3f5aed68	0.85518503
199	0xbaf9db82	-0.0019062611
200	0x3f1b46bc	0.6065481
201	0xb3ace610	-8.051222e-08
202	0xb5f8a5b9	-1.8525672e-06
203	0x3f5c8b9c	0.86150527
204	0xb73dd3c8	-1.1314587e-05
205	0x3f54d648	0.8313947
206	0xb6dceb14	-6.5838776e-06
207	0xbdd3e4e6	-0.10346393
208	0x3848016c	4.768504e-05
209	0xb87daf2d	-6.0483046e-05
210	0x3f1cde8e	0.6127709
211	0x3f1aa6de	0.6041087
212	0x3f33142d	0.6995266
213	0x3f4797c1	0.77965933
214	0xb64a5648	-3.0150568e-06
215	0x3f4aa3f6	0.79156435
216	0xb772c3ce	-1.4469913e-05
217	0x3f447e49	0.76755196
218	0x3f6b556f	0.91927236
219	0x3f4344a7	0.7627663
220	0xb5e52350	-1.7072107e-06
221	0xb70110b2	-7.692886e-06
222	0x3a2ddac2	0.0006632024
223	0x3f50eb36	0.81608903
224	0xb55f03e5	-8.307964e-07
225	0xb31ba6e1	-3.6240525e-08
226	0xb3f0e304	-1.1217165e-07
227	0xb99a0222	-0.00029374758
228	0xb69c2b75	-4.6542214e-06
229	0x3f5c6f16	0.86107004
230	0x3f75dc87	0.96039623
231	0xba9db96e	-0.0012033412
232	0xb8860273	-6.390074e-05
233	0xb5c6e032	-1.4817399e-06
234	0x3f3ccfa1	0.73754317
235	0xbb6cd2b3	-0.0036136329
236	0xb41fb18d	-1.4872622e-07
237	0xb597cc0a	-1.130976e-06
238	0x3f55f092	0.83570206
239	0xbc6b0977	-0.014345518
240	0xbcc1c8a6	-0.023655247
241	0x3f63fc34	0.89056706
242	0x3f229c5f	0.63519853
243	0xbbb3690e	-0.00547517
244	0x3f68bc35	0.9091218
245	0xb90ffdae	-0.00013732046
246	0x3f309879	0.68982655
247	0x3f2764b3	0.6538803
248	0xb61638c9	-2.2384795e-06
249	0xb870cdfe	-5.7412304e-05
250	0xba73781e	-0.0009287613
251	0xb43c2140	-1.752096e-07
252	0x3f77c3ec	0.9678333
253	0x3f7f98f8	0.99842787
254	0x3f5e6616	0.8687452
255	0x3f1cdcf9	0.6127468

network.6.weight f4 [128, 256]
0	0xb8cbecef	-9.7239266e-05
1	0x3323cdaa	3.8138445e-08
2	0xb98f69d7	-0.00027353942
3	0x21b9592e	1.2559693e-18
4	0x38ae6d79	8.3173574e-05
5	0xb883c8f8	-6.284e-05
6	0x34bfffd8	3.5762673e-07
7	0x229d7ebb	4.2689116e-18
8	0xb8a52786	-7.875175e-05
9	0xa85d35f0	-1.227966e-14
10	0xb9c1eca5	-0.00036988143
11	0x336961a0	5.433833e-08
12	0xb892ec29	-7.005811e-05
13	0xa9cb099c	-9.016678e-14
14	0x36d6fe34	6.40729e-06
15	0x39ec41d1	0.00045062465
16	0xb45a1187	-2.0309209e-07
17	0x38dc398d	0.00010501137
18	0xb9f14038	-0.0004601495
19	0x381fd1d6	3.810398e-05
20	0xb38197a0	-6.034611e-08
21	0xb513b575	-5.502582e-07
22	0x376f1970	1.4251433e-05
23	0xb9d8e133	-0.00041366517
24	0xb8223298	-3.867093e-05
25	0x375d38bc	1.3185836e-05
26	0xb8630b35	-5.4131455e-05
27	0x9cfdbd73	-1.6791107e-21
28	0xba0750bc	-0.00051618717
29	0x36a18d94	4.8146558e-06
30	0xb09b4501	-1.1297346e-09
31	0x32939dd8	1.7184831e-08
32	0x38d3474e	0.000100745456
33	0xba1a1e36	-0.00058791356
34	0xb91c131a	-0.00014884435
35	0x93582f56	-2.7286371e-27
36	0x38d09db3	9.947587e-05
37	0xb922f08f	-0.00015539139
38	0xb8117979	-3.4683824e-05
39	0x346e2828	2.2180086e-07
40	0xb95aac67	-0.00020854325
41	0x35dad8a8	1.6305321e-06
42	0x381f0759	3.7915397e-05
43	0xb974e3f0	-0.00023354567
44	0xb990d234	-0.00027622434
45	0xb59806ac	-1.1326824e-06
46	0x37c070ac	2.294065e-05
47	0xb3266d01	-3.8749025e-08
48	0x37cd3bb1	2.44657e-05
49	0xb92554a0	-0.00015767151
50	0xb9969720	-0.00028722826
51	0x24880052	5.898114e-17
52	0xaca07e0d	-4.561468e-12
53	0xb82fafb8	-4.1886902e-05
54	0xb74e626c	-1.2301472e-05
55	0x390187fc	0.00012353057
56	0x2eea05a0	1.0642087e-10
57	0xb9bdac59	-0.00036177298
58	0xb58e07cc	-1.0582094e-06
59	0xb9a973bf	-0.0003232043
60	0xb8e51bea	-0.0001092477
61	0x3897b76a	7.2344046e-05
62	0xa774f4a0	-3.3994414e-15
63	0xb90ee285	-0.0001362656
64	0xb19cb7ac	-4.5610786e-09
65	0xb97c2b72	-0.00024048777
66	0xb914bced	-0.0001418476
67	0x3768a584	1.3866815e-05
68	0xb01b2573	-5.644189e-10
69	0xb2919d74	-1.6951823e-08
70	0xb86a8579	-5.5914254e-05
71	0xb982ece2	-0.00024972024
72	0xb94d8e11	-0.00019603247
73	0x3850711e	4.9696413e-05
74	0x35934b21	1.0974219e-06
75	0xb8e32f2b	-0.00010832989
76	0x2fd31793	3.8397427e-10
77	0xb3e0b0ac	-1.0462949e-07
78	0xb6c317e2	-5.814233e-06
79	0xb687949a	-4.040613e-06
80	0xb8121377	-3.482724e-05
81	0x370ff6d4	8.580933e-06
82	0xb961ff32	-0.0002155274
83	0xb8723e5e	-5.775538e-05
84	0x3a84c014	0.0010128045
85	0xb214da00	-8.664301e-09
86	0x26556f3b	7.4049965e-16
87	0xb918a514	-0.00014557346
88	0xb8afd3f6	-8.384131e-05
89	0x37331ef7	1.0676441e-05
90	0xb8a1fc8a	-7.724117e-05
91	0x3850604d	4.968075e-05
92	0xa9283d08	-3.735643e-14
93	0xb85af89d	-5.220679e-05
94	0xba38df75	-0.00070523407
95	0xb8a4299a	-7.827878e-05
96	0xb33378aa	-4.178643e-08
97	0xacdad084	-6.2190825e-12
98	0x3359fb1b	5.075263e-08
99	0xb6146388	-2.2111653e-06
100	0xb5da1fcb	-1.6251519e-06
101	0xb8da55c2	-0.00010411024
102	0xb84ee09e	-4.932342e-05
103	0xb0673b74	-8.41218e-10
104	0xb8c80c08	-9.538984e-05
105	0xb839041e	-4.411127e-05
106	0xb00bc7e1	-5.085195e-10
107	0x380ee350	3.406714e-05
108	0x386a0f7c	5.580437e-05
109	0x381a62aa	3.680835e-05
110	0xb37d3024	-5.8949936e-08
111	0x2a16f44a	1.3407431e-13
112	0x377d4ea9	1.509829e-05
113	0x38cb44a8	9.6925825e-05
114	0x38d58cfe	0.00010182893
115	0xb8792159	-5.9397284e-05
116	0xb907ded9	-0.0001295762
117	0x31a3e13f	4.769532e-09
118	0xab746a22	-8.68335e-13
119	0xb9cf13f3	-0.0003949698
120	0xb95f6052	-0.0002130282
121	0xb8e1b0ce	-0.000107617685
122	0x2c27c84a	2.384331e-12
123	0xb42db377	-1.617717e-07
124	0x360fc980	2.142595e-06
125	0xae566c7a	-4.8754313e-11
126	0xb91d0950	-0.00014976156
127	0xb907bfa3	-0.00012945994
128	0xaaa033fa	-2.8457775e-13
129	0xb8f6b8ae	-0.000117645934
130	0xb9512313	-0.0001994486
131	0x38028456	3.1117663e-05
132	0x35d94014	1.6186409e-06
133	0x3821fe06	3.862197e-05
134	0xb883a43d	-6.2771585e-05
135	0x30d3feb0	1.5424657e-09
136	0x387b0ec1	5.9856804e-05
137	0x36e04900	6.6842185e-06
138	0xb40672df	-1.2521512e-07
139	0xb976f02d	-0.0002354986
140	0x3290a053	1.6836713e-08
141	0x39022d05	0.00012414537
142	0x318dd6e4	4.1280703e-09
143	0xb964ef2e	-0.00021832876
144	0xb6c85e3e	-5.9714357e-06
145	0xb90e16b5	-0.00013550634
146	0xb9266288	-0.000158677
147	0x38065bea	3.203369e-05
148	0x38be9e6a	9.089413e-05
149	0x3633a170	2.6767048e-06
150	0x3a01325d	0.0004928464
151	0x233b8958	1.0166374e-17
152	0xb892f602	-7.007645e-05
153	0xb1f67d4d	-7.1737873e-09
154	0xb6c03732	-5.7284715e-06
155	0x33c5e2aa	9.214757e-08
156	0x2c29329d	2.404444e-12
157	0xb90b6780	-0.0001329463
158	0xb8ca4ecf	-9.64679e-05
159	0xb39bd6d3	-7.256826e-08
160	0x107d2bc4	4.9929168e-29
161	0x375bcdd0	1.3101337e-05
162	0xb997fb88	-0.0002898837
163	0x3741b174	1.1545013e-05
164	0xae15b232	-3.4036947e-11
165	0xb8c11d74	-9.208443e-05
166	0xb9a2db1b	-0.00031062294
167	0x3949b300	0.00019235536
168	0x362964a4	2.5241543e-06
169	0xb15deeda	-3.2295504e-09
170	0xb859808a	-5.1856543e-05
171	0x355b1820	8.1618964e-07
172	0xb4653d28	-2.1349535e-07
173	0x37680c9c	1.3831213e-05
174	0xa4268770	-3.6110232e-17
175	0xb2e626bc	-2.6793138e-08
176	0xb7a37948	-1.948759e-05
177	0xb9c89627	-0.00038258845
178	0x3172c3d0	3.5326941e-09
179	0x29a3aca4	7.2686025e-14
180	0x352612d8	6.186724e-07
181	0x36a9eaac	5.063912e-06
182	0xb94026c0	-0.00018324982
183	0x35d7b197	1.6070434e-06
184	0xb9a121db	-0.00030733537
185	0x37cfdb26	2.4778372e-05
186	0x34864fed	2.50176e-07
187	0xb889efc4	-6.577329e-05
188	0xb7c3ddc4	-2.334908e-05
189	0xb96fafd5	-0.00022858319
190	0xa923e722	-3.6393746e-14
191	0x379ed239	1.893296e-05
192	0x333d1127	4.402059e-08
193	0xb95e8fd0	-0.00021225144
194	0xb69017bc	-4.2942975e-06
195	0xb6a34650	-4.865964e-06
196	0x2d6af1f6	1.3355086e-11
197	0xb322aec0	-3.78775e-08
198	0xb9558a21	-0.0002036472
199	0x35be1161	1.4161161e-06
200	0xb90b5418	-0.000132874
201	0x3113bed0	2.149978e-09
202	0xb730e018	-1.0542593e-05
203	0xb8abb81f	-8.1882106e-05
204	0xb5acfa9e	-1.2887938e-06
205	0xb853d0ed	-5.0500897e-05
206	0xb382df6d	-6.094238e-08
207	0x2df949d2	2.8340805e-11
208	0xb6c0c986	-5.7455063e-06
209	0xa09ce8b8	-2.6581428e-19
210	0xb77939ce	-1.4855015e-05
211	0xb9e7ba0f	-0.00044198378
212	0xb9314057	-0.00016904004
213	0xb8e835d4	-0.00011072648
214	0x33d1beb0	9.767007e-08
215	0xb880ddfc	-6.1448634e-05
216	0x31a4e48a	4.79901e-09
217	0xb80e15ca	-3.387573e-05
218	0xb9688a75	-0.00022176823
219	0xb95a4f96	-0.00020819748
220	0xb7914857	-1.7319033e-05
221	0x36970c6e	4.5015977e-06
222	0xa59deac3	-2.739424e-16
223	0x392c9bf8	0.00016461301
224	0x3349bda4	4.6971437e-08
225	0x16017880	1.045856e-25
226	0xadc8c0d0	-2.2822993e-11
227	0x298604fb	5.9516594e-14
228	0xb6baa348	-5.5622404e-06
229	0x37303cce	1.0504575e-05
230	0xb9225aca	-0.00015483345
231	0x24a39a84	7.095174e-17
232	0x300471b5	4.818291e-10
233	0xb4796128	-2.3225277e-07
234	0xb846e438	-4.7419424e-05
235	0xa7a14a6e	-4.4767174e-15
236	0x368f9b44	4.2798074e-06
237	0xa0cf05e0	-3.5071052e-19
238	0xb90d7b79	-0.00013492805
239	0xa2d6ccfc	-5.822185e-18
240	0x39d865f8	0.00041274703
241	0xb9657323	-0.00021882034
242	0xba88c1c7	-0.0010433727
243	0xb63fdfa7	-2.85914e-06
244	0x38b838b3	8.784365e-05
245	0x202b0d00	1.4488565e-19
246	0xb9943604	-0.00028269005
247	0xb988c20b	-0.00026084515
248	0x391c738a	0.00014920361
249	0x358ad9e0	1.0345211e-06
250	0x33c78110	9.290136e-08
251	0x1fb3f3b8	7.621265e-20
252	0xb8492e53	-4.7965277e-05
253	0x39a5c8a6	0.00031620747
254	0xb8f1f326	-0.000115370654
255	0xb91393ca	-0.00014074068

network.6.bias f4 [128]
0	0xb844f2b6	-4.6956084e-05
1	0x3dad0b75	0.08449451
2	0xb5571bb6	-8.0134066e-07
3	0x3da7a05c	0.08184883
4	0x3d8e7045	0.069550075
5	0x3aa48041	0.001255043
6	0x3dafa9d2	0.085773125
7	0x3db6f06a	0.08932574
8	0x39d54de0	0.00040684547
9	0x3db10a49	0.0864454
10	0x39ec09dc	0.00045020774
11	0x3a3a0acb	0.0007096945
12	0xba402eca	-0.0007331191
13	0x3dbacaf1	0.09120739
14	0x355c45e0	8.205807e-07
15	0x3db84ff7	0.08999627
16	0x3db23088	0.08700663
17	0xbc012e0b	-0.007884513
18	0x3dae1cbe	0.08501576
19	0x3db3d5dc	0.08781025
20	0x3db6090d	0.08888445
21	0xb83b2a12	-4.4623455e-05
22	0x36890cbd	4.084401e-06
23	0x3db4d2e5	0.088292874
24	0x3db87a9a	0.090077594
25	0xbb9f73c6	-0.004866096
26	0x3dbb37d9	0.091415115
27	0x3da75b41	0.08171702
28	0x3db117c6	0.086471125
29	0x3dab905e	0.08377145
30	0xb3db689c	-1.02170105e-07
31	0x3dad5566	0.08463554
32	0x3db8cbaa	0.09023221
33	0x338db92a	6.599505e-08
34	0x3dad4887	0.08461099
35	0x3dac5ef8	0.08416551
36	0x3db777e6	0.08958416
37	0x3d97add9	0.07406206
38	0x35992b9c	1.141208e-06
39	0x3db4ff27	0.08837729
40	0x3db3efd7	0.0878598
41	0xb565e940	-8.564857e-07
42	0xbbcae108	-0.0061913766
43	0xbb9132e0	-0.0044311136
44	0x3da8e894	0.08247486
45	0xbb20b4cb	-0.0024521824
46	0x3dab058c	0.08350667
47	0x3daf25fa	0.08552165
48	0x3b1b8f7a	0.0023736642
49	0x3db2f533	0.08738174
50	0xb488db66	-2.5491607e-07
51	0x3db2fd94	0.087397724
52	0x3db4a53f	0.08820581
53	0x363cf0b8	2.81543e-06
54	0xbb8e209a	-0.0043373825
55	0x3982c7ee	0.0002494449
56	0xb4d0fe64	-3.8928113e-07
57	0x37107af0	8.6116925e-06
58	0xbcae5134	-0.021278955
59	0xb495998c	-2.7865133e-07
60	0x3db8e396	0.090277836
61	0x38ea86ca	0.00011183096
62	0x3db43e29	0.088009186
63	0x3dbcb794	0.09214702
64	0x3dab3aaa	0.08360799
65	0x370b7844	8.313047e-06
66	0xb7ee703e	-2.8424078e-05
67	0x3db9f058	0.09079045
68	0x3db844b6	0.089974806
69	0xb83b3b10	-4.463928e-05
70	0x3da76a11	0.081745274
71	0x3db19aec	0.08672127
72	0x33710b40	5.6122417e-08
73	0x3dac0965	0.08400229
74	0x3440b0b1	1.7945673e-07
75	0x3db8fecc	0.09032974
76	0x3a962676	0.0011455554
77	0x3dade13b	0.08490225
78	0x3d9639c2	0.07335235
79	0x3da649a5	0.08119515
80	0xb58a10b6	-1.0286665e-06
81	0x39397697	0.00017687153
82	0x32fc4a06	2.9370323e-08
83	0x3db0f921	0.086412676
84	0x3dab553c	0.083658665
85	0x3db97943	0.09056332
86	0x3668071f	3.457484e-06
87	0xb7e6a759	-2.7496064e-05
88	0xb8c6ea18	-9.484979e-05
89	0x3db12e43	0.08651402
90	0x3b6bc364	0.0035974616
91	0x3db81575	0.089884676
92	0x3db29da3	0.08721473
93	0x3db2d702	0.08732416
94	0x33eb5cbc	1.09599085e-07
95	0x3dbac905	0.09120373
96	0x34fabba9	4.670267e-07
97	0x389be880	7.4342825e-05
98	0x3ab9aebc	0.0014166455
99	0xb7e5b531	-2.7383301e-05
100	0x3da09912	0.07841696
101	0x38d62bab	0.00010212449
102	0x3d9534cf	0.07285463
103	0x3d957b16	0.072988674
104	0x3db497bc	0.088180035
105	0xb95ae152	-0.00020874038
106	0x3da75108	0.08169752
107	0x3db1d817	0.08683794
108	0x330550d6	3.1039995e-08
109	0x3858f7ec	5.172931e-05
110	0x3db30e6a	0.08742984
111	0x3db560ba	0.0885634
112	0x3daf8758	0.08570737
113	0xb9d73786	-0.00041049364
114	0x3a4af848	0.0007742685
115	0x33143a61	3.451203e-08
116	0x3db9fdb1	0.09081591
117	0xbb120fac	-0.0022287173
118	0x3db15c0b	0.08660134
119	0xbb3668c6	-0.0027833446
120	0x3da6f184	0.08151534
121	0x3db16541	0.08661891
122	0x3daaa792	0.08332743
123	0x3db6b00b	0.08920296
124	0x394aa4d5	0.00019325626
125	0xb7c39ebc	-2.3319728e-05
126	0x3db1e3ca	0.086860254
127	0xb2c96d8e	-2.34493e-08

network.8.weight f4 [1, 128]
0	0x3cb6f5c0	0.02233398
1	0xbfec74e5	-1.8473173
2	0x39848bf2	0.0002528127
3	0xbfe549d6	-1.7913158
4	0xbfc3e02a	-1.5302784
5	0xbb0e08d8	-0.0021672752
6	0xbfefeb40	-1.8743668
7	0xbff98858	-1.9494734
8	0x3d6d3a7b	0.0579171
9	0xbff1bd21	-1.8885843
10	0xba570d6e	-0.00082036003
11	0xbc6cec7a	-0.014460677
12	0x3c53410b	0.012893925
13	0xbffe9f0f	-1.9892291
14	0xbcb55609	-0.022135751
15	0xbffb5896	-1.9636409
16	0xbff3420a	-1.9004529
17	0xbd65e712	-0.05612857
18	0xbfedde3e	-1.8583448
19	0xbff56ebf	-1.9174422
20	0xbff856c3	-1.9401478
21	0x38fb6746	0.00011987849
22	0x3799a096	1.83138e-05
23	0xbff6bd12	-1.927645
24	0xbffb90e3	-1.9653591
25	0xbc7e29d9	-0.015512907
26	0xbfff2ecb	-1.9936155
27	0xbfe4ee62	-1.7885249
28	0xbff1cef3	-1.8891281
29	0xbfea7f79	-1.8320152
30	0x35b525a2	1.3496503e-06
31	0xbfecd6a9	-1.8503009
32	0xbffbfbf6	-1.9686267
33	0xb425dfb4	-1.5448205e-07
34	0xbfecc5ab	-1.8497823
35	0xbfeb90cc	-1.8403563
36	0xbffa3b46	-1.9549339
37	0xbfd02747	-1.6261986
38	0xb72ab962	-1.0175952e-05
39	0xbff6f77f	-1.929428
40	0xbff59119	-1.9184905
41	0xba61b8f9	-0.0008610632
42	0xbce1e005	-0.027572641
43	0xbd0a9177	-0.033830132
44	0xbfe6fc41	-1.8045732
45	0xbd7a8821	-0.06116498
46	0xbfe9c7ec	-1.8264136
47	0xbfef3cf4	-1.8690476
48	0xbd19e47e	-0.037571423
49	0xbff445e8	-1.9083834
50	0xb4855506	-2.4835043e-07
51	0xbff450f3	-1.9087204
52	0xbff680bc	-1.9258037
53	0x377ebf7e	1.5184165e-05
54	0xbd491340	-0.049090624
55	0xbcf661b8	-0.030075893
56	0x377b357b	1.4973218e-05
57	0x3b7afd3e	0.0038297917
58	0xbda42f8d	-0.08016882
59	0xb52a2242	-6.3379787e-07
60	0xbffc1b8a	-1.9695904
61	0xbc032069	-0.008003333
62	0xbff5f882	-1.9216464
63	0xc00094a4	-2.0090723
64	0xbfea0e2d	-1.8285576
65	0xb97b87ab	-0.00023987766
66	0x39888e1a	0.00026045815
67	0xbffd7e6c	-1.9804206
68	0xbffb49c1	-1.9631883
69	0xbaea5d1c	-0.0017880532
70	0xbfe50206	-1.7891243
71	0xbff27c56	-1.8944194
72	0xb4908d2f	-2.6924815e-07
73	0xbfeb1fa0	-1.8369026
74	0xb52f458c	-6.5293784e-07
75	0xbffc3f76	-1.9706867
76	0xbc892a87	-0.016743911
77	0xbfed8f8a	-1.855943
78	0xbfce3945	-1.6111227
79	0xbfe3843a	-1.7774727
80	0xb7d9b481	-2.595247e-05
81	0x3a7da327	0.00096754957
82	0xb56fc092	-8.9314665e-07
83	0xbff1a67a	-1.887893
84	0xbfea3158	-1.8296309
85	0xbffce12b	-1.9756216
86	0x378ddbf1	1.6910928e-05
87	0x39a38f20	0.0003119642
88	0xbaea9ae4	-0.0017898944
89	0xbff1ecab	-1.890035
90	0x3c4221a6	0.011848843
91	0xbffb0b58	-1.9612837
92	0xbff3d22d	-1.9048516
93	0xbff41e00	-1.9071655
94	0x36eb725c	7.016859e-06
95	0xbffe9c8c	-1.9891524
96	0x37956f5b	1.7814038e-05
97	0x3be29d9f	0.0069157626
98	0x3d5d5837	0.054039206
99	0xb7f17d3d	-2.8787757e-05
100	0xbfdbfb26	-1.718602
101	0xba4fe891	-0.00079310784
102	0xbfccdecc	-1.6005492
103	0xbfcd3c26	-1.6033981
104	0xbff66ee1	-1.9252588
105	0xbb1b8793	-0.0023731932
106	0xbfe4e0db	-1.788112
107	0xbff2cd27	-1.8968858
108	0xb50ef064	-5.3248937e-07
109	0xb99bc3a0	-0.00029709656
110	0xbff46741	-1.909401
111	0xbff77866	-1.9333618
112	0xbfefbdb8	-1.8729773
113	0x3cad6618	0.021166846
114	0xbba56542	-0.0050474713
115	0x33dec0c4	1.03727444e-07
116	0xbffd9004	-1.9809575
117	0x3cbcd9c3	0.023053056
118	0xbff2292b	-1.8918813
119	0x3a5d4bf0	0.00084417965
120	0xbfe46270	-1.7842541
121	0xbff2355c	-1.8922534
122	0xbfe94b9e	-1.8226202
123	0xbff93352	-1.9468787
124	0x3a5c8f00	0.00084136426
125	0xb9c76503	-0.00038031497
126	0xbff2dc9c	-1.8973575
127	0xb46f2b3f	-2.2274342e-07

features_mean f4 [10]
0	0x448f6546	1147.1648
1	0x4095f546	4.6861906
2	0x40736fbe	3.8036952
3	0x3f86a162	1.0518
4	0x4146fcb9	12.4367
5	0x40358b17	2.8366144
6	0x3f84fd2d	1.0389763
7	0x3e30ebfd	0.17277522
8	0x3fd882ba	1.6914895
9	0x42c318c8	97.5484

features_std f4 [10]
0	0x45336d74	2870.8408
1	0x3fbf5888	1.4948893
2	0x3fc604b2	1.5470183
3	0x3f10c234	0.5654633
4	0x40b2fe4e	5.593543
5	0x3f628a78	0.88492537
6	0x3eb50d36	0.35361642
7	0x3ef9ae85	0.4876596
8	0x3eede3ae	0.46462768
9	0x42372b14	45.79207
