src/molpot/pipeline/train/simple_predictor_results.pth (torch, 105462 bytes, 27 tensors)

network.0.weight f4 [64, 15]
-0.20868102 -0.19068715 0.18174303 0.27129498 0.07356418 0.01631318 0.15100987 0.016964663
0.025248872 -0.082903795 0.07639921 0.18828352 -0.07314232 -0.3060443 -0.19718537 0.16943298
-0.020968422 -0.084378295 0.25449413 0.07744047 0.1129986 -0.36579418 0.05362561 0.03536868
-0.015604803 -0.030431265 -0.35987955 0.22022703 0.13047792 -0.2705167 0.111567155 0.29123828
0.295468 0.22158176 0.027757576 0.0675856 0.18698168 0.084422626 0.040921234 0.03162712
-0.25294137 0.11384526 -0.1421076 0.027685754 -0.25822723 -0.35558158 -0.25265163 -0.24923934
0.13690455 0.06728342 -0.147518 0.31111753 0.09427384 0.12342012 0.0006826607 -0.20986344
-0.23977672 0.111358464 -0.019752325 -0.19033013 0.19044957 0.2462417 0.20316912 0.22038503
0.032938045 -0.09375137 -0.0035859072 0.22060253 -0.18422826 -0.05292655 0.021125859 -0.01049209
-0.0067961854 0.038679745 0.2646214 -0.16725248 0.0626005 -0.36624596 -0.57495993 -0.1293268
0.27866548 -0.102005675 -0.0873545 0.07534035 0.014941362 0.108470805 -0.21958557 0.117780186
0.06557596 0.11877215 0.39960626 0.2145755 0.091802895 0.10644568 0.043547146 -0.07303276
0.070419505 -0.10903115 -0.14681059 -0.0050929543 -0.035468798 -0.10155899 0.11295987 -0.08470753
0.25520244 -0.08997401 -0.46340033 0.1865498 0.065894745 0.024625108 0.0688802 -0.12651186
-0.28206056 0.11425228 0.025377609 0.1391816 -0.14550345 0.12409365 0.047834393 -0.07286294
0.18887714 0.35925728 0.13615096 -0.35654765 -0.022509998 -0.06448521 0.11129389 -0.11033265
-0.106643714 0.046916403 0.08513204 -0.21778435 -0.026532743 0.28272334 -0.10960743 0.32787567
0.18761677 0.052816022 -0.10917853 0.24898268 0.17119409 -0.24002904 0.097621866 -0.15704928
-0.048695493 -0.11654973 0.054465488 -0.08631541 -0.0046587503 0.19448262 -0.16111588 -0.2363745
-0.23521586 -0.3085192 -0.24179 0.12297791 0.046506915 -0.15043601 0.07535053 0.02062373
0.13485833 -0.08832746 0.06893583 -0.11688923 -0.0303315 0.3109569 -0.014103936 -0.2309779
0.20181096 0.43217257 0.063180126 -0.07929499 0.23611481 0.116767116 0.04308133 0.037556525
0.1501183 0.08613871 -0.046542384 -0.0031351065 0.120376594 0.30321085 0.27559963 -0.18819162
0.2916195 -0.10261983 -0.11144689 0.20452507 0.14457335 0.032976713 -0.0027720358 -0.20210996
0.1701783 0.0061988994 0.14862934 0.36840627 0.011052573 0.2579385 0.023372527 0.18737812
0.25013563 -0.0035320213 -0.0100488365 -0.018007215 -0.003224106 -0.22533269 -0.19700775 0.1274947
0.103819154 0.18702117 -0.010988155 -0.30335578 -0.29416686 -0.25020674 -0.22559674 -0.11891825
-0.10605026 -0.21065214 0.20798594 -0.04954385 0.17090896 -0.005645379 0.0042724777 -0.016623378
0.10466197 -0.28401318 -0.119154975 0.005878877 0.1633046 -0.009521377 -0.1253437 -0.087469354
-0.06474145 0.1543722 0.013296933 -0.0058123996 -0.0035663047 -0.38983127 -0.19437827 0.099333584
0.12729739 -0.4201863 -0.39122486 -0.1542399 0.008429079 -0.24851389 -0.23227842 -0.16861534
-0.05125022 0.010558496 -0.029505773 -0.02431907 -0.06945588 0.058730416 0.21876314 0.06321398
00000000: 7ab0 55be 7e43 43be d81a 3a3e 2de7 8a3e
00000010: d1a8 963d 38a3 853c 55a2 1a3e 7af9 8a3c
00000020: b9d6 ce3c 77c9 a9bd 3077 9c3d 65cd 403e
00000030: a4cb 95bd d7b1 9cbe f6ea 49be d77f 2d3e
00000040: f8c5 abbc 87ce acbd 0e4d 823e 1c99 9e3d
00000050: cf6b e73d 6049 bbbe 87a6 5b3d c0de 103d
00000060: 4aab 7fbc fd4a f9bc 2242 b8be 3283 613e
00000070: 019c 053e 2a81 8abe 527d e43d 2f1d 953e
00000080: 9547 973e 54e6 623e db63 e33c 526a 8a3d
00000090: 2078 3f3e c5e5 ac3d 069d 273d 708b 013d
000000a0: 8881 81be b427 e93d a884 11be 3ccd e23c
000000b0: 5c36 84be ca0e b6be 8e5b 81be 9938 7fbe
000000c0: b530 0c3e e4cb 893d f50e 17be cc4a 9f3e
000000d0: a512 c13d b0c3 fc3d 96f4 323a 71e6 56be
000000e0: 0788 75be e80f e43d a1cf a1bc e7e5 42be
000000f0: 3605 433e c926 7c3e 910b 503e 9dac 613e
00000100: 0bea 063d b800 c0bd 8a01 6bbb a1e5 613e
00000110: 55a6 3cbe 83c9 58bd 2310 ad3c 04e7 2bbc
00000120: 89b2 debb a76e 1e3d 757c 873e 3c44 2bbe
00000130: b134 803d 9784 bbbe 9330 13bf 3f6e 04be
00000140: 3ead 8e3e 5ae8 d0bd ebe6 b2bd 0b4c 9a3d
00000150: 9dcc 743c f125 de3d 0adb 60be bd36 f13d
00000160: b04c 863d d03e f33d 3199 cc3e aeb9 5b3e
00000170: 2803 bc3d 3100 da3d 7e5e 323d 3392 95bd
00000180: 1a38 903d b94b dfbd 8455 16be cce2 a6bb
00000190: bb47 11bd 29fe cfbd 8157 e73d 247b adbd
000001a0: e5a9 823e 4b44 b8bd cf42 edbe e906 3f3e
000001b0: d3f3 863d 98ba c93c 1011 8d3d 538c 01be
000001c0: 3e6a 90be 19fd e93d b4e4 cf3c 9f85 0e3e
000001d0: dbfe 14be d024 fe3d ffed 433d 2a39 95bd
000001e0: 0269 413e 92f0 b73e 286b 0b3e 6a8d b6be
000001f0: e366 b8bc d210 84bd 0dee e33d 16f6 e1bd
00000200: 0568 dabd 6a2b 403d b559 ae3d dc02 5fbe
00000210: 325b d9bc 1dc1 903e dc79 e0bd 52df a73e
00000220: 9c1e 403e 9d55 583d fe98 dfbd 51f5 7e3e
00000230: 814d 2f3e 2cca 75be f9ed c73d 87d1 20be
00000240: ed74 47bd a0b1 eebd 3417 5f3d 22c6 b0bd
00000250: 6ea8 98bb 7426 473e 90fb 24be 280c 72be
00000260: 6ddc 70be 3bf6 9dbe cc97 77be d8db fb3d
00000270: 097e 3e3d e60b 1abe 6151 9a3d 19f3 a83c
00000280: 4d18 0a3e 07e5 b4bd 3a2e 8d3d 9f63 efbd
00000290: c479 f8bc be35 9f3e 3214 67bc 7885 6cbe
000002a0: 88a7 4e3e b945 dd3e 9564 813d 6965 a2bd
000002b0: 15c8 713e 9923 ef3d 0c76 303d dfd4 193d
000002c0: 9db8 193e 7e69 b03d 3aa3 3ebd 5c76 4dbb
000002d0: 0188 f63d 743e 9b3e 651b 8d3e 4eb5 40be
000002e0: 274f 953e 582a d2bd 443e e4bd 056f 513e
000002f0: 090b 143e 9712 073d 0bab 35bb eaf5 4ebe
00000300: 3843 2e3e 2320 cb3b 4a32 183e bf9f bc3e
00000310: da15 353c 8410 843e be77 bf3c 0de0 3f3e
00000320: c711 803e 7c79 67bb e0a3 24bc de83 93bc
00000330: 864b 53bb 9dbd 66be 66bc 49be f88d 023e
00000340: 239f d43d 7a82 3f3e aa07 34bc 7351 9bbe
00000350: 0a9d 96be 191b 80be d502 67be 698b f3bd
00000360: e130 d9bd 32b5 57be 44fa 543e 7eee 4abd
00000370: c202 2f3e dffc b8bb 2400 8c3b c02d 88bc
00000380: 0459 d63d 2d6a 91be 8607 f4bd 98a3 c03b
00000390: 5239 273e 8dff 1bbc 195a 00be 2223 b3bd
000003a0: 2a97 84bd bf13 1e3e 61db 593c f175 bebb
000003b0: aab8 69bb f797 c7be 190b 47be 686f cb3d
000003c0: 3f5a 023e a922 d7be a04e c8be 10f1 1dbe
000003d0: 1f1a 0a3c 6d7a 7ebe 65da 6dbe 80a9 2cbe
000003e0: c0eb 51bd 8bfd 2c3c 17b6 f1bc c938 c7bc
000003f0: e23e 8ebd 4e8f 703d 7203 603e 5576 813d

network.0.bias f4 [64]
-0.0012009086 -0.016380833 -0.0037769787 -0.0022152797 0.014641689 -0.0056974995 -0.0025672058 0.008899545
-0.0020333598 -0.00815466 0.0012820953 -0.0023996497 0.011135321 -0.0008725833 -0.00095263397 -0.0017172713
-0.001774365 -0.005160001 0.011163366 -0.0059968866 -0.007004987 -0.010380888 -0.008372452 0.0007817066
0.0007415832 0.0003162117 -0.0010828626 0.008556299 -0.0033384457 0.0020980365 -0.0011968844 -0.001064516
0.0025727998 0.0015817632 0.00051417487 -0.0033072014 -0.0033551138 0.0037325325 0.008090629 0.00028758778
0.003979733 0.002891014 -0.0014113155 0.004674097 0.0032758908 -0.0020242138 0.0033281958 -0.002998068
0.0010417969 0.004031435 0.0032602989 0.0067568556 0.0062410603 -0.0034546827 -0.011513076 -0.0005094454
0.0026608394 0.0016399954 0.004617353 0.009931123 0.0017390599 0.0007074641 0.00036683696 -0.0030698946
00000000: ce67 9dba 1931 86bc 3087 77bb 3a2e 11bb
00000010: b2e3 6f3c 17b2 babb 913e 28bb 66cf 113c
00000020: 1e42 05bb 209b 05bc fb0b a83a 7143 1dbb
00000030: ec70 363c 13be 64ba 2fba 79ba 1016 e1ba
00000040: cf91 e8ba 3a15 a9bb 8de6 363c 8881 c4bb
00000050: 178a e5bb 9a14 2abc 9c2c 09bc 71eb 4c3a
00000060: ce66 423a 37c9 a539 d7ee 8dba b82f 0c3c
00000070: d3c9 5abb 367f 093b c7e0 9cba 3b87 8bba
00000080: 6b9c 283b 2a53 cf3a b1c9 063a a2bd 58bb
00000090: 78e1 5bbb 819d 743b 8f8e 043c 61c7 9639
000000a0: 6c68 823b 2b77 3d3b e4fb b8ba 2b29 993b
000000b0: 54b0 563b aca8 04bb dc1d 5a3b 3c7b 44bb
000000c0: e78c 883a 211a 843b bdaa 553b 9d68 dd3b
000000d0: cf81 cc3b f567 62bb 57a1 3cbc 4d8c 05ba
000000e0: 7a61 2e3b 1df5 d63a 2a4d 973b 26b6 223c
000000f0: 2bf1 e33a 1d75 393a 0654 c039 4930 49bb

network.1.weight f4 [64]
0.8980762 1.1452364 0.90449935 1.0790133 0.8675491 1.1736654 0.9220782 1.05878
0.8720815 1.0378224 1.1019613 0.9102324 0.91842574 0.92831147 0.92060864 0.9514075
1.1390939 0.8282606 0.92858964 0.996865 1.1755447 0.8847752 0.99744296 1.027292
0.91230506 1.0430422 1.0184497 0.98700386 1.1727049 1.001078 0.981873 1.0217583
0.88597155 1.0592384 1.1553171 0.88069177 0.92647976 1.0911758 1.0613531 0.8333869
0.85969114 0.991504 1.0669043 1.198384 0.8888627 1.0818738 1.059927 0.82063603
0.91456276 0.9327305 1.0637951 1.1286366 1.1646737 0.8817983 1.1359798 0.91502726
1.0633341 1.054952 0.7697853 1.0674515 1.091595 0.90501016 0.9068441 0.85947853
00000000: 52e8 653f 1b97 923f 458d 673f 1c1d 8a3f
00000010: b317 5e3f ab3a 963f 510d 6c3f 1a86 873f
00000020: bc40 5f3f 5dd7 843f 110d 8d3f fe04 693f
00000030: f31d 6b3f d2a5 6d3f 02ad 6b3f 718f 733f
00000040: d4cd 913f e308 543f 0db8 6d3f 8b32 7f3f
00000050: 4078 963f a180 623f 6c58 7f3f 4e7e 833f
00000060: d38c 693f 6882 853f 8f5c 823f 49ac 7c3f
00000070: 321b 963f 5323 803f 075c 7b3f fac8 823f
00000080: 08cf 623f 2095 873f 6ee1 933f 0475 613f
00000090: c72d 6d3f a6ab 8b3f 6bda 873f d858 553f
000000a0: b814 5c3f 35d3 7d3f 5290 883f a664 993f
000000b0: 828c 633f d77a 8a3f b0ab 873f 3415 523f
000000c0: c920 6a3f 6dc7 6e3f 702a 883f 2a77 903f
000000d0: 0714 953f 89bd 613f c967 913f 3a3f 6a3f
000000e0: 551b 883f ab08 873f a610 453f 40a2 883f
000000f0: 63b9 8b3f bfae 673f ef26 683f c906 5c3f

network.1.bias f4 [64]
-0.19201577 -0.19446555 -0.098428704 0.069709405 -0.10618387 -0.24497914 -0.2988029 -0.11772777
-0.3054508 -0.18052584 0.0639135 -0.21305123 -0.32770425 -0.420987 0.034066085 -0.22625342
-0.1270613 -0.28258675 -0.1443238 -0.12180205 -0.2541007 -0.26699948 -0.35125586 -0.21078083
-0.45313445 0.03913345 -0.20523319 -0.3224032 -0.068044506 -0.20265025 -0.43265563 -0.31053537
-0.23486291 -0.25642815 -0.12169863 -0.2742544 -0.21922557 -0.019040674 -0.05789195 -0.2917782
-0.18977036 -0.26958022 -0.09230844 -0.19948152 -0.20252886 -0.2070436 -0.0029083928 0.031895615
-0.22387043 -0.2857834 -0.027603189 -0.12827317 -0.29800996 -0.29114103 -0.07990159 -0.17980969
-0.18773095 -0.22326969 -0.3390541 -0.087911025 -0.04611211 0.06256465 0.011797502 -0.22133021
00000000: c89f 44be fa21 47be fd94 c9bd cec3 8e3d
00000010: ee76 d9bd d0db 7abe b2fc 98be 421b f1bd
00000020: 0c64 9cbe c4db 38be 15e5 823d 1a2a 5abe
00000030: dac8 a7be 9c8b d7be e188 0b3d faae 67be
00000040: 5c1c 02be 36af 90be 9ec9 13be 5a73 f9bd
00000050: 7d19 82be 28b4 88be cfd7 b3be eed6 57be
00000060: 3d01 e8be 654a 203d a628 52be 0812 a5be
00000070: eb5a 8bbd 8c83 4fbe 0a85 ddbe 7efe 9ebe
00000080: e77f 70be 8d4a 83be 223d f9bd 136b 8cbe
00000090: ab7c 60be 30fb 9bbc 1c20 6dbd f463 95be
000000a0: 2953 42be 6b06 8abe 350c bdbd e244 4cbe
000000b0: ba63 4fbe 3d03 54be bc9a 3ebb faa4 023d
000000c0: 4a3e 65be 3452 92be 1520 e2bc 0b5a 03be
000000d0: c394 98be 7010 95be 72a3 a3bd 0820 38be
000000e0: 8b3c 40be cfa0 64be 8098 adbe b20a b4bd
000000f0: 0de0 3cbd e521 803d 4f4a 413c 63a4 62be

network.1.running_mean f4 [64]
-0.0030822065 -0.03966153 0.007938677 -0.02881532 0.016224483 -0.009246837 0.0035394002 0.0003238041
0.013375451 0.0008307947 -0.0010858197 -0.039460268 0.016651968 -0.0077329427 -0.011795459 0.014645694
-0.0056828354 -0.010763932 0.01796804 -0.010328845 -0.0025712345 0.01625624 0.0038398881 -0.007619937
0.004434716 -0.008490451 0.0051422063 0.02381343 0.003649883 -0.002393735 0.00036258157 -0.020462975
0.003060148 -0.018525861 -0.038091354 0.020760741 0.010212553 -0.013710802 0.012568293 0.020069577
0.006468013 -0.010682489 -0.016758606 -0.0006435001 0.012011671 -0.015917445 0.0035121292 -0.0069825556
0.011762101 0.020036371 -0.0073148655 -0.0051387222 0.00040895306 0.009413639 -0.020382272 -0.050408073
-0.01199419 -0.024252515 0.011279221 0.018666368 -0.03543191 -0.041316688 -0.043156154 0.007873541
00000000: d8fe 49bb 2174 22bd 3a11 023c 1b0e ecbc
00000010: 35e9 843c 0c80 17bc 48f5 673b 40c4 a939
00000020: b524 5b3c b0c9 593a 1052 8eba 17a1 21bd
00000030: b569 883c a064 fdbb be41 41bc 7ef4 6f3c
00000040: 1437 babb 345b 30bc b631 933c 513a 29bc
00000050: 2882 28bb ce2b 853c a2a6 7b3b aab0 f9bb
00000060: 1851 913b 881b 0bbc f47f a83b 6214 c33c
00000070: e032 6f3b 36e0 1cbb e018 be39 f8a1 a7bc
00000080: c48c 483b 8cc3 97bc ae05 1cbd 6e12 aa3c
00000090: 8d52 273c 46a3 60bc 3eeb 4d3c f468 a43c
000000a0: a0f1 d33b 9b05 2fbc 5849 89bc 90b0 28ba
000000b0: 9acc 443c 4d65 82bc c02b 663b eccd e4bb
000000c0: d4b5 403c 5123 a43c 8ab1 efbb ba62 a8bb
000000d0: c068 d639 aa3b 1a3c b9f8 a6bc b278 4ebd
000000e0: 4783 44bc 36ad c6bc 7bcc 383c 36ea 983c
000000f0: 0d21 11bd b03b 29bd 82c4 30bd 0600 013c

network.1.running_var f4 [64]
0.34490573 0.13819519 0.3253431 0.14921615 0.18963785 0.7150621 0.07616377 0.1737597
0.1755549 0.0707788 0.27046302 1.2318125 0.31170738 0.26076448 0.43486273 0.2184203
0.8130682 0.32392198 0.15133253 0.068293735 0.50159997 0.14076994 0.1863853 0.36637256
0.22047418 0.7825171 0.37104923 0.3110988 0.4425414 0.16105324 0.1736364 0.22812904
0.65018487 0.46442667 0.38791895 0.54209673 0.42106235 0.5997529 0.6701192 0.5143008
0.5661503 0.23178834 0.81379855 0.35410127 0.27100983 0.20166983 0.7029586 0.16600202
0.55823654 0.32926357 0.22867025 0.20399483 0.55974823 0.33932737 0.089645706 1.7151574
0.10037514 0.311648 0.30197135 0.680974 0.35617113 2.0432048 1.1750746 0.47045752
00000000: 7c97 b03e 0a83 0d3e 5f93 a63e 1ecc 183e
00000010: 6d30 423e 4f0e 373f c0fb 9b3d 10ee 313e
00000020: aac4 333e 7af4 903d 217a 8a3e 08ac 9d3f
00000030: 1c98 9f3e ec82 853e 54a6 de3e 92a9 5f3e
00000040: 3d25 503f 1ad9 a53e eaf6 1a3e 96dd 8b3d
00000050: db68 003f ff25 103e cadb 3e3e 2f95 bb3e
00000060: fcc3 613e 0a53 483f 2afa bd3e 5848 9f3e
00000070: c994 e23e 24eb 243e becd 313e a99a 693e
00000080: 8472 263f 55c9 ed3e 509d c63e dac6 0a3f
00000090: 7c95 d73e 6889 193f ef8c 2b3f 38a9 033f
000000a0: 3aef 103f ec59 6d3e 1a55 503f c34c b53e
000000b0: cdc1 8a3e 8982 4e3e 18f5 333f 6ffc 293e
000000c0: 97e8 0e3f 3c95 a83e 8928 6a3e 05e4 503e
000000d0: a94b 0f3f 51bc ad3e 2b98 b73d 478a db3f
000000e0: 7b91 cd3d 5490 9f3e fd9b 9a3e 5054 2e3f
000000f0: 105c b63e dec3 0240 d868 963f cfdf f03e

network.4.weight f4 [128, 64]
-0.009258296 0.10453026 0.099072985 -0.11702168 -0.022422882 -0.10126139 0.059663508 0.01580384
-0.19238302 0.008122779 0.046395693 -0.23691903 -0.13922712 -0.12502022 0.12262862 0.020643122
0.11463469 -0.06038585 0.09336906 0.032245956 -0.11161578 -0.08510622 -0.21223313 -0.010517365
-0.033780113 0.05582498 -0.17544918 0.0581149 0.08458735 0.09442457 -0.15850398 0.070213065
0.041929245 0.017266657 -0.041465882 0.1769042 -0.0704201 0.23493375 0.106904715 -0.18908605
-0.033965934 -0.059887797 -0.09666981 0.14712524 -0.13933298 0.18661723 0.093761005 0.04104805
0.034743197 0.19371791 0.23899534 -0.1728375 -0.19484277 -0.049470007 0.072899505 -0.28916377
0.07442291 -0.07142806 -0.22232364 -0.14422645 -0.06867008 -0.21619284 -0.14133084 -0.028104333
-0.07269739 -0.17145872 -0.14853361 -0.25785205 0.023468344 -0.13447058 0.080450885 -0.043502953
0.06294815 0.08464443 -0.053414673 0.12917908 0.21187161 -0.05554306 0.060058538 -0.06897529
-0.29232368 0.084147036 -0.09144925 0.00050560944 -0.26276803 0.042892233 0.2940792 -0.18422638
-0.022762507 0.08582667 -0.21463223 0.13673452 0.016537521 -0.00597682 0.15232225 -0.13633074
-0.12058341 -0.16743784 -0.07855054 -0.05366954 -0.11771711 -0.06641153 -0.02851741 -0.040668756
0.026319964 0.020660143 0.019820249 -0.18967769 0.07996095 0.0018675693 -0.15553862 0.047563404
0.03755644 0.0149704395 -0.13324997 0.08045776 -0.10912842 0.024881024 0.059006263 0.14364597
-0.0063958 -0.0062382715 -0.057224017 -0.021650782 -0.099330924 0.0978754 0.1654785 0.082981534
-0.03946056 -0.03410233 -0.030364748 -0.05847195 -0.038697567 -0.32384625 0.10901689 -0.12575343
-0.046017192 0.022462012 0.26540077 -0.10431835 0.14392808 0.15616848 -0.059419654 0.0016529564
0.2399897 0.0031746249 0.055553924 0.18332276 -0.24324615 0.19249919 0.10453418 0.00414608
0.07941101 0.07588821 -0.19315723 0.08930639 0.20766737 -0.15405622 0.08178064 -0.06293878
-0.09375133 -0.14104179 0.024273243 0.3229447 -0.07171989 -0.23982278 -0.030195437 -0.06584178
0.08628736 0.15018336 0.14441946 -0.22235483 0.16094317 -0.050200067 -0.17031062 0.1263425
0.15878695 -0.0069347373 -0.20292436 -0.09847687 -0.33805597 0.054183256 -0.0019224095 0.02970606
0.09053773 0.19863516 -0.030589417 -0.13613783 0.10225446 0.007862427 -0.010889326 -0.11602998
-0.011903873 0.11060173 -0.08822088 -0.04919282 -0.15310547 0.036663853 -0.29268774 -0.022067344
0.04737493 0.08305794 0.023088945 0.22604139 -0.034134608 -0.0035238483 -0.25367656 -0.18918243
-0.40575355 0.10539113 -0.13489115 -0.03183802 -0.23813309 0.16588278 0.16897291 0.0131194675
0.05532563 -0.1649326 -0.1291175 0.08825024 -0.1416274 -0.031526804 -0.045304332 -0.2859783
0.07130775 0.009499719 0.011844846 0.05807695 0.13649015 0.107273184 -0.03815433 -0.025455713
0.06449267 0.13227147 -0.22824407 -0.19074759 -0.1934521 0.029479261 -0.235831 -0.09670519
-0.24174775 0.051679693 -0.09414058 0.03385217 -0.016983723 -0.18886137 -0.02596092 0.009365381
0.05328462 -0.07018521 0.013635906 -0.06841827 0.116125405 -0.020623641 0.12270118 0.11465339
00000000: 1cb0 17bc f613 d63d c7e6 ca3d 10a9 efbd
00000010: 31b0 b7bc 2262 cfbd b961 743d 0e77 813c
00000020: 0e00 45be 6815 053c 6909 3e3d e79a 72be
00000030: 8e91 0ebe 4d05 00be b724 fb3d c41b a93c
00000040: 98c5 ea3d 2757 77bd 4738 bf3d 5614 043d
00000050: d096 e4bd 2b4c aebd a453 59be 0751 2cbc
00000060: 045d 0abd bca8 643d f3a8 33be e409 6e3d
00000070: 223c ad3d ab61 c13d de4e 22be decb 8f3d
00000080: 00be 2b3d ce72 8d3c 21d8 29bd 6026 353e
00000090: 6a38 90bd 7992 703e dcf0 da3d c69f 41be
000000a0: dd1f 0bbd e84c 75bd d2fa c5bd 00a8 163e
000000b0: 4ead 0ebe 9618 3f3e c505 c03d 0022 283d
000000c0: e24e 0e3d fd5d 463e 32bb 743e 50fc 30be
000000d0: dd84 47be 10a1 4abd 564c 953d 460d 94be
000000e0: 0a6b 983d e048 92bd cfa8 63be 19b0 13be
000000f0: e6a2 8cbd a861 5dbe 08b9 10be 0f3b e6bc
00000100: 5fe2 94bd e092 2fbe 3219 18be 2f05 84be
00000110: af40 c03c a8b2 09be 6fc3 a43d 2730 32bd
00000120: f6ea 803d 0f5a ad3d 58c9 5abd 8547 043e
00000130: dff4 583e 1f81 63bd f1ff 753d eb42 8dbd
00000140: 73ab 95be 4855 ac3d bf49 bbbd e08a 043a
00000150: 8889 86be c4af 2f3d 8d91 963e d7a5 3cbe
00000160: 7078 babc e5c5 af3d 8dc8 5bbe 2204 0c3e
00000170: b279 873c 33d9 c3bb 5dfa 1b3e 499a 0bbe
00000180: 6ff4 f6bd d374 2bbe 1bdf a0bd 97d4 5bbd
00000190: ab15 f1bd c502 88bd 589d e9bc 4894 26bd
000001a0: f79c d73c 763f a93c 135e a23c de3a 42be
000001b0: 91c2 a33d 3ac9 f43a 8445 1fbe d8d1 423d
000001c0: c8d4 193d 9346 753c ae72 08be 0ac7 a43d
000001d0: b97e dfbd 4ad3 cb3c 8db0 713d ee17 133e
000001e0: dc93 d1bb 6a6a ccbb bb63 6abd fb5c b1bc
000001f0: 036e cbbd e672 c83d 3273 293e 39f2 a93d
00000200: 65a1 21bd e3ae 0bbd 7ebf f8bc 4980 6fbd
00000210: 5781 1ebd 2dcf a5be 3f44 df3d 82c5 00be
00000220: 867c 3cbd 4102 b83c 9ce2 873e dca4 d5bd
00000230: e261 133e a1ea 1f3e 0662 73bd 03a8 d83a
00000240: dcbf 753e 5e0d 503b 838c 633d f6b8 3b3e
00000250: 8515 79be 821e 453e 0416 d63d d7db 873b
00000260: 3da2 a23d 476b 9b3d 02cb 45be 45e6 b63d
00000270: c1a6 543e eac0 1dbe 9c7c a73d 0ce6 80bd
00000280: b300 c0bd 426d 10be aed8 c63c 0259 a53e
00000290: e1e1 92bd 1a94 75be 6c5c f7bc 0ed8 86bd
000002a0: 6db7 b03d abc9 193e b2e2 133e fcb0 63be
000002b0: 49ce 243e 969e 4dbd e865 2ebe ee5f 013e
000002c0: 0c99 223e cb3c e3bb 67cb 4fbe 3eae c9bd
000002d0: ac15 adbe 43ef 5d3d 5cf9 fbba 205a f33c
000002e0: d86b b93d 0467 4b3e a896 fabc b767 0bbe
000002f0: c96a d13d 69d1 003c 2569 32bc 20a1 edbd
00000300: 7608 43bc 2983 e23d 26ad b4bd 697e 49bd
00000310: aec7 1cbe d62c 163d 2bdb 95be 93c6 b4bc
00000320: 370c 423d 481a aa3d 0725 bd3c 6577 673e
00000330: bbd0 0bbd 5df0 66bb e5e1 81be 0ab9 41be
00000340: eebe cfbe 4ed7 d73d e820 0abe 9568 02bd
00000350: 29d9 73be 2ddd 293e 3c07 2d3e 09f3 563c
00000360: 219d 623d 17e4 28be 6137 04be 8bbc b43d
00000370: c606 11be 4022 01bd 0991 39bd bf6b 92be
00000380: cc09 923d b6a4 1b3c e310 423c 19e2 6d3d
00000390: 13c4 0b3e 0bb2 db3d b747 1cbd 8088 d0bc
000003a0: bc14 843d 2c72 073e d0b8 69be 5653 43be
000003b0: 4f18 46be 7e7e f13c af7d 71be 5f0d c6bd
000003c0: b98c 77be 16ae 533d c7cc c0bd 93a8 0a3d
000003d0: 7321 8bbc e064 41be ffab d4bc 4171 193c
000003e0: f940 5a3d 43bd 8fbd 2369 5f3c e11e 8cbd
000003f0: 28d3 ed3d e9f2 a8bc c24a fb3d 66cf ea3d

network.4.bias f4 [128]
-0.0032423956 0.0042633684 7.381273e-05 0.0007633346 -0.0014498379 -0.0019191337 0.001870954 -0.0007349712
0.00036719866 -0.0019565923 0.0008556412 0.0004950677 -0.00075474964 0.0031633882 -0.0021772296 -0.0023092562
0.00045661518 -0.0030513844 -0.0013588949 -0.0001792387 -0.0014478223 0.00075394753 -0.0017744643 0.0027432267
-0.0014960543 -0.00025196618 0.0016840922 0.0010711359 0.0001648737 0.00055060466 0.00065878284 -0.0010550667
0.0012421652 -0.0018278358 0.0011278446 -2.6351472e-05 0.0010499845 0.0023503122 0.00032117337 0.004629992
-0.00072310906 0.0021310297 0.0015672497 0.0005697427 0.0026994522 -0.0022937807 -0.00043176397 0.0021170937
-0.0029356442 -0.0004532512 0.0014147941 -0.0013867246 -0.00063931633 -0.0027342213 0.0016524196 0.0009269341
0.0009815504 -0.00634464 -0.00083931745 -0.0016142845 0.0015944553 0.0005953782 -0.0052248086 -3.0450978e-05
-0.001888972 0.0017978718 0.00041225765 0.0008062004 -0.0013567879 0.0003253825 -0.0008111903 0.0012070467
-0.0015409278 0.0024288907 0.0003701009 0.0015784563 -0.00089783204 0.000477616 -0.0025332477 -0.0015447454
-0.0026632817 -0.002016848 0.0029049944 -0.00011577196 -0.00031579658 0.0004326258 0.002419453 -0.0016464137
0.0010948883 0.0017654077 -0.0014407466 0.0003514103 0.000208512 -0.0025149765 -0.0003231533 -0.00072735467
-0.000451142 0.0011999494 -0.003253778 -0.00077299774 -0.0034870245 4.3464923e-05 0.0018116146 -0.00068052777
0.00045507052 4.2725478e-05 0.0038681305 0.0005039879 -0.00039922437 0.0010211527 -0.0012075638 0.0010445785
0.0014750232 -0.00023005331 -0.0023660574 0.0005213877 -0.00085530104 -0.0031434312 -0.001498901 0.002490979
-0.003347898 0.00096462097 -0.0009664076 -0.00084010826 0.0005416465 -0.0028687892 -0.0004562846 0.0038262
00000000: 5f7e 54bb bab3 8b3b e8cb 9a38 851a 483a
00000010: 7d08 beba 718b fbba cc3a f53a 15ab 40ba
00000020: 9284 c039 2c3a 00bb 1c4d 603a 6ec7 013a
00000030: 64da 45ba d950 4f3b daaf 0ebb e456 17bb
00000040: da65 ef39 bcf9 47bb f21c b2ba 06f2 3bb9
00000050: dbc4 bdba 90a4 453a 2495 e8ba b5c7 333b
00000060: 4117 c4ba 541a 84b9 c2bc dc3a 5b65 8c3a
00000070: f2e1 2c39 7456 103a 2bb2 2c3a 2a4a 8aba
00000080: 26d0 a23a fe93 efba 2fd4 933a 5b0d ddb7
00000090: a29f 893a b207 1a3b 2963 a839 30b7 973b
000000a0: 078f 3dba bfa8 0b3b 2c6c cd3a c95a 153a
000000b0: 4be9 303b 4153 16bb 615e e2b9 f0be 0a3b
000000c0: f063 40bb 59a2 edb9 9d70 b93a c2c2 b5ba
000000d0: cb97 27ba 9f30 33bb 0096 d83a 7ffd 723a
000000e0: 5ea7 803a b3e6 cfbb a405 5cba 6696 d3ba
000000f0: 0bfd d03a 2813 1c3a df34 abbb fa70 ffb7
00000100: 6297 f7ba 91a6 eb3a 4924 d839 3157 533a
00000110: 3fd6 b1ba 1a98 aa39 0fa6 54ba c435 9e3a
00000120: f5f8 c9ba 062e 1f3b 1a0a c239 34e4 ce3a
00000130: 7d5c 6bba 8968 fa39 d804 26bb 0e79 caba
00000140: 748a 2ebb 182d 04bb b861 3e3b 99ca f2b8
00000150: 8091 a5b9 0dd2 e239 b08f 1e3b 7acc d7ba
00000160: 5b82 8f3a 4165 e73a 6fd7 bcba 7e3d b839
00000170: 04a4 5a39 4ed2 24bb e76c a9b9 f2ab 3eba
00000180: 4187 ecb9 9f47 9d3a 563d 55bb 00a3 4aba
00000190: 9086 64bb 1b4e 3638 b373 ed3a 7265 32ba
000001a0: 8896 ee39 2234 3338 7680 7d3b 0e1e 043a
000001b0: fd4e d1b9 33d8 853a 1e47 9eba 3dea 883a
000001c0: 9155 c13a 773a 71b9 db0f 1bbb bcad 083a
000001d0: 4836 60ba 0602 4ebb c676 c4ba b13f 233b
000001e0: 6868 5bbb 9ede 7c3a 8456 7dba b63a 5cba
000001f0: 48fd 0d3a 4c02 3cbb 7b39 efb9 fcc0 7a3b

network.5.weight f4 [128]
1.0576643 0.97553563 0.952754 1.0591989 1.0727469 0.9635784 0.9623032 0.95604825
0.98541814 0.930801 1.0028011 0.96763575 1.079687 1.0566206 0.949856 1.0052305
1.0471656 1.0451088 1.132981 0.8861116 1.0257475 1.1945609 1.0301412 1.0305647
1.0144444 0.9307895 1.0425732 0.9948604 1.0817543 0.9767896 1.0335393 1.0372652
1.0105573 1.071789 1.0680194 0.90607256 1.0218742 0.8384849 0.9976957 0.895774
1.0512964 0.92163926 0.9798829 0.9338714 1.08523 1.0841775 0.886824 0.97806996
0.9090511 1.085863 0.88435274 0.9917312 0.9961499 1.1181116 1.0365493 0.96669734
0.9605898 0.9588243 0.9261107 0.9843905 1.1398288 1.040871 1.0417196 0.9520867
0.89668864 0.8677879 1.017133 0.8532091 0.9872884 1.0430809 0.9947462 1.0175325
1.0395749 1.1062057 0.9921145 1.0276452 0.9776457 1.037535 0.9957068 1.0877323
0.97303414 0.96061265 0.9719132 0.9345742 0.9757475 0.9079548 1.2403724 0.9998932
1.0399736 1.1114056 1.1129375 0.95974004 0.9226716 0.95597684 1.0032881 0.9884727
1.0004579 0.99147713 1.0176258 1.0317088 1.0063374 0.9792491 0.89328367 1.076568
0.93779767 0.98797554 1.0241371 0.9667237 0.95325017 0.9744178 0.92478937 1.0969832
0.8931469 0.95936894 1.0422069 0.97895133 1.0333622 0.923118 0.93807745 1.0767227
0.96966195 0.99988 1.0738173 1.0389234 1.0023557 1.0081526 0.9106297 0.98899937
00000000: 8b61 873f b4bc 793f b0e7 733f d493 873f
00000010: c54f 893f 13ad 763f 8159 763f 94bf 743f
00000020: 5d44 7c3f f948 6e3f c95b 803f fab6 773f
00000030: 2f33 8a3f 583f 873f c329 733f 65ab 803f
00000040: 8609 863f 20c6 853f 8505 913f 36d8 623f
00000050: b24b 833f 5fe7 983f abdb 833f 8be9 833f
00000060: 50d9 813f 3848 6e3f 0a73 853f 2caf 7e3f
00000070: ed76 8a3f e20e 7a3f 044b 843f 1bc5 843f
00000080: f159 813f 6230 893f dcb4 883f 5ff4 673f
00000090: c6cc 823f f2a6 563f fc68 7f3f 7251 653f
000000a0: e190 863f 8df0 6b3f 9bd9 7a3f 3212 6f3f
000000b0: d1e8 8a3f 54c6 8a3f e606 633f cb62 7a3f
000000c0: 93b7 683f 8ffd 8a3f f164 623f 19e2 7d3f
000000d0: ae03 7f3f 481e 8f3f a6ad 843f 7a79 773f
000000e0: 37e9 753f 8275 753f 9715 6d3f 0401 7c3f
000000f0: e9e5 913f 433b 853f 1157 853f f4bb 733f
00000100: 638d 653f 5927 5e3f 6a31 823f e96b 5a3f
00000110: efbe 7c3f ad83 853f b0a7 7e3f 813e 823f
00000120: ca10 853f 2698 8d3f 37fb 7d3f e189 833f
00000130: fd46 7a3f f2cd 843f a4e6 7e3f d03a 8b3f
00000140: c418 793f b6ea 753f 4ecf 783f 4140 6f3f
00000150: 97ca 793f ba6f 683f 86c4 9e3f 00f9 7f3f
00000160: db1d 853f 8a42 8e3f bc74 8e3f 86b1 753f
00000170: 3534 6c3f e6ba 743f bf6b 803f 8c0c 7d3f
00000180: 010f 803f 72d1 7d3f 9041 823f 090f 843f
00000190: aacf 803f 12b0 7a3f 3dae 643f fbcc 893f
000001a0: 8213 703f f7eb 7c3f ed16 833f 347b 773f
000001b0: 3408 743f 7273 793f ffbe 6c3f f269 8c3f
000001c0: 46a5 643f 3499 753f 0967 853f 8e9c 7a3f
000001d0: 3645 843f 7651 6c3f d825 703f 0dd2 893f
000001e0: c43b 783f 23f8 7f3f d872 893f 71fb 843f
000001f0: 314d 803f 250b 813f 071f 693f 102f 7d3f

network.5.bias f4 [128]
-0.121101715 -0.21743464 -0.2599511 -0.07025193 0.22970036 -0.11334614 -0.12328362 -0.15083328
-0.18272564 -0.17278513 -0.40896618 -0.1862406 -0.0122918375 -0.0912133 -0.30313185 -0.21975014
-0.10651983 -0.38596946 0.11422468 -0.22774188 -0.3122595 -0.05742722 -0.13882682 -0.17260142
-0.22993264 -0.10727 -0.022613999 -0.19803828 -0.14505787 -0.09545268 -0.04287007 -0.07946614
-0.3121498 -0.015564016 0.110454276 -0.26210824 0.027884513 -0.120357014 0.01753778 -0.222532
0.019229481 -0.27960137 -0.0039583463 -0.15173943 -0.05829001 0.06584837 -0.20269509 -0.14022344
-0.2203637 -0.04076653 -0.12833199 -0.034913883 0.043686748 0.0512308 -0.332314 -0.11708899
-0.06872617 -0.22969623 -0.07762631 -0.42076257 -0.06118786 -0.028299838 -0.24577516 -0.107651494
-0.13328871 -0.19104211 -0.06734542 0.039039686 -0.21609761 -0.007609496 -0.12367349 0.055731714
-0.20525944 -0.0033024512 -0.13584985 -0.023442822 -0.0638567 -0.30882183 -0.10204204 -0.16945912
-0.21030915 -0.26721737 -0.08156694 -0.07132051 -0.07740821 -0.0024946046 0.0689278 -0.16681266
0.07340873 0.09107869 -0.0919553 0.08728895 3.1459575e-05 -0.20323108 0.075557485 -0.19777448
-0.085852034 -0.13009883 -0.17296411 -0.1293397 -0.17702806 -0.21604559 -0.10829373 0.06279216
-0.15947482 -0.11268432 0.020136172 0.00017153504 -0.05330502 -0.12596388 -0.101353355 0.1324642
-0.048573874 0.09396211 -0.16703054 -0.138984 0.01896163 -0.3434307 -0.106477596 -0.07364439
-0.28504235 -0.02865612 -0.101358786 0.0326487 -0.15917546 -0.28395057 -0.21919455 0.0061700153
00000000: 2d04 f8bd 30a7 5ebe 5018 85be 3ee0 8fbd
00000010: 9236 6b3e 0522 e8bd 1f7c fcbd 0a74 1abe
00000020: 6e1c 3bbe 96ee 30be 0464 d1be dbb5 3ebe
00000030: b463 49bc 0ace babd 1934 9bbe 2e06 61be
00000040: 1227 dabd ca9d c5be a1ee e93d 2b35 69be
00000050: 7ae0 9fbe ce38 6bbd 9e28 0ebe 6dbe 30be
00000060: 7673 6bbe 60b0 dbbd fe40 b9bc 8cca 4abe
00000070: 0d8a 14be b27c c3bd 8798 2fbd 25bf a2bd
00000080: 19d2 9fbe 3700 7fbc da35 e23d 0d33 86be
00000090: 106e e43c bd7d f6bd 64ab 8f3c 6edf 63be
000000a0: 2587 9d3c e927 8fbe 04b5 81bb 9561 1bbe
000000b0: 81c1 6ebd 83db 863d 4d8f 4fbe bc96 0fbe
000000c0: 06a7 61be cefa 26bd 7669 03be dc01 0fbd
000000d0: e0f0 323d 63d7 513d 1025 aabe 5acc efbd
000000e0: 4ec0 8cbd 7d35 6bbe 8bfa 9ebd 316e d7be
000000f0: 1fa0 7abd 10d5 e7bc 7cac 7bbe 6378 dcbd
00000100: d67c 08be 8ba0 43be 65ec 89bd 14e8 1f3d
00000110: b148 5dbe 1459 f9bb 8748 fdbd f046 643d
00000120: 882f 52be f06d 58bb 391c 0bbe 290b c0bc
00000130: 4dc7 82bd e51d 9ebe 6bfb d0bd b186 2dbe
00000140: 485b 57be b7d0 88be 910c a7bd 7d10 92bd
00000150: 3288 9ebd 857c 23bb 052a 8d3d f0d0 2abe
00000160: 5157 963d 7787 ba3d 0f53 bcbd 8dc4 b23d
00000170: 76f3 0338 cf1b 50be e2bd 9a3d 6585 4abe
00000180: 31d3 afbd a138 05be 811d 31be a071 04be
00000190: d846 35be 0e3b 5dbe 1ac9 ddbd 2d99 803d
000001a0: 5e4d 23be 09c7 e6bd 9df4 a43c 16de 3339
000001b0: 5d56 5abd adfc 00be 5992 cfbd b2a4 073e
000001c0: 66f5 46bd 356f c03d 0e0a 2bbe d251 0ebe
000001d0: 6c55 9b3c 26d6 afbe ed10 dabd dfd2 96bd
000001e0: 12f1 91be 3dc0 eabc 3295 cfbd a5ba 053d
000001f0: e4fe 22be f861 91be 8974 60be d72d ca3b

network.5.running_mean f4 [128]
-0.24461894 -0.5441504 -0.07075952 -0.806854 -0.3750624 -0.1981363 -0.03985787 1.119401
-0.17193443 -0.33650577 -1.203058 -0.41904652 -0.23503467 -0.41437605 -0.7258184 -0.32718712
1.2451557 -1.2489303 -0.19143716 -0.6200819 -0.7874603 -0.06669286 -0.57355 -1.169471
-0.20436662 -0.53943956 -0.5691178 -0.4378895 -0.8300416 -0.64239246 1.0724553 0.55541766
-0.64702606 -0.20030782 0.3997816 0.6863284 0.37808326 -0.49974817 0.1485522 0.06136513
0.19781816 -1.0796932 -0.10203742 -0.020541359 -0.7094183 -0.53456527 -0.3673652 -0.9449448
-0.062753186 0.23489258 -0.32274595 0.81102586 -0.50377 -1.0446125 0.113014325 0.62132084
0.2370216 -0.29303765 -0.90047175 -0.3024166 0.43255192 -0.9192466 -0.70042807 -0.89343727
-0.41864932 -1.166318 -0.14861527 0.7457734 -0.5007381 -0.03214925 0.045264598 0.425944
-0.5988545 -0.4130955 0.24109994 0.13014147 0.12147646 -1.2521883 -0.10467376 -0.008509346
-0.5848982 -0.15831156 -0.6416784 0.060099684 -0.41405612 -0.38613325 -0.30563238 -0.27850816
0.1820413 -0.755251 0.20011854 -0.0550914 -0.52575207 -0.3271401 0.3021196 -0.063048825
0.035815984 -0.3308036 -0.30838034 -0.52572626 -0.36422852 -0.54894215 0.4010002 0.019690724
0.026668958 -0.21506661 1.0658077 0.46652657 -0.97499937 -0.21405207 0.6800094 -0.016055934
-0.24867915 -0.043162193 -0.05069208 -0.90495783 0.0016983845 -0.8215152 -0.7495091 0.92333406
-0.9744012 1.2505184 -0.48228586 -0.66974604 -0.20152721 -0.0035242252 -1.1719053 0.86473054
00000000: 637d 7abe 714d 0bbf 5eea 90bd fc8d 4ebf
00000010: 2e08 c0be 3ee4 4abe 0242 23bd 8848 8f3f
00000020: 940f 30be 7c4a acbe cefd 99bf 448d d6be
00000030: eeac 70be 1929 d4be 3ccf 39bf 1285 a7be
00000040: 4361 9f3f f3dc 9fbf 1a08 44be b0bd 1ebf
00000050: 0097 49bf 4496 88bd 2cd4 12bf 3ab1 95bf
00000060: 7c45 51be b618 0abf b4b1 11bf 0d33 e0be
00000070: 9b7d 54bf d573 24bf 3746 893f da2f 0e3f
00000080: 80a3 25bf 7e1d 4dbe 2db0 cc3e 38b3 2f3f
00000090: 2194 c13e fede ffbe 111e 183e 015a 7b3d
000000a0: d890 4a3e 6333 8abf fff8 d0bd 5a46 a8bc
000000b0: 709c 35bf 45d9 08bf 4b17 bcbe e7e7 71bf
000000c0: be84 80bd ae87 703e f53e a5be 649f 4f3f
000000d0: 12f7 00bf ddb5 85bf 0e74 e73d e20e 1f3f
000000e0: cab5 723e 0809 96be 5185 66bf 59d6 9abe
000000f0: 7277 dd3e bf53 6bbf 414f 33bf 4eb8 64bf
00000100: 3459 d6be e949 95bf 9a2e 18be 01eb 3e3f
00000110: 5f30 00bf efae 03bd 5f67 393d 5515 da3e
00000120: 874e 19bf 4181 d3be e7e2 763e ce43 053e
00000130: a6c8 f83d b547 a0bf 325f d6bd c96a 0bbc
00000140: e3bb 15bf 6d1c 22be 0945 24bf 162b 763d
00000150: 2aff d3be 42b3 c5be d97b 9cbe 9f98 8ebe
00000160: 0969 3a3e 2158 41bf e0eb 4c3e 85a7 61bd
00000170: b097 06bf e87e a7be 6caf 9a3e be1f 81bd
00000180: c8b3 123d 175f a9be 07e4 9dbe ff95 06bf
00000190: 297c babe 7987 0cbf e64f cd3e 714e a13c
000001a0: dc78 da3c 6c3a 5cbe 636c 883f 92dc ee3e
000001b0: 8f99 79bf 7730 5bbe 1915 2e3f bc87 83bc
000001c0: bfa5 7ebe d7ca 30bd 80a2 4fbd 51ab 67bf
000001d0: 549c de3a d24e 52bf d4df 3fbf 9f5f 6c3f
000001e0: 5b72 79bf fd10 a03f 2cee f6be 7a74 2bbf
000001f0: 265d 4ebe b0f6 66bb fe00 96bf fb5e 5d3f

network.5.running_var f4 [128]
0.7225328 0.5077659 0.47807938 0.8242582 1.07062 0.41607127 0.83574873 1.0537953
0.6498422 1.0884715 1.7429972 0.64303464 1.7514666 0.72115755 0.8728473 0.4013063
0.73252577 1.0757755 0.8106794 0.8476156 0.4954766 1.0146533 1.118526 1.4587389
0.8297797 1.2526686 0.6701729 0.74956524 0.5875134 1.2981403 0.66903025 0.5575456
0.9575575 0.99870825 0.76136315 0.5879947 0.5659504 1.7572252 0.6829803 0.31339258
0.6455894 0.791192 0.6434044 0.4194938 0.5068183 1.9629244 0.5400119 1.2330949
0.5614282 0.60950744 1.8460243 0.44250003 1.2225538 0.7353008 0.2711 0.388897
0.8709209 0.34865963 0.95452434 0.59074247 0.37081885 0.6465907 0.3911828 0.7595158
0.9136446 0.9780956 0.97967416 0.7632454 0.5346763 0.58952963 0.2887059 0.6020923
0.9203328 1.2019433 0.60903937 1.0211514 1.0048926 0.97517926 0.40621808 0.49281153
0.5817842 0.25862888 1.0376685 0.78642654 0.7470959 1.6082537 0.75163484 0.38667408
1.3810445 0.69261414 0.49040243 1.6619039 0.7384084 0.82005155 1.168266 0.40376374
0.8252189 1.5039796 0.7722043 0.73167616 0.45427626 0.939667 0.50276953 2.0042264
1.1862007 1.0835491 0.67258316 0.4343042 0.7184166 0.69389397 0.61034566 1.7364136
1.777075 0.45644024 0.5380468 0.98199636 0.735852 0.59243464 1.0128968 0.71359026
1.1032178 0.50578964 0.62853724 1.2997214 0.92970234 0.4299134 1.3535794 0.5920672
00000000: e9f7 383f f2fc 013f d2c6 f43e 9602 533f
00000010: 130a 893f 4b07 d53e a1f3 553f c4e2 863f
00000020: 0f5c 263f 0953 8b3f 881a df3f eb9d 243f
00000030: 0f30 e03f c89d 383f ec72 5f3f 0578 cd3e
00000040: cf86 3b3f 03b3 893f af88 4f3f 56fd 583f
00000050: 1caf fd3e 29e0 813f dc2b 8f3f f5b7 ba3f
00000060: 716c 543f 7257 a03f 7490 2b3f 82e3 3f3f
00000070: 4767 163f 7629 a63f 9145 2b3f 4fbb 0e3f
00000080: 7d22 753f 58ab 7f3f b2e8 423f d286 163f
00000090: 20e2 103f c1ec e03f ccd7 2e3f fe74 a03e
000000a0: 5945 253f 8f8b 4a3f 27b6 243f e4c7 d63e
000000b0: d8be 013f 1b41 fb3f 383e 0a3f 0ed6 9d3f
000000c0: c2b9 0f3f ae08 1c3f 864a ec3f 5d8f e23e
000000d0: a57c 9c3f ac3c 3c3f 9fcd 8a3e 821d c73e
000000e0: acf4 5e3f 8483 b23e b55b 743f e63a 173f
000000f0: f8db bd3e f886 253f 1d49 c83e a16f 423f
00000100: 9de4 693f 7964 7a3f edcb 7a3f 0d64 433f
00000110: 8ce0 083f 6aeb 163f 42d1 933e b922 1a3f
00000120: ee9a 6b3f 47d9 993f 01ea 1b3f 17b5 823f
00000130: 52a0 803f 59a5 793f d1fb cf3e cb51 fc3e
00000140: cfef 143f 016b 843e 52d2 843f 4053 493f
00000150: ad41 3f3f 42db cd3f 246b 403f 25fa c53e
00000160: 11c6 b03f 294f 313f 0716 fb3e 44b9 d43f
00000170: 5508 3d3f e6ee 513f be89 953f 1fba ce3e
00000180: 8c41 533f 6782 c03f 2eaf 453f 214f 3b3f
00000190: e696 e83e 048e 703f 81b5 003f 3f45 0040
000001a0: 6dd5 973f bdb1 8a3f 692e 2c3f 1f5d de3e
000001b0: 26ea 373f 09a3 313f 9d3f 1c3f cd42 de3f
000001c0: 3277 e33f 89b2 e93e 6fbd 093f 1d64 7b3f
000001d0: cc60 3c3f cca9 173f 9aa6 813f daad 363f
000001e0: 3e36 8d3f 6e7b 013f d1e7 203f 455d a63f
000001f0: f900 6e3f 9c1d dc3e 1742 ad3f b791 173f

network.8.weight f4 [64, 128]
0.046004772 -0.32230395 -0.22508928 -0.1271859 -0.03362702 -0.15431459 -0.16104338 0.052849744
0.10582253 -0.0398856 -0.098342165 0.055841386 0.045520116 -0.1692825 0.20887609 -0.24278612
0.11818047 0.025251208 -0.12210438 0.11176726 -0.022309467 -0.027285501 -0.0009716275 0.08808135
-0.058835905 -0.18302286 -0.17486954 -0.014001833 -0.114035636 -0.088955425 -0.016768193 0.1504142
0.19384782 0.017066881 0.09478867 0.069960326 -0.1598111 0.07265218 0.078561075 0.045089
-0.15312055 -0.012744905 0.1063753 -0.07817142 -0.19669221 0.13803476 -0.0006753468 -0.10355094
0.03170557 -0.023042677 0.034082435 0.072304495 0.14106889 0.06685832 0.004189258 -0.124810606
0.13803613 -0.20896177 0.030658929 -0.01433299 -0.08570191 0.07306961 0.007342027 -0.039359175
-0.13827382 0.087378144 -0.029897848 -0.09124392 -0.08419907 0.13558547 0.07845752 0.14712687
0.06344265 0.09875625 -0.009724542 -0.02920111 0.12550037 0.057330273 -0.10486212 0.13026851
-0.07759045 -0.19214177 -0.17190059 -0.1389948 0.22845203 0.065165855 -0.034393433 -0.10267929
0.08029914 -0.17667966 -0.18237418 0.027608473 0.02680097 -0.26515195 -0.024304964 -0.0038894354
-0.16732186 -0.35187432 -0.24923159 -0.042929944 -0.23970678 -0.21295384 -0.039533816 0.042592265
0.05980707 -0.091480285 0.20286639 0.1303115 0.062076867 0.22542638 0.08589275 0.055113185
0.11428133 -0.07684928 0.08387771 -0.0061600925 -0.019511027 0.011612073 0.13763382 0.023608174
-0.23951387 0.09009248 -0.05358713 -0.07496728 -0.041282058 -0.17714131 0.19886905 -0.037486304
-0.15352044 0.14363423 -0.0728166 -0.06605668 -0.12694198 -0.04898918 0.17618634 0.1844182
-0.201714 -0.021825666 0.13535875 0.1116815 -0.06262931 -0.23789631 -0.07020278 -0.15214354
0.033857398 -0.08227339 -0.1348165 0.049003936 0.014535626 0.06891328 -0.019558212 0.019732045
-0.077563055 0.07974502 0.030762875 -0.0059055034 -0.041613698 -0.069690876 0.1940871 0.047646847
0.12807906 -0.13015218 0.11590354 0.08462838 0.0010257479 0.07038886 0.17387132 0.041160416
-0.10946138 -0.07030975 0.21878679 -0.088663004 -0.1682494 -0.1219733 0.106047556 0.06856766
0.031089254 -0.19227454 -0.044009607 0.18414603 -0.0888263 0.0068286187 0.048713297 -0.10363189
-0.07343429 0.14225346 0.004975001 0.32675892 -0.0904075 -0.10753748 0.073022485 0.012542131
-0.010774816 0.022029176 -0.22560015 0.13187848 0.028130045 0.0052237916 -0.08158033 0.15365419
-0.030285245 0.11875701 -0.09974447 -0.09746882 -0.022436686 0.105914086 -0.074300386 0.20263126
0.26881033 -0.121819615 -0.1349346 0.12996751 -0.3116173 0.08331076 0.102757365 -0.30272093
-0.20685835 -0.07042424 0.22392309 0.08688306 0.027604807 -0.011042138 -0.06667917 -0.24900874
0.16703865 -0.003094911 0.030456593 -0.25923857 0.048709575 0.0057007098 0.04057216 -0.11173555
-0.16192979 0.06533765 0.0041798623 0.06817382 0.09134214 0.1262136 0.012533621 0.005428207
0.0010565487 -0.09136306 -0.00711127 0.03212615 0.05970386 -0.0066427914 0.05878267 -0.19034076
-0.02814809 -0.104896545 0.04094569 0.12898093 -0.01721113 0.19156642 -0.14713703 0.01958913
00000000: 806f 3c3d 0605 a5be ce7d 66be 053d 02be
00000010: 7cbc 09bd a504 1ebe 8ee8 24be f978 583d
00000020: 7cb9 d83d 155f 23bd 9e67 c9bd f0b9 643d
00000030: 4d73 3a3d 6458 2dbe 9de3 553e ed9c 78be
00000040: 9a08 f23d 9fdb ce3c dc11 fabd 3ce6 e43d
00000050: 58c2 b6bc d885 dfbc d1b4 7eba ff63 b43d
00000060: ebfd 70bd 586a 3bbe 0011 33be f267 65bc
00000070: 848b e9bd 432e b6bd 735d 89bc 2e06 1a3e
00000080: 0b80 463e d8cf 8b3c 9020 c23d 5c47 8f3d
00000090: 85a5 23be abca 943d a1e4 a03d 3eaf 383d
000000a0: a2cb 1cbe 02d0 50bc 4bdb d93d 5618 a0bd
000000b0: af69 49be fc58 0d3e c209 31ba 8412 d4bd
000000c0: b3dd 013d ffc3 bcbc 069a 0b3d 6114 943d
000000d0: 5d74 103e 04ed 883d 0b46 893b b49c ffbd
000000e0: 5859 0d3e 13fa 55be 6f28 fb3c ebd4 6abc
000000f0: 7c84 afbd 85a5 953d 6395 f03b 1637 21bd
00000100: a797 0dbe 50f3 b23d 55ec f4bc 18de babd
00000110: 9070 acbd ebd6 0a3e 56ae a03d 6da8 163e
00000120: 38ee 813d b840 ca3d af53 1fbc 2b37 efbc
00000130: 2b83 003e 26d3 6a3d f3c1 d6bd 1c65 053e
00000140: bee7 9ebd d0c0 44be b506 30be a754 0ebe
00000150: 54ef 693e ad75 853d 21e0 0cbd 8549 d2bd
00000160: e073 a43d 83eb 34be 4cc0 3abe 2a2b e23c
00000170: b58d db3c ffc1 87be 341b c7bc e6e5 7ebb
00000180: 6c56 2bbe df28 b4be 9136 7fbe 4fd7 2fbd
00000190: b275 75be 9210 5abe 36ee 21bd 3a75 2e3d
000001a0: 42f8 743d 045a bbbd 35bc 4f3e 6170 053e
000001b0: 5044 7e3d 2cd6 663e 8ae8 af3d 5dbe 613d
000001c0: 540c ea3d 2863 9dbd 14c8 ab3d 9ada c9bb
000001d0: 97d5 9fbc 9040 3e3c e1ef 0c3e ee65 c13c
000001e0: 2043 75be 6882 b83d 2e7e 5bbd 7288 99bd
000001f0: 6017 29bd 8864 35be 54a4 4b3e 3d8b 19bd
00000200: 7634 1dbe da14 133e df20 95bd ba48 87bd
00000210: 14fd 01be e1a8 48bd 316a 343e 20d8 3c3e
00000220: 1d8e 4ebe bdcb b2bc 7c9b 0a3e 45b9 e43d
00000230: cc43 80bd 179b 73be 7ac6 8fbd 84cb 1bbe
00000240: 0eae 0a3d f37e a8bd 560d 0abe 5ab8 483d
00000250: d626 6e3c 6822 8d3d 8b38 a0bc 19a5 a13c
00000260: 61d9 9ebd 5b51 a33d 6d02 fc3c f482 c1bb
00000270: 2073 2abd 17ba 8ebd c5be 463e 5729 433d
00000280: 2827 033e 9d46 05be d65e ed3d a551 ad3d
00000290: 6372 863a 0928 903d 530b 323e d397 283d
000002a0: 4a2d e0bd 8ffe 8fbd a509 603e f394 b5bd
000002b0: 9249 2cbe 23cd f9bd 762f d93d 346d 8c3d
000002c0: e4ae fe3c 9ee3 44be 6b43 34bd c790 3c3e
000002d0: 90ea b5bd 9bc2 df3b 9887 473d f53c d4bd
000002e0: b864 96bd e4aa 113e 5505 a33b f24c a73e
000002f0: 9127 b9bd 9c3c dcbd d08c 953d 837d 4d3c
00000300: db88 30bc 8876 b43c ba03 67be 270b 073e
00000310: fb70 e63c 572c ab3b 9713 a7bd 8657 1d3e
00000320: c318 f8bc e036 f33d d446 ccbd bc9d c7bd
00000330: 24cd b7bc 7ce9 d83d cd2a 98bd 927e 4f3e
00000340: 82a1 893e 907c f9bd 4c2c 0abe 3416 053e
00000350: 4e8c 9fbe d59e aa3d 7472 d23d 3dfe 9abe
00000360: add2 53be 953a 90bd 184c 653e bfef b13d
00000370: 7a23 e23c 15ea 34bc 178f 88bd 26fc 7ebe
00000380: 2e0c 2b3e fed3 4abb 1b80 f93c ebba 84be
00000390: b183 473d 05cd ba3b fe2e 263d 9cd5 e4bd
000003a0: ecd0 25be bfcf 853d 3af7 883b b79e 8b3d
000003b0: 9711 bb3d 233e 013e d159 4d3c 1adf b13b
000003c0: e47b 8a3a 8e1c bbbd a805 e9bb b696 033d
000003d0: 098c 743d c6ab d9bb 19c6 703d b0e8 42be
000003e0: d396 e6bc 00d4 d6bd abb6 273d 9413 043e
000003f0: 5bfe 8cbc fd29 443e 17ab 16be 6279 a03c

network.8.bias f4 [64]
-0.0003073748 0.0011208627 0.00018443193 0.0012201526 -4.348429e-05 0.00083662424 0.0012939378 -0.0021973283
-0.0012336514 -0.00053224317 -0.0005938455 -0.0009646102 0.0016475483 0.00018676007 0.0005645653 -0.0006239487
0.0010620989 -0.00052040926 0.0010067709 0.0017847741 0.001327049 0.000325422 0.00043615213 -7.241606e-05
0.001362492 -0.0010339097 -0.0021063352 -0.000955097 0.0006391164 0.00030906228 0.0003157915 0.0006800701
0.00027254072 0.0014410286 -0.0019052881 2.4286219e-05 0.00029437084 -0.001277814 0.0014186735 -0.0014606955
-0.0008988004 -0.0008585665 0.001835264 -0.0010318012 -0.0014712046 -0.0002912171 -0.0008218887 -0.0003237903
-0.00032138784 -0.0007117976 -0.001019609 0.0007587047 -0.0002783416 0.0011113043 0.00048719253 0.0004311677
-0.0014826767 0.00032522428 -0.00222725 -0.00080345495 -0.00041410755 0.001749982 0.0005885074 0.00040231223
00000000: 2627 a1b9 e9e9 923a 1264 4139 87ed 9f3a
00000010: e762 36b8 e750 5b3a 5999 a93a 0d01 10bb
00000020: 79b2 a1ba 3c86 0bba 4cac 1bba e5dd 7cba
00000030: 8cf2 d73a 06d5 4339 56ff 133a 7d90 23ba
00000040: 2036 8b3a 136c 08ba a0f5 833a 15ef e93a
00000050: 60f0 ad3a 679d aa39 59ab e439 14de 97b8
00000060: a595 b23a 4184 87ba 710a 0abb 7a5f 7aba
00000070: 608a 273a a309 a239 d190 a539 bb46 323a
00000080: cce3 8e39 e5e0 bc3a dcba f9ba 42ba cb37
00000090: c955 9a39 537c a7ba c9f2 b93a cf74 bfba
000000a0: 799d 6bba 6c11 61ba 3e8d f03a 813d 87ba
000000b0: 6fd5 c0ba 7fae 98b9 0474 57ba 66c2 a9b9
000000c0: f27f a8b9 ee97 3aba 67a4 85ba cfe3 463a
000000d0: 61ee 91b9 2fa9 913a e06d ff39 590e e239
000000e0: 6056 c2ba dd82 aa39 0ef7 11bb f39e 52ba
000000f0: 931c d9b9 a75f e53a 1046 1a3a 6fed d239

network.9.weight f4 [64]
0.8754591 0.8983158 1.0030323 0.9231641 0.995356 0.999068 1.0470086 0.9295497
0.9555506 0.85972685 1.1027969 0.9627781 1.1458693 1.0052732 0.9174344 1.2264056
1.0235881 0.92823887 0.8858124 0.96313184 1.0202616 1.0222887 1.0089015 1.1845943
0.98729116 1.0753932 1.0670009 1.009204 0.8355215 0.9452267 1.1357232 0.92172986
0.85576236 1.1647036 0.86668783 1.0304968 1.1807556 1.0547438 0.8733088 0.99008363
1.0175893 0.9021653 1.0769577 1.1023382 0.8219939 1.0319818 0.96709955 0.91906536
1.21566 1.1242938 0.84314805 1.1577697 1.010762 1.0614427 0.98327833 1.0745152
0.8931767 1.0085577 1.1007829 0.7896038 1.0182208 0.9683747 1.016299 1.1215861
00000000: 161e 603f 06f8 653f 5d63 803f 7c54 6c3f
00000010: a7cf 7e3f ecc2 7f3f 6104 863f f8f6 6d3f
00000020: f79e 743f 0f17 5c3f 7328 8d3f a078 763f
00000030: d8ab 923f cbac 803f fbdc 6a3f dcfa 9c3f
00000040: ef04 833f 10a1 6d3f 9ac4 623f cf8f 763f
00000050: ef97 823f 5bda 823f af23 813f c9a0 973f
00000060: 1dbf 7c3f 7ca6 893f 7c93 883f 992d 813f
00000070: bde4 553f 61fa 713f 615f 913f 7df6 6b3f
00000080: 3e13 5b3f 0215 953f 41df 5d3f 52e7 833f
00000090: 0023 973f d801 873f 2a91 5f3f 1f76 7d3f
000000a0: 5e40 823f 4ef4 663f c0d9 893f 6b19 8d3f
000000b0: 316e 523f fb17 843f d693 773f de47 6b3f
000000c0: bf9a 9b3f dce8 8f3f 8dd8 573f cc31 943f
000000d0: a660 813f 5bdd 873f 21b8 7b3f b789 893f
000000e0: 3aa7 643f 6b18 813f 74e6 8c3f 7a23 4a3f
000000f0: 0f55 823f 68e7 773f 1616 823f 2290 8f3f

network.9.bias f4 [64]
-0.1561983 -0.18504895 0.09408192 -0.08460188 -0.3027287 -0.3184745 0.060694966 -0.01622514
-0.08630401 0.00039282104 -0.24842331 -0.14520797 -0.032774527 -0.018858984 -0.050200336 0.186636
-0.105269134 -0.23342423 0.062164403 -0.31331542 -0.121231325 0.0023815727 -0.29393226 0.20616461
-0.1549555 -0.22659782 -0.08637012 -0.29341897 -0.046825994 -0.20446149 0.16883175 -0.0660043
-0.43498892 0.12238716 -0.058161713 -0.08299972 -0.141981 -0.007572003 -0.14031078 -0.064666495
-0.07939723 -0.16251493 -0.22991109 0.007021601 -0.10654388 -0.14400347 -0.183322 -0.20930418
-0.17725262 0.02869467 -0.27821708 -0.07015555 -0.12436568 -0.030492274 0.036250725 -0.02912861
-0.068967454 -0.04062702 0.101182505 -0.2375441 0.038524415 -0.22244097 -0.031468533 -0.017369287
00000000: 72f2 1fbe 797d 3dbe 06ae c03d c043 adbd
00000010: 42ff 9abe 170f a3be 499b 783d 96ea 84bc
00000020: 28c0 b0bd 8cf3 cd39 ae62 7ebe 66b1 14be
00000030: 953e 06bd 287e 9abc de9e 4dbd 821d 3f3e
00000040: 5897 d7bd c306 6fbe 1aa0 7e3d e16a a0be
00000050: 2148 f8bd 2914 1c3b 4a7e 96be d11c 533e
00000060: a8ac 1ebe 4209 68be d1e2 b0bd 033b 96be
00000070: 9dcc 3fbd 5a5e 51be 3be2 2c3e 432d 87bd
00000080: deb6 debe 1fa6 fa3d fa3a 6ebd c2fb a9bd
00000090: 7863 11be 911e f8bb a1ad 0fbe de6f 84bd
000000a0: 049b a2bd 506a 26be d06d 6bbe 7515 e63b
000000b0: ae33 dabd a575 13be c3b8 3bbe d653 56be
000000c0: b681 35be 1611 eb3c 7872 8ebe b7ad 8fbd
000000d0: 6fb3 febd efca f9bc a47b 143d 1f9f eebc
000000e0: cf3e 8dbd 8568 26bd c638 cf3d c33e 73be
000000f0: c7cb 1d3d 91c7 63be 26e5 00bd 094a 8ebc

network.9.running_mean f4 [64]
-0.6217932 -0.27924472 -1.2287517 -1.0088953 -0.84002525 -1.7063106 0.03359193 -1.7411126
-1.2806677 0.9137058 -0.7921523 0.09880007 0.66434383 0.55892235 -1.5041018 -0.25806963
0.54611796 -1.662726 0.3393259 -1.6035726 -1.3529754 -0.14862932 -1.2329316 -0.25173482
-0.06876079 -0.2153963 0.96706825 -1.0167867 0.3787166 -0.33121875 -0.44280514 -1.293895
-1.1792603 1.5576078 -0.20246834 0.37174076 -1.3886917 -0.54522896 0.5986072 0.94685936
0.34403375 -1.6590905 -0.8102938 0.43627247 -0.29982924 -0.57012665 -0.9362029 0.5122091
-2.1166081 -0.6431546 -0.1987949 0.5704214 -1.9602437 -2.5846758 -0.07756232 0.19625248
-0.5240139 -1.2653129 -0.30315676 -1.3602828 -1.0054398 -0.95153576 -1.3619578 -2.396418
00000000: d72d 1fbf 2af9 8ebe bc47 9dbf 7b23 81bf
00000010: e50b 57bf 6368 dabf b197 093d c7dc debf
00000020: ebec a3bf a0e8 693f 7eca 4abf b157 ca3d
00000030: 7012 2a3f 8915 0f3f 6886 c0bf b421 84be
00000040: 63ce 0b3f 35d4 d4bf 20bc ad3e de41 cdbf
00000050: 4c2e adbf 4932 18be b4d0 9dbf 63e3 80be
00000060: 75d2 8cbd d990 5cbe c991 773f 1126 82bf
00000070: 24e7 c13e 8195 a9be 5bb7 e2be 5a9e a5bf
00000080: 00f2 96bf b15f c73f dc53 4fbe ce54 be3e
00000090: a6c0 b1bf 2094 0bbf 523e 193f 6065 723f
000000a0: 3125 b03e 145d d4bf 6a6f 4fbf 1b5f df3e
000000b0: 3883 99be d2f3 11bf feaa 6fbf 2320 033f
000000c0: 8276 07c0 c8a5 24bf e490 4bbe 2307 123f
000000d0: 44e9 fabf 546b 25c0 fed8 9ebd 69f6 483e
000000e0: c625 06bf c6f5 a1bf 5d37 9bbe bf1d aebf
000000f0: 40b2 80bf d997 73bf a254 aebf ea5e 19c0

network.9.running_var f4 [64]
2.8205478 1.9412912 4.0497537 5.821374 3.7608519 4.024702 6.6167955 3.9073253
3.1812508 4.7527227 4.0209723 2.6910424 2.391465 5.373445 3.8263342 7.627064
2.1282835 5.198102 3.7146845 4.1001635 3.519961 6.0312376 4.2476006 6.8606105
2.909967 4.897065 3.675221 2.3350792 1.6044233 3.056744 5.780204 3.247516
3.1865127 3.77877 2.2381904 3.786421 3.5159228 4.6735196 3.2099051 5.150026
4.9780436 4.274919 2.7208486 2.0300455 6.0586977 3.914548 3.7081888 4.014376
3.40263 4.598405 4.223281 2.6493704 5.0934973 5.5005994 4.383933 3.544877
5.184707 4.0214653 6.06866 4.699766 5.1894016 4.4863605 4.574058 5.820477
00000000: db83 3440 3b7c f83f 9597 8140 b248 ba40
00000010: ccb1 7040 5cca 8040 cabc d340 9e11 7a40
00000020: 9d99 4b40 4e16 9840 ceab 8040 0a3a 2c40
00000030: c30d 1940 43f3 ab40 a9e2 7440 e910 f440
00000040: cc35 0840 da56 a640 64bd 6d40 8a34 8340
00000050: 0b47 6140 e6ff c040 58ec 8740 1f8a db40
00000060: e63c 3a40 c2b4 9c40 d236 6b40 f071 1540
00000070: be5d cd3f b2a1 4340 6ef7 b840 4dd7 4f40
00000080: d3ef 4b40 5ed7 7140 833e 0f40 b954 7240
00000090: e104 6140 798d 9540 166f 4d40 03cd a440
000000a0: 224c 9f40 23cc 8840 6222 2e40 44ec 0140
000000b0: dae0 c140 f487 7a40 f752 6d40 c575 8040
000000c0: b1c4 5940 2226 9340 1e25 8740 498f 2940
000000d0: eefd a240 e904 b040 2e49 8c40 44df 6240
000000e0: 1fe9 a540 d8af 8040 7632 c240 7c64 9640
000000f0: 940f a640 4490 8f40 af5e 9240 5941 ba40
